#map = affine_map<(d0) -> (d0)>
#map1 = affine_map<(d0) -> (d0 + 64)>
#map2 = affine_map<(d0) -> (d0 + 32)>
#map3 = affine_map<(d0, d1) -> (-d0 + d1)>
#map4 = affine_map<(d0) -> (d0 + 1)>
#map5 = affine_map<(d0) -> (d0 + 2)>
#map6 = affine_map<(d0) -> (d0 + 3)>
module attributes {llvm.data_layout = "e-m:e-p270:32:32-p271:32:32-p272:64:64-i64:64-f80:128-n8:16:32:64-S128", llvm.target_triple = "x86_64-unknown-linux-gnu"} {
  llvm.mlir.global internal constant @constant_896("constant_896\00") {addr_space = 0 : i32}
  llvm.mlir.global internal constant @constant_895("constant_895\00") {addr_space = 0 : i32}
  llvm.mlir.global internal constant @constant_892("constant_892\00") {addr_space = 0 : i32}
  llvm.mlir.global internal constant @constant_891("constant_891\00") {addr_space = 0 : i32}
  llvm.mlir.global internal constant @constant_890("constant_890\00") {addr_space = 0 : i32}
  llvm.mlir.global internal constant @constant_889("constant_889\00") {addr_space = 0 : i32}
  llvm.mlir.global internal constant @constant_888("constant_888\00") {addr_space = 0 : i32}
  llvm.mlir.global internal constant @constant_885("constant_885\00") {addr_space = 0 : i32}
  llvm.mlir.global internal constant @constant_884("constant_884\00") {addr_space = 0 : i32}
  llvm.mlir.global internal constant @constant_881("constant_881\00") {addr_space = 0 : i32}
  llvm.mlir.global internal constant @constant_879("constant_879\00") {addr_space = 0 : i32}
  llvm.mlir.global internal constant @constant_878("constant_878\00") {addr_space = 0 : i32}
  llvm.mlir.global internal constant @constant_871("constant_871\00") {addr_space = 0 : i32}
  llvm.mlir.global internal constant @constant_870("constant_870\00") {addr_space = 0 : i32}
  llvm.mlir.global internal constant @constant_867("constant_867\00") {addr_space = 0 : i32}
  llvm.mlir.global internal constant @constant_866("constant_866\00") {addr_space = 0 : i32}
  llvm.mlir.global internal constant @constant_865("constant_865\00") {addr_space = 0 : i32}
  llvm.mlir.global internal constant @constant_864("constant_864\00") {addr_space = 0 : i32}
  llvm.mlir.global internal constant @constant_863("constant_863\00") {addr_space = 0 : i32}
  llvm.mlir.global internal constant @constant_860("constant_860\00") {addr_space = 0 : i32}
  llvm.mlir.global internal constant @constant_859("constant_859\00") {addr_space = 0 : i32}
  llvm.mlir.global internal constant @constant_856("constant_856\00") {addr_space = 0 : i32}
  llvm.mlir.global internal constant @constant_854("constant_854\00") {addr_space = 0 : i32}
  llvm.mlir.global internal constant @constant_853("constant_853\00") {addr_space = 0 : i32}
  llvm.mlir.global internal constant @constant_846("constant_846\00") {addr_space = 0 : i32}
  llvm.mlir.global internal constant @constant_845("constant_845\00") {addr_space = 0 : i32}
  llvm.mlir.global internal constant @constant_842("constant_842\00") {addr_space = 0 : i32}
  llvm.mlir.global internal constant @constant_841("constant_841\00") {addr_space = 0 : i32}
  llvm.mlir.global internal constant @constant_840("constant_840\00") {addr_space = 0 : i32}
  llvm.mlir.global internal constant @constant_839("constant_839\00") {addr_space = 0 : i32}
  llvm.mlir.global internal constant @constant_838("constant_838\00") {addr_space = 0 : i32}
  llvm.mlir.global internal constant @constant_835("constant_835\00") {addr_space = 0 : i32}
  llvm.mlir.global internal constant @constant_834("constant_834\00") {addr_space = 0 : i32}
  llvm.mlir.global internal constant @constant_831("constant_831\00") {addr_space = 0 : i32}
  llvm.mlir.global internal constant @constant_829("constant_829\00") {addr_space = 0 : i32}
  llvm.mlir.global internal constant @constant_828("constant_828\00") {addr_space = 0 : i32}
  llvm.mlir.global internal constant @constant_821("constant_821\00") {addr_space = 0 : i32}
  llvm.mlir.global internal constant @constant_820("constant_820\00") {addr_space = 0 : i32}
  llvm.mlir.global internal constant @constant_817("constant_817\00") {addr_space = 0 : i32}
  llvm.mlir.global internal constant @constant_816("constant_816\00") {addr_space = 0 : i32}
  llvm.mlir.global internal constant @constant_815("constant_815\00") {addr_space = 0 : i32}
  llvm.mlir.global internal constant @constant_814("constant_814\00") {addr_space = 0 : i32}
  llvm.mlir.global internal constant @constant_813("constant_813\00") {addr_space = 0 : i32}
  llvm.mlir.global internal constant @constant_810("constant_810\00") {addr_space = 0 : i32}
  llvm.mlir.global internal constant @constant_809("constant_809\00") {addr_space = 0 : i32}
  llvm.mlir.global internal constant @constant_806("constant_806\00") {addr_space = 0 : i32}
  llvm.mlir.global internal constant @constant_804("constant_804\00") {addr_space = 0 : i32}
  llvm.mlir.global internal constant @constant_803("constant_803\00") {addr_space = 0 : i32}
  llvm.mlir.global internal constant @constant_796("constant_796\00") {addr_space = 0 : i32}
  llvm.mlir.global internal constant @constant_795("constant_795\00") {addr_space = 0 : i32}
  llvm.mlir.global internal constant @constant_792("constant_792\00") {addr_space = 0 : i32}
  llvm.mlir.global internal constant @constant_791("constant_791\00") {addr_space = 0 : i32}
  llvm.mlir.global internal constant @constant_790("constant_790\00") {addr_space = 0 : i32}
  llvm.mlir.global internal constant @constant_789("constant_789\00") {addr_space = 0 : i32}
  llvm.mlir.global internal constant @constant_788("constant_788\00") {addr_space = 0 : i32}
  llvm.mlir.global internal constant @constant_785("constant_785\00") {addr_space = 0 : i32}
  llvm.mlir.global internal constant @constant_784("constant_784\00") {addr_space = 0 : i32}
  llvm.mlir.global internal constant @constant_781("constant_781\00") {addr_space = 0 : i32}
  llvm.mlir.global internal constant @constant_779("constant_779\00") {addr_space = 0 : i32}
  llvm.mlir.global internal constant @constant_778("constant_778\00") {addr_space = 0 : i32}
  llvm.mlir.global internal constant @constant_771("constant_771\00") {addr_space = 0 : i32}
  llvm.mlir.global internal constant @constant_770("constant_770\00") {addr_space = 0 : i32}
  llvm.mlir.global internal constant @constant_767("constant_767\00") {addr_space = 0 : i32}
  llvm.mlir.global internal constant @constant_766("constant_766\00") {addr_space = 0 : i32}
  llvm.mlir.global internal constant @constant_765("constant_765\00") {addr_space = 0 : i32}
  llvm.mlir.global internal constant @constant_764("constant_764\00") {addr_space = 0 : i32}
  llvm.mlir.global internal constant @constant_763("constant_763\00") {addr_space = 0 : i32}
  llvm.mlir.global internal constant @constant_760("constant_760\00") {addr_space = 0 : i32}
  llvm.mlir.global internal constant @constant_759("constant_759\00") {addr_space = 0 : i32}
  llvm.mlir.global internal constant @constant_756("constant_756\00") {addr_space = 0 : i32}
  llvm.mlir.global internal constant @constant_754("constant_754\00") {addr_space = 0 : i32}
  llvm.mlir.global internal constant @constant_753("constant_753\00") {addr_space = 0 : i32}
  llvm.mlir.global internal constant @constant_746("constant_746\00") {addr_space = 0 : i32}
  llvm.mlir.global internal constant @constant_745("constant_745\00") {addr_space = 0 : i32}
  llvm.mlir.global internal constant @constant_742("constant_742\00") {addr_space = 0 : i32}
  llvm.mlir.global internal constant @constant_741("constant_741\00") {addr_space = 0 : i32}
  llvm.mlir.global internal constant @constant_740("constant_740\00") {addr_space = 0 : i32}
  llvm.mlir.global internal constant @constant_739("constant_739\00") {addr_space = 0 : i32}
  llvm.mlir.global internal constant @constant_738("constant_738\00") {addr_space = 0 : i32}
  llvm.mlir.global internal constant @constant_735("constant_735\00") {addr_space = 0 : i32}
  llvm.mlir.global internal constant @constant_734("constant_734\00") {addr_space = 0 : i32}
  llvm.mlir.global internal constant @constant_731("constant_731\00") {addr_space = 0 : i32}
  llvm.mlir.global internal constant @constant_729("constant_729\00") {addr_space = 0 : i32}
  llvm.mlir.global internal constant @constant_728("constant_728\00") {addr_space = 0 : i32}
  llvm.mlir.global internal constant @constant_721("constant_721\00") {addr_space = 0 : i32}
  llvm.mlir.global internal constant @constant_720("constant_720\00") {addr_space = 0 : i32}
  llvm.mlir.global internal constant @constant_717("constant_717\00") {addr_space = 0 : i32}
  llvm.mlir.global internal constant @constant_716("constant_716\00") {addr_space = 0 : i32}
  llvm.mlir.global internal constant @constant_715("constant_715\00") {addr_space = 0 : i32}
  llvm.mlir.global internal constant @constant_714("constant_714\00") {addr_space = 0 : i32}
  llvm.mlir.global internal constant @constant_713("constant_713\00") {addr_space = 0 : i32}
  llvm.mlir.global internal constant @constant_710("constant_710\00") {addr_space = 0 : i32}
  llvm.mlir.global internal constant @constant_709("constant_709\00") {addr_space = 0 : i32}
  llvm.mlir.global internal constant @constant_706("constant_706\00") {addr_space = 0 : i32}
  llvm.mlir.global internal constant @constant_704("constant_704\00") {addr_space = 0 : i32}
  llvm.mlir.global internal constant @constant_703("constant_703\00") {addr_space = 0 : i32}
  llvm.mlir.global internal constant @constant_696("constant_696\00") {addr_space = 0 : i32}
  llvm.mlir.global internal constant @constant_695("constant_695\00") {addr_space = 0 : i32}
  llvm.mlir.global internal constant @constant_692("constant_692\00") {addr_space = 0 : i32}
  llvm.mlir.global internal constant @constant_691("constant_691\00") {addr_space = 0 : i32}
  llvm.mlir.global internal constant @constant_690("constant_690\00") {addr_space = 0 : i32}
  llvm.mlir.global internal constant @constant_689("constant_689\00") {addr_space = 0 : i32}
  llvm.mlir.global internal constant @constant_688("constant_688\00") {addr_space = 0 : i32}
  llvm.mlir.global internal constant @constant_685("constant_685\00") {addr_space = 0 : i32}
  llvm.mlir.global internal constant @constant_684("constant_684\00") {addr_space = 0 : i32}
  llvm.mlir.global internal constant @constant_681("constant_681\00") {addr_space = 0 : i32}
  llvm.mlir.global internal constant @constant_679("constant_679\00") {addr_space = 0 : i32}
  llvm.mlir.global internal constant @constant_678("constant_678\00") {addr_space = 0 : i32}
  llvm.mlir.global internal constant @constant_671("constant_671\00") {addr_space = 0 : i32}
  llvm.mlir.global internal constant @constant_670("constant_670\00") {addr_space = 0 : i32}
  llvm.mlir.global internal constant @constant_667("constant_667\00") {addr_space = 0 : i32}
  llvm.mlir.global internal constant @constant_666("constant_666\00") {addr_space = 0 : i32}
  llvm.mlir.global internal constant @constant_665("constant_665\00") {addr_space = 0 : i32}
  llvm.mlir.global internal constant @constant_664("constant_664\00") {addr_space = 0 : i32}
  llvm.mlir.global internal constant @constant_663("constant_663\00") {addr_space = 0 : i32}
  llvm.mlir.global internal constant @constant_660("constant_660\00") {addr_space = 0 : i32}
  llvm.mlir.global internal constant @constant_659("constant_659\00") {addr_space = 0 : i32}
  llvm.mlir.global internal constant @constant_656("constant_656\00") {addr_space = 0 : i32}
  llvm.mlir.global internal constant @constant_654("constant_654\00") {addr_space = 0 : i32}
  llvm.mlir.global internal constant @constant_653("constant_653\00") {addr_space = 0 : i32}
  llvm.mlir.global internal constant @constant_646("constant_646\00") {addr_space = 0 : i32}
  llvm.mlir.global internal constant @constant_645("constant_645\00") {addr_space = 0 : i32}
  llvm.mlir.global internal constant @constant_642("constant_642\00") {addr_space = 0 : i32}
  llvm.mlir.global internal constant @constant_641("constant_641\00") {addr_space = 0 : i32}
  llvm.mlir.global internal constant @constant_640("constant_640\00") {addr_space = 0 : i32}
  llvm.mlir.global internal constant @constant_639("constant_639\00") {addr_space = 0 : i32}
  llvm.mlir.global internal constant @constant_638("constant_638\00") {addr_space = 0 : i32}
  llvm.mlir.global internal constant @constant_635("constant_635\00") {addr_space = 0 : i32}
  llvm.mlir.global internal constant @constant_634("constant_634\00") {addr_space = 0 : i32}
  llvm.mlir.global internal constant @constant_631("constant_631\00") {addr_space = 0 : i32}
  llvm.mlir.global internal constant @constant_629("constant_629\00") {addr_space = 0 : i32}
  llvm.mlir.global internal constant @constant_628("constant_628\00") {addr_space = 0 : i32}
  llvm.mlir.global internal constant @constant_621("constant_621\00") {addr_space = 0 : i32}
  llvm.mlir.global internal constant @constant_620("constant_620\00") {addr_space = 0 : i32}
  llvm.mlir.global internal constant @constant_617("constant_617\00") {addr_space = 0 : i32}
  llvm.mlir.global internal constant @constant_616("constant_616\00") {addr_space = 0 : i32}
  llvm.mlir.global internal constant @constant_615("constant_615\00") {addr_space = 0 : i32}
  llvm.mlir.global internal constant @constant_614("constant_614\00") {addr_space = 0 : i32}
  llvm.mlir.global internal constant @constant_613("constant_613\00") {addr_space = 0 : i32}
  llvm.mlir.global internal constant @constant_610("constant_610\00") {addr_space = 0 : i32}
  llvm.mlir.global internal constant @constant_609("constant_609\00") {addr_space = 0 : i32}
  llvm.mlir.global internal constant @constant_606("constant_606\00") {addr_space = 0 : i32}
  llvm.mlir.global internal constant @constant_604("constant_604\00") {addr_space = 0 : i32}
  llvm.mlir.global internal constant @constant_603("constant_603\00") {addr_space = 0 : i32}
  llvm.mlir.global internal constant @constant_596("constant_596\00") {addr_space = 0 : i32}
  llvm.mlir.global internal constant @constant_595("constant_595\00") {addr_space = 0 : i32}
  llvm.mlir.global internal constant @constant_592("constant_592\00") {addr_space = 0 : i32}
  llvm.mlir.global internal constant @constant_591("constant_591\00") {addr_space = 0 : i32}
  llvm.mlir.global internal constant @constant_590("constant_590\00") {addr_space = 0 : i32}
  llvm.mlir.global internal constant @constant_589("constant_589\00") {addr_space = 0 : i32}
  llvm.mlir.global internal constant @constant_588("constant_588\00") {addr_space = 0 : i32}
  llvm.mlir.global internal constant @constant_585("constant_585\00") {addr_space = 0 : i32}
  llvm.mlir.global internal constant @constant_584("constant_584\00") {addr_space = 0 : i32}
  llvm.mlir.global internal constant @constant_581("constant_581\00") {addr_space = 0 : i32}
  llvm.mlir.global internal constant @constant_579("constant_579\00") {addr_space = 0 : i32}
  llvm.mlir.global internal constant @constant_578("constant_578\00") {addr_space = 0 : i32}
  llvm.mlir.global internal constant @constant_571("constant_571\00") {addr_space = 0 : i32}
  llvm.mlir.global internal constant @constant_570("constant_570\00") {addr_space = 0 : i32}
  llvm.mlir.global internal constant @constant_567("constant_567\00") {addr_space = 0 : i32}
  llvm.mlir.global internal constant @constant_566("constant_566\00") {addr_space = 0 : i32}
  llvm.mlir.global internal constant @constant_565("constant_565\00") {addr_space = 0 : i32}
  llvm.mlir.global internal constant @constant_564("constant_564\00") {addr_space = 0 : i32}
  llvm.mlir.global internal constant @constant_563("constant_563\00") {addr_space = 0 : i32}
  llvm.mlir.global internal constant @constant_560("constant_560\00") {addr_space = 0 : i32}
  llvm.mlir.global internal constant @constant_559("constant_559\00") {addr_space = 0 : i32}
  llvm.mlir.global internal constant @constant_556("constant_556\00") {addr_space = 0 : i32}
  llvm.mlir.global internal constant @constant_554("constant_554\00") {addr_space = 0 : i32}
  llvm.mlir.global internal constant @constant_553("constant_553\00") {addr_space = 0 : i32}
  llvm.mlir.global internal constant @constant_546("constant_546\00") {addr_space = 0 : i32}
  llvm.mlir.global internal constant @constant_545("constant_545\00") {addr_space = 0 : i32}
  llvm.mlir.global internal constant @constant_542("constant_542\00") {addr_space = 0 : i32}
  llvm.mlir.global internal constant @constant_541("constant_541\00") {addr_space = 0 : i32}
  llvm.mlir.global internal constant @constant_540("constant_540\00") {addr_space = 0 : i32}
  llvm.mlir.global internal constant @constant_539("constant_539\00") {addr_space = 0 : i32}
  llvm.mlir.global internal constant @constant_538("constant_538\00") {addr_space = 0 : i32}
  llvm.mlir.global internal constant @constant_535("constant_535\00") {addr_space = 0 : i32}
  llvm.mlir.global internal constant @constant_534("constant_534\00") {addr_space = 0 : i32}
  llvm.mlir.global internal constant @constant_531("constant_531\00") {addr_space = 0 : i32}
  llvm.mlir.global internal constant @constant_529("constant_529\00") {addr_space = 0 : i32}
  llvm.mlir.global internal constant @constant_528("constant_528\00") {addr_space = 0 : i32}
  llvm.mlir.global internal constant @constant_521("constant_521\00") {addr_space = 0 : i32}
  llvm.mlir.global internal constant @constant_520("constant_520\00") {addr_space = 0 : i32}
  llvm.mlir.global internal constant @constant_517("constant_517\00") {addr_space = 0 : i32}
  llvm.mlir.global internal constant @constant_516("constant_516\00") {addr_space = 0 : i32}
  llvm.mlir.global internal constant @constant_515("constant_515\00") {addr_space = 0 : i32}
  llvm.mlir.global internal constant @constant_514("constant_514\00") {addr_space = 0 : i32}
  llvm.mlir.global internal constant @constant_513("constant_513\00") {addr_space = 0 : i32}
  llvm.mlir.global internal constant @constant_510("constant_510\00") {addr_space = 0 : i32}
  llvm.mlir.global internal constant @constant_509("constant_509\00") {addr_space = 0 : i32}
  llvm.mlir.global internal constant @constant_506("constant_506\00") {addr_space = 0 : i32}
  llvm.mlir.global internal constant @constant_504("constant_504\00") {addr_space = 0 : i32}
  llvm.mlir.global internal constant @constant_503("constant_503\00") {addr_space = 0 : i32}
  llvm.mlir.global internal constant @constant_496("constant_496\00") {addr_space = 0 : i32}
  llvm.mlir.global internal constant @constant_495("constant_495\00") {addr_space = 0 : i32}
  llvm.mlir.global internal constant @constant_492("constant_492\00") {addr_space = 0 : i32}
  llvm.mlir.global internal constant @constant_491("constant_491\00") {addr_space = 0 : i32}
  llvm.mlir.global internal constant @constant_490("constant_490\00") {addr_space = 0 : i32}
  llvm.mlir.global internal constant @constant_489("constant_489\00") {addr_space = 0 : i32}
  llvm.mlir.global internal constant @constant_488("constant_488\00") {addr_space = 0 : i32}
  llvm.mlir.global internal constant @constant_485("constant_485\00") {addr_space = 0 : i32}
  llvm.mlir.global internal constant @constant_484("constant_484\00") {addr_space = 0 : i32}
  llvm.mlir.global internal constant @constant_481("constant_481\00") {addr_space = 0 : i32}
  llvm.mlir.global internal constant @constant_479("constant_479\00") {addr_space = 0 : i32}
  llvm.mlir.global internal constant @constant_478("constant_478\00") {addr_space = 0 : i32}
  llvm.mlir.global internal constant @constant_471("constant_471\00") {addr_space = 0 : i32}
  llvm.mlir.global internal constant @constant_470("constant_470\00") {addr_space = 0 : i32}
  llvm.mlir.global internal constant @constant_467("constant_467\00") {addr_space = 0 : i32}
  llvm.mlir.global internal constant @constant_466("constant_466\00") {addr_space = 0 : i32}
  llvm.mlir.global internal constant @constant_465("constant_465\00") {addr_space = 0 : i32}
  llvm.mlir.global internal constant @constant_464("constant_464\00") {addr_space = 0 : i32}
  llvm.mlir.global internal constant @constant_463("constant_463\00") {addr_space = 0 : i32}
  llvm.mlir.global internal constant @constant_460("constant_460\00") {addr_space = 0 : i32}
  llvm.mlir.global internal constant @constant_459("constant_459\00") {addr_space = 0 : i32}
  llvm.mlir.global internal constant @constant_456("constant_456\00") {addr_space = 0 : i32}
  llvm.mlir.global internal constant @constant_454("constant_454\00") {addr_space = 0 : i32}
  llvm.mlir.global internal constant @constant_453("constant_453\00") {addr_space = 0 : i32}
  llvm.mlir.global internal constant @constant_446("constant_446\00") {addr_space = 0 : i32}
  llvm.mlir.global internal constant @constant_445("constant_445\00") {addr_space = 0 : i32}
  llvm.mlir.global internal constant @constant_442("constant_442\00") {addr_space = 0 : i32}
  llvm.mlir.global internal constant @constant_441("constant_441\00") {addr_space = 0 : i32}
  llvm.mlir.global internal constant @constant_440("constant_440\00") {addr_space = 0 : i32}
  llvm.mlir.global internal constant @constant_439("constant_439\00") {addr_space = 0 : i32}
  llvm.mlir.global internal constant @constant_438("constant_438\00") {addr_space = 0 : i32}
  llvm.mlir.global internal constant @constant_435("constant_435\00") {addr_space = 0 : i32}
  llvm.mlir.global internal constant @constant_434("constant_434\00") {addr_space = 0 : i32}
  llvm.mlir.global internal constant @constant_431("constant_431\00") {addr_space = 0 : i32}
  llvm.mlir.global internal constant @constant_429("constant_429\00") {addr_space = 0 : i32}
  llvm.mlir.global internal constant @constant_428("constant_428\00") {addr_space = 0 : i32}
  llvm.mlir.global internal constant @constant_421("constant_421\00") {addr_space = 0 : i32}
  llvm.mlir.global internal constant @constant_420("constant_420\00") {addr_space = 0 : i32}
  llvm.mlir.global internal constant @constant_417("constant_417\00") {addr_space = 0 : i32}
  llvm.mlir.global internal constant @constant_416("constant_416\00") {addr_space = 0 : i32}
  llvm.mlir.global internal constant @constant_415("constant_415\00") {addr_space = 0 : i32}
  llvm.mlir.global internal constant @constant_414("constant_414\00") {addr_space = 0 : i32}
  llvm.mlir.global internal constant @constant_413("constant_413\00") {addr_space = 0 : i32}
  llvm.mlir.global internal constant @constant_410("constant_410\00") {addr_space = 0 : i32}
  llvm.mlir.global internal constant @constant_409("constant_409\00") {addr_space = 0 : i32}
  llvm.mlir.global internal constant @constant_406("constant_406\00") {addr_space = 0 : i32}
  llvm.mlir.global internal constant @constant_404("constant_404\00") {addr_space = 0 : i32}
  llvm.mlir.global internal constant @constant_403("constant_403\00") {addr_space = 0 : i32}
  llvm.mlir.global internal constant @constant_396("constant_396\00") {addr_space = 0 : i32}
  llvm.mlir.global internal constant @constant_395("constant_395\00") {addr_space = 0 : i32}
  llvm.mlir.global internal constant @constant_392("constant_392\00") {addr_space = 0 : i32}
  llvm.mlir.global internal constant @constant_391("constant_391\00") {addr_space = 0 : i32}
  llvm.mlir.global internal constant @constant_390("constant_390\00") {addr_space = 0 : i32}
  llvm.mlir.global internal constant @constant_389("constant_389\00") {addr_space = 0 : i32}
  llvm.mlir.global internal constant @constant_388("constant_388\00") {addr_space = 0 : i32}
  llvm.mlir.global internal constant @constant_385("constant_385\00") {addr_space = 0 : i32}
  llvm.mlir.global internal constant @constant_384("constant_384\00") {addr_space = 0 : i32}
  llvm.mlir.global internal constant @constant_381("constant_381\00") {addr_space = 0 : i32}
  llvm.mlir.global internal constant @constant_379("constant_379\00") {addr_space = 0 : i32}
  llvm.mlir.global internal constant @constant_378("constant_378\00") {addr_space = 0 : i32}
  llvm.mlir.global internal constant @constant_371("constant_371\00") {addr_space = 0 : i32}
  llvm.mlir.global internal constant @constant_370("constant_370\00") {addr_space = 0 : i32}
  llvm.mlir.global internal constant @constant_367("constant_367\00") {addr_space = 0 : i32}
  llvm.mlir.global internal constant @constant_366("constant_366\00") {addr_space = 0 : i32}
  llvm.mlir.global internal constant @constant_365("constant_365\00") {addr_space = 0 : i32}
  llvm.mlir.global internal constant @constant_364("constant_364\00") {addr_space = 0 : i32}
  llvm.mlir.global internal constant @constant_363("constant_363\00") {addr_space = 0 : i32}
  llvm.mlir.global internal constant @constant_360("constant_360\00") {addr_space = 0 : i32}
  llvm.mlir.global internal constant @constant_359("constant_359\00") {addr_space = 0 : i32}
  llvm.mlir.global internal constant @constant_356("constant_356\00") {addr_space = 0 : i32}
  llvm.mlir.global internal constant @constant_354("constant_354\00") {addr_space = 0 : i32}
  llvm.mlir.global internal constant @constant_353("constant_353\00") {addr_space = 0 : i32}
  llvm.mlir.global internal constant @constant_346("constant_346\00") {addr_space = 0 : i32}
  llvm.mlir.global internal constant @constant_345("constant_345\00") {addr_space = 0 : i32}
  llvm.mlir.global internal constant @constant_342("constant_342\00") {addr_space = 0 : i32}
  llvm.mlir.global internal constant @constant_341("constant_341\00") {addr_space = 0 : i32}
  llvm.mlir.global internal constant @constant_340("constant_340\00") {addr_space = 0 : i32}
  llvm.mlir.global internal constant @constant_339("constant_339\00") {addr_space = 0 : i32}
  llvm.mlir.global internal constant @constant_338("constant_338\00") {addr_space = 0 : i32}
  llvm.mlir.global internal constant @constant_335("constant_335\00") {addr_space = 0 : i32}
  llvm.mlir.global internal constant @constant_334("constant_334\00") {addr_space = 0 : i32}
  llvm.mlir.global internal constant @constant_331("constant_331\00") {addr_space = 0 : i32}
  llvm.mlir.global internal constant @constant_329("constant_329\00") {addr_space = 0 : i32}
  llvm.mlir.global internal constant @constant_328("constant_328\00") {addr_space = 0 : i32}
  llvm.mlir.global internal constant @constant_321("constant_321\00") {addr_space = 0 : i32}
  llvm.mlir.global internal constant @constant_320("constant_320\00") {addr_space = 0 : i32}
  llvm.mlir.global internal constant @constant_317("constant_317\00") {addr_space = 0 : i32}
  llvm.mlir.global internal constant @constant_316("constant_316\00") {addr_space = 0 : i32}
  llvm.mlir.global internal constant @constant_315("constant_315\00") {addr_space = 0 : i32}
  llvm.mlir.global internal constant @constant_314("constant_314\00") {addr_space = 0 : i32}
  llvm.mlir.global internal constant @constant_313("constant_313\00") {addr_space = 0 : i32}
  llvm.mlir.global internal constant @constant_310("constant_310\00") {addr_space = 0 : i32}
  llvm.mlir.global internal constant @constant_309("constant_309\00") {addr_space = 0 : i32}
  llvm.mlir.global internal constant @constant_306("constant_306\00") {addr_space = 0 : i32}
  func.func private @read_tensor_i1(!llvm.ptr<i8>, memref<*xi1>) attributes {llvm.emit_c_interface}
  llvm.mlir.global internal constant @constant_305("constant_305\00") {addr_space = 0 : i32}
  llvm.mlir.global internal constant @constant_303("constant_303\00") {addr_space = 0 : i32}
  llvm.mlir.global internal constant @constant_302("constant_302\00") {addr_space = 0 : i32}
  llvm.mlir.global internal constant @constant_295("constant_295\00") {addr_space = 0 : i32}
  llvm.mlir.global internal constant @constant_294("constant_294\00") {addr_space = 0 : i32}
  llvm.mlir.global internal constant @constant_293("constant_293\00") {addr_space = 0 : i32}
  llvm.mlir.global internal constant @constant_291("constant_291\00") {addr_space = 0 : i32}
  llvm.mlir.global internal constant @constant_290("constant_290\00") {addr_space = 0 : i32}
  llvm.mlir.global internal constant @constant_289("constant_289\00") {addr_space = 0 : i32}
  llvm.mlir.global internal constant @constant_288("constant_288\00") {addr_space = 0 : i32}
  llvm.mlir.global internal constant @constant_287("constant_287\00") {addr_space = 0 : i32}
  llvm.mlir.global internal constant @constant_286("constant_286\00") {addr_space = 0 : i32}
  llvm.mlir.global internal constant @constant_285("constant_285\00") {addr_space = 0 : i32}
  llvm.mlir.global internal constant @constant_284("constant_284\00") {addr_space = 0 : i32}
  llvm.mlir.global internal constant @constant_283("constant_283\00") {addr_space = 0 : i32}
  llvm.mlir.global internal constant @constant_282("constant_282\00") {addr_space = 0 : i32}
  llvm.mlir.global internal constant @constant_281("constant_281\00") {addr_space = 0 : i32}
  llvm.mlir.global internal constant @constant_280("constant_280\00") {addr_space = 0 : i32}
  llvm.mlir.global internal constant @constant_279("constant_279\00") {addr_space = 0 : i32}
  llvm.mlir.global internal constant @constant_278("constant_278\00") {addr_space = 0 : i32}
  llvm.mlir.global internal constant @constant_277("constant_277\00") {addr_space = 0 : i32}
  llvm.mlir.global internal constant @constant_276("constant_276\00") {addr_space = 0 : i32}
  llvm.mlir.global internal constant @constant_275("constant_275\00") {addr_space = 0 : i32}
  llvm.mlir.global internal constant @constant_274("constant_274\00") {addr_space = 0 : i32}
  llvm.mlir.global internal constant @constant_273("constant_273\00") {addr_space = 0 : i32}
  llvm.mlir.global internal constant @constant_272("constant_272\00") {addr_space = 0 : i32}
  llvm.mlir.global internal constant @constant_271("constant_271\00") {addr_space = 0 : i32}
  llvm.mlir.global internal constant @constant_270("constant_270\00") {addr_space = 0 : i32}
  llvm.mlir.global internal constant @constant_269("constant_269\00") {addr_space = 0 : i32}
  llvm.mlir.global internal constant @constant_268("constant_268\00") {addr_space = 0 : i32}
  llvm.mlir.global internal constant @constant_267("constant_267\00") {addr_space = 0 : i32}
  llvm.mlir.global internal constant @constant_266("constant_266\00") {addr_space = 0 : i32}
  llvm.mlir.global internal constant @constant_265("constant_265\00") {addr_space = 0 : i32}
  llvm.mlir.global internal constant @constant_264("constant_264\00") {addr_space = 0 : i32}
  llvm.mlir.global internal constant @constant_263("constant_263\00") {addr_space = 0 : i32}
  llvm.mlir.global internal constant @constant_262("constant_262\00") {addr_space = 0 : i32}
  llvm.mlir.global internal constant @constant_261("constant_261\00") {addr_space = 0 : i32}
  llvm.mlir.global internal constant @constant_260("constant_260\00") {addr_space = 0 : i32}
  llvm.mlir.global internal constant @constant_259("constant_259\00") {addr_space = 0 : i32}
  llvm.mlir.global internal constant @constant_258("constant_258\00") {addr_space = 0 : i32}
  llvm.mlir.global internal constant @constant_257("constant_257\00") {addr_space = 0 : i32}
  llvm.mlir.global internal constant @constant_256("constant_256\00") {addr_space = 0 : i32}
  llvm.mlir.global internal constant @constant_255("constant_255\00") {addr_space = 0 : i32}
  llvm.mlir.global internal constant @constant_254("constant_254\00") {addr_space = 0 : i32}
  llvm.mlir.global internal constant @constant_253("constant_253\00") {addr_space = 0 : i32}
  llvm.mlir.global internal constant @constant_252("constant_252\00") {addr_space = 0 : i32}
  llvm.mlir.global internal constant @constant_251("constant_251\00") {addr_space = 0 : i32}
  llvm.mlir.global internal constant @constant_250("constant_250\00") {addr_space = 0 : i32}
  llvm.mlir.global internal constant @constant_249("constant_249\00") {addr_space = 0 : i32}
  llvm.mlir.global internal constant @constant_248("constant_248\00") {addr_space = 0 : i32}
  llvm.mlir.global internal constant @constant_247("constant_247\00") {addr_space = 0 : i32}
  llvm.mlir.global internal constant @constant_246("constant_246\00") {addr_space = 0 : i32}
  llvm.mlir.global internal constant @constant_245("constant_245\00") {addr_space = 0 : i32}
  llvm.mlir.global internal constant @constant_244("constant_244\00") {addr_space = 0 : i32}
  llvm.mlir.global internal constant @constant_243("constant_243\00") {addr_space = 0 : i32}
  llvm.mlir.global internal constant @constant_242("constant_242\00") {addr_space = 0 : i32}
  llvm.mlir.global internal constant @constant_241("constant_241\00") {addr_space = 0 : i32}
  llvm.mlir.global internal constant @constant_240("constant_240\00") {addr_space = 0 : i32}
  llvm.mlir.global internal constant @constant_239("constant_239\00") {addr_space = 0 : i32}
  llvm.mlir.global internal constant @constant_238("constant_238\00") {addr_space = 0 : i32}
  llvm.mlir.global internal constant @constant_237("constant_237\00") {addr_space = 0 : i32}
  llvm.mlir.global internal constant @constant_236("constant_236\00") {addr_space = 0 : i32}
  llvm.mlir.global internal constant @constant_235("constant_235\00") {addr_space = 0 : i32}
  llvm.mlir.global internal constant @constant_234("constant_234\00") {addr_space = 0 : i32}
  llvm.mlir.global internal constant @constant_233("constant_233\00") {addr_space = 0 : i32}
  llvm.mlir.global internal constant @constant_232("constant_232\00") {addr_space = 0 : i32}
  llvm.mlir.global internal constant @constant_231("constant_231\00") {addr_space = 0 : i32}
  llvm.mlir.global internal constant @constant_230("constant_230\00") {addr_space = 0 : i32}
  llvm.mlir.global internal constant @constant_229("constant_229\00") {addr_space = 0 : i32}
  llvm.mlir.global internal constant @constant_228("constant_228\00") {addr_space = 0 : i32}
  llvm.mlir.global internal constant @constant_227("constant_227\00") {addr_space = 0 : i32}
  llvm.mlir.global internal constant @constant_226("constant_226\00") {addr_space = 0 : i32}
  llvm.mlir.global internal constant @constant_225("constant_225\00") {addr_space = 0 : i32}
  llvm.mlir.global internal constant @constant_224("constant_224\00") {addr_space = 0 : i32}
  llvm.mlir.global internal constant @constant_223("constant_223\00") {addr_space = 0 : i32}
  llvm.mlir.global internal constant @constant_222("constant_222\00") {addr_space = 0 : i32}
  llvm.mlir.global internal constant @constant_221("constant_221\00") {addr_space = 0 : i32}
  llvm.mlir.global internal constant @constant_220("constant_220\00") {addr_space = 0 : i32}
  llvm.mlir.global internal constant @constant_219("constant_219\00") {addr_space = 0 : i32}
  llvm.mlir.global internal constant @constant_218("constant_218\00") {addr_space = 0 : i32}
  llvm.mlir.global internal constant @constant_217("constant_217\00") {addr_space = 0 : i32}
  llvm.mlir.global internal constant @constant_216("constant_216\00") {addr_space = 0 : i32}
  llvm.mlir.global internal constant @constant_215("constant_215\00") {addr_space = 0 : i32}
  llvm.mlir.global internal constant @constant_214("constant_214\00") {addr_space = 0 : i32}
  llvm.mlir.global internal constant @constant_213("constant_213\00") {addr_space = 0 : i32}
  llvm.mlir.global internal constant @constant_212("constant_212\00") {addr_space = 0 : i32}
  llvm.mlir.global internal constant @constant_211("constant_211\00") {addr_space = 0 : i32}
  llvm.mlir.global internal constant @constant_210("constant_210\00") {addr_space = 0 : i32}
  llvm.mlir.global internal constant @constant_209("constant_209\00") {addr_space = 0 : i32}
  llvm.mlir.global internal constant @constant_208("constant_208\00") {addr_space = 0 : i32}
  llvm.mlir.global internal constant @constant_207("constant_207\00") {addr_space = 0 : i32}
  llvm.mlir.global internal constant @constant_206("constant_206\00") {addr_space = 0 : i32}
  llvm.mlir.global internal constant @constant_205("constant_205\00") {addr_space = 0 : i32}
  llvm.mlir.global internal constant @constant_204("constant_204\00") {addr_space = 0 : i32}
  llvm.mlir.global internal constant @constant_203("constant_203\00") {addr_space = 0 : i32}
  llvm.mlir.global internal constant @constant_202("constant_202\00") {addr_space = 0 : i32}
  llvm.mlir.global internal constant @constant_201("constant_201\00") {addr_space = 0 : i32}
  llvm.mlir.global internal constant @constant_200("constant_200\00") {addr_space = 0 : i32}
  llvm.mlir.global internal constant @constant_199("constant_199\00") {addr_space = 0 : i32}
  llvm.mlir.global internal constant @constant_198("constant_198\00") {addr_space = 0 : i32}
  llvm.mlir.global internal constant @constant_197("constant_197\00") {addr_space = 0 : i32}
  llvm.mlir.global internal constant @constant_196("constant_196\00") {addr_space = 0 : i32}
  llvm.mlir.global internal constant @constant_195("constant_195\00") {addr_space = 0 : i32}
  llvm.mlir.global internal constant @constant_194("constant_194\00") {addr_space = 0 : i32}
  llvm.mlir.global internal constant @constant_193("constant_193\00") {addr_space = 0 : i32}
  llvm.mlir.global internal constant @constant_192("constant_192\00") {addr_space = 0 : i32}
  llvm.mlir.global internal constant @constant_191("constant_191\00") {addr_space = 0 : i32}
  llvm.mlir.global internal constant @constant_190("constant_190\00") {addr_space = 0 : i32}
  llvm.mlir.global internal constant @constant_189("constant_189\00") {addr_space = 0 : i32}
  llvm.mlir.global internal constant @constant_188("constant_188\00") {addr_space = 0 : i32}
  llvm.mlir.global internal constant @constant_187("constant_187\00") {addr_space = 0 : i32}
  llvm.mlir.global internal constant @constant_186("constant_186\00") {addr_space = 0 : i32}
  llvm.mlir.global internal constant @constant_185("constant_185\00") {addr_space = 0 : i32}
  llvm.mlir.global internal constant @constant_184("constant_184\00") {addr_space = 0 : i32}
  llvm.mlir.global internal constant @constant_183("constant_183\00") {addr_space = 0 : i32}
  llvm.mlir.global internal constant @constant_182("constant_182\00") {addr_space = 0 : i32}
  llvm.mlir.global internal constant @constant_181("constant_181\00") {addr_space = 0 : i32}
  llvm.mlir.global internal constant @constant_180("constant_180\00") {addr_space = 0 : i32}
  llvm.mlir.global internal constant @constant_179("constant_179\00") {addr_space = 0 : i32}
  llvm.mlir.global internal constant @constant_178("constant_178\00") {addr_space = 0 : i32}
  llvm.mlir.global internal constant @constant_177("constant_177\00") {addr_space = 0 : i32}
  llvm.mlir.global internal constant @constant_176("constant_176\00") {addr_space = 0 : i32}
  llvm.mlir.global internal constant @constant_175("constant_175\00") {addr_space = 0 : i32}
  llvm.mlir.global internal constant @constant_174("constant_174\00") {addr_space = 0 : i32}
  llvm.mlir.global internal constant @constant_173("constant_173\00") {addr_space = 0 : i32}
  llvm.mlir.global internal constant @constant_172("constant_172\00") {addr_space = 0 : i32}
  llvm.mlir.global internal constant @constant_171("constant_171\00") {addr_space = 0 : i32}
  llvm.mlir.global internal constant @constant_170("constant_170\00") {addr_space = 0 : i32}
  llvm.mlir.global internal constant @constant_169("constant_169\00") {addr_space = 0 : i32}
  llvm.mlir.global internal constant @constant_168("constant_168\00") {addr_space = 0 : i32}
  llvm.mlir.global internal constant @constant_167("constant_167\00") {addr_space = 0 : i32}
  llvm.mlir.global internal constant @constant_166("constant_166\00") {addr_space = 0 : i32}
  llvm.mlir.global internal constant @constant_165("constant_165\00") {addr_space = 0 : i32}
  llvm.mlir.global internal constant @constant_164("constant_164\00") {addr_space = 0 : i32}
  llvm.mlir.global internal constant @constant_163("constant_163\00") {addr_space = 0 : i32}
  llvm.mlir.global internal constant @constant_162("constant_162\00") {addr_space = 0 : i32}
  llvm.mlir.global internal constant @constant_161("constant_161\00") {addr_space = 0 : i32}
  llvm.mlir.global internal constant @constant_160("constant_160\00") {addr_space = 0 : i32}
  llvm.mlir.global internal constant @constant_159("constant_159\00") {addr_space = 0 : i32}
  llvm.mlir.global internal constant @constant_158("constant_158\00") {addr_space = 0 : i32}
  llvm.mlir.global internal constant @constant_157("constant_157\00") {addr_space = 0 : i32}
  llvm.mlir.global internal constant @constant_156("constant_156\00") {addr_space = 0 : i32}
  llvm.mlir.global internal constant @constant_155("constant_155\00") {addr_space = 0 : i32}
  llvm.mlir.global internal constant @constant_154("constant_154\00") {addr_space = 0 : i32}
  llvm.mlir.global internal constant @constant_153("constant_153\00") {addr_space = 0 : i32}
  llvm.mlir.global internal constant @constant_152("constant_152\00") {addr_space = 0 : i32}
  llvm.mlir.global internal constant @constant_151("constant_151\00") {addr_space = 0 : i32}
  llvm.mlir.global internal constant @constant_150("constant_150\00") {addr_space = 0 : i32}
  llvm.mlir.global internal constant @constant_149("constant_149\00") {addr_space = 0 : i32}
  llvm.mlir.global internal constant @constant_148("constant_148\00") {addr_space = 0 : i32}
  llvm.mlir.global internal constant @constant_147("constant_147\00") {addr_space = 0 : i32}
  llvm.mlir.global internal constant @constant_146("constant_146\00") {addr_space = 0 : i32}
  llvm.mlir.global internal constant @constant_145("constant_145\00") {addr_space = 0 : i32}
  llvm.mlir.global internal constant @constant_144("constant_144\00") {addr_space = 0 : i32}
  llvm.mlir.global internal constant @constant_143("constant_143\00") {addr_space = 0 : i32}
  llvm.mlir.global internal constant @constant_142("constant_142\00") {addr_space = 0 : i32}
  llvm.mlir.global internal constant @constant_141("constant_141\00") {addr_space = 0 : i32}
  llvm.mlir.global internal constant @constant_140("constant_140\00") {addr_space = 0 : i32}
  llvm.mlir.global internal constant @constant_139("constant_139\00") {addr_space = 0 : i32}
  llvm.mlir.global internal constant @constant_138("constant_138\00") {addr_space = 0 : i32}
  llvm.mlir.global internal constant @constant_137("constant_137\00") {addr_space = 0 : i32}
  llvm.mlir.global internal constant @constant_136("constant_136\00") {addr_space = 0 : i32}
  llvm.mlir.global internal constant @constant_135("constant_135\00") {addr_space = 0 : i32}
  llvm.mlir.global internal constant @constant_134("constant_134\00") {addr_space = 0 : i32}
  llvm.mlir.global internal constant @constant_133("constant_133\00") {addr_space = 0 : i32}
  llvm.mlir.global internal constant @constant_132("constant_132\00") {addr_space = 0 : i32}
  llvm.mlir.global internal constant @constant_131("constant_131\00") {addr_space = 0 : i32}
  llvm.mlir.global internal constant @constant_130("constant_130\00") {addr_space = 0 : i32}
  llvm.mlir.global internal constant @constant_129("constant_129\00") {addr_space = 0 : i32}
  llvm.mlir.global internal constant @constant_128("constant_128\00") {addr_space = 0 : i32}
  llvm.mlir.global internal constant @constant_127("constant_127\00") {addr_space = 0 : i32}
  llvm.mlir.global internal constant @constant_126("constant_126\00") {addr_space = 0 : i32}
  llvm.mlir.global internal constant @constant_125("constant_125\00") {addr_space = 0 : i32}
  llvm.mlir.global internal constant @constant_124("constant_124\00") {addr_space = 0 : i32}
  llvm.mlir.global internal constant @constant_123("constant_123\00") {addr_space = 0 : i32}
  llvm.mlir.global internal constant @constant_122("constant_122\00") {addr_space = 0 : i32}
  llvm.mlir.global internal constant @constant_121("constant_121\00") {addr_space = 0 : i32}
  llvm.mlir.global internal constant @constant_120("constant_120\00") {addr_space = 0 : i32}
  llvm.mlir.global internal constant @constant_119("constant_119\00") {addr_space = 0 : i32}
  llvm.mlir.global internal constant @constant_118("constant_118\00") {addr_space = 0 : i32}
  llvm.mlir.global internal constant @constant_117("constant_117\00") {addr_space = 0 : i32}
  llvm.mlir.global internal constant @constant_116("constant_116\00") {addr_space = 0 : i32}
  llvm.mlir.global internal constant @constant_115("constant_115\00") {addr_space = 0 : i32}
  llvm.mlir.global internal constant @constant_114("constant_114\00") {addr_space = 0 : i32}
  llvm.mlir.global internal constant @constant_113("constant_113\00") {addr_space = 0 : i32}
  llvm.mlir.global internal constant @constant_112("constant_112\00") {addr_space = 0 : i32}
  llvm.mlir.global internal constant @constant_111("constant_111\00") {addr_space = 0 : i32}
  llvm.mlir.global internal constant @constant_110("constant_110\00") {addr_space = 0 : i32}
  llvm.mlir.global internal constant @constant_109("constant_109\00") {addr_space = 0 : i32}
  llvm.mlir.global internal constant @constant_108("constant_108\00") {addr_space = 0 : i32}
  llvm.mlir.global internal constant @constant_107("constant_107\00") {addr_space = 0 : i32}
  llvm.mlir.global internal constant @constant_106("constant_106\00") {addr_space = 0 : i32}
  llvm.mlir.global internal constant @constant_105("constant_105\00") {addr_space = 0 : i32}
  llvm.mlir.global internal constant @constant_104("constant_104\00") {addr_space = 0 : i32}
  llvm.mlir.global internal constant @constant_103("constant_103\00") {addr_space = 0 : i32}
  llvm.mlir.global internal constant @constant_102("constant_102\00") {addr_space = 0 : i32}
  llvm.mlir.global internal constant @constant_101("constant_101\00") {addr_space = 0 : i32}
  llvm.mlir.global internal constant @constant_100("constant_100\00") {addr_space = 0 : i32}
  llvm.mlir.global internal constant @constant_99("constant_99\00") {addr_space = 0 : i32}
  llvm.mlir.global internal constant @constant_98("constant_98\00") {addr_space = 0 : i32}
  llvm.mlir.global internal constant @constant_97("constant_97\00") {addr_space = 0 : i32}
  llvm.mlir.global internal constant @constant_96("constant_96\00") {addr_space = 0 : i32}
  llvm.mlir.global internal constant @constant_95("constant_95\00") {addr_space = 0 : i32}
  llvm.mlir.global internal constant @constant_94("constant_94\00") {addr_space = 0 : i32}
  llvm.mlir.global internal constant @constant_93("constant_93\00") {addr_space = 0 : i32}
  llvm.mlir.global internal constant @constant_92("constant_92\00") {addr_space = 0 : i32}
  llvm.mlir.global internal constant @constant_91("constant_91\00") {addr_space = 0 : i32}
  llvm.mlir.global internal constant @constant_90("constant_90\00") {addr_space = 0 : i32}
  llvm.mlir.global internal constant @constant_89("constant_89\00") {addr_space = 0 : i32}
  llvm.mlir.global internal constant @constant_88("constant_88\00") {addr_space = 0 : i32}
  llvm.mlir.global internal constant @constant_87("constant_87\00") {addr_space = 0 : i32}
  llvm.mlir.global internal constant @constant_86("constant_86\00") {addr_space = 0 : i32}
  llvm.mlir.global internal constant @constant_85("constant_85\00") {addr_space = 0 : i32}
  llvm.mlir.global internal constant @constant_84("constant_84\00") {addr_space = 0 : i32}
  llvm.mlir.global internal constant @constant_83("constant_83\00") {addr_space = 0 : i32}
  llvm.mlir.global internal constant @constant_82("constant_82\00") {addr_space = 0 : i32}
  llvm.mlir.global internal constant @constant_81("constant_81\00") {addr_space = 0 : i32}
  llvm.mlir.global internal constant @constant_80("constant_80\00") {addr_space = 0 : i32}
  llvm.mlir.global internal constant @constant_79("constant_79\00") {addr_space = 0 : i32}
  llvm.mlir.global internal constant @constant_78("constant_78\00") {addr_space = 0 : i32}
  llvm.mlir.global internal constant @constant_77("constant_77\00") {addr_space = 0 : i32}
  llvm.mlir.global internal constant @constant_76("constant_76\00") {addr_space = 0 : i32}
  llvm.mlir.global internal constant @constant_75("constant_75\00") {addr_space = 0 : i32}
  llvm.mlir.global internal constant @constant_74("constant_74\00") {addr_space = 0 : i32}
  llvm.mlir.global internal constant @constant_73("constant_73\00") {addr_space = 0 : i32}
  llvm.mlir.global internal constant @constant_72("constant_72\00") {addr_space = 0 : i32}
  llvm.mlir.global internal constant @constant_71("constant_71\00") {addr_space = 0 : i32}
  llvm.mlir.global internal constant @constant_70("constant_70\00") {addr_space = 0 : i32}
  llvm.mlir.global internal constant @constant_69("constant_69\00") {addr_space = 0 : i32}
  llvm.mlir.global internal constant @constant_68("constant_68\00") {addr_space = 0 : i32}
  llvm.mlir.global internal constant @constant_67("constant_67\00") {addr_space = 0 : i32}
  llvm.mlir.global internal constant @constant_66("constant_66\00") {addr_space = 0 : i32}
  llvm.mlir.global internal constant @constant_65("constant_65\00") {addr_space = 0 : i32}
  llvm.mlir.global internal constant @constant_64("constant_64\00") {addr_space = 0 : i32}
  llvm.mlir.global internal constant @constant_63("constant_63\00") {addr_space = 0 : i32}
  llvm.mlir.global internal constant @constant_62("constant_62\00") {addr_space = 0 : i32}
  llvm.mlir.global internal constant @constant_61("constant_61\00") {addr_space = 0 : i32}
  llvm.mlir.global internal constant @constant_60("constant_60\00") {addr_space = 0 : i32}
  llvm.mlir.global internal constant @constant_59("constant_59\00") {addr_space = 0 : i32}
  llvm.mlir.global internal constant @constant_58("constant_58\00") {addr_space = 0 : i32}
  llvm.mlir.global internal constant @constant_57("constant_57\00") {addr_space = 0 : i32}
  llvm.mlir.global internal constant @constant_56("constant_56\00") {addr_space = 0 : i32}
  llvm.mlir.global internal constant @constant_55("constant_55\00") {addr_space = 0 : i32}
  llvm.mlir.global internal constant @constant_54("constant_54\00") {addr_space = 0 : i32}
  llvm.mlir.global internal constant @constant_53("constant_53\00") {addr_space = 0 : i32}
  llvm.mlir.global internal constant @constant_52("constant_52\00") {addr_space = 0 : i32}
  llvm.mlir.global internal constant @constant_51("constant_51\00") {addr_space = 0 : i32}
  llvm.mlir.global internal constant @constant_50("constant_50\00") {addr_space = 0 : i32}
  llvm.mlir.global internal constant @constant_49("constant_49\00") {addr_space = 0 : i32}
  llvm.mlir.global internal constant @constant_48("constant_48\00") {addr_space = 0 : i32}
  llvm.mlir.global internal constant @constant_47("constant_47\00") {addr_space = 0 : i32}
  llvm.mlir.global internal constant @constant_46("constant_46\00") {addr_space = 0 : i32}
  llvm.mlir.global internal constant @constant_45("constant_45\00") {addr_space = 0 : i32}
  llvm.mlir.global internal constant @constant_44("constant_44\00") {addr_space = 0 : i32}
  llvm.mlir.global internal constant @constant_43("constant_43\00") {addr_space = 0 : i32}
  llvm.mlir.global internal constant @constant_42("constant_42\00") {addr_space = 0 : i32}
  llvm.mlir.global internal constant @constant_41("constant_41\00") {addr_space = 0 : i32}
  llvm.mlir.global internal constant @constant_40("constant_40\00") {addr_space = 0 : i32}
  llvm.mlir.global internal constant @constant_39("constant_39\00") {addr_space = 0 : i32}
  llvm.mlir.global internal constant @constant_38("constant_38\00") {addr_space = 0 : i32}
  llvm.mlir.global internal constant @constant_37("constant_37\00") {addr_space = 0 : i32}
  llvm.mlir.global internal constant @constant_36("constant_36\00") {addr_space = 0 : i32}
  llvm.mlir.global internal constant @constant_35("constant_35\00") {addr_space = 0 : i32}
  llvm.mlir.global internal constant @constant_34("constant_34\00") {addr_space = 0 : i32}
  llvm.mlir.global internal constant @constant_33("constant_33\00") {addr_space = 0 : i32}
  llvm.mlir.global internal constant @constant_32("constant_32\00") {addr_space = 0 : i32}
  llvm.mlir.global internal constant @constant_31("constant_31\00") {addr_space = 0 : i32}
  llvm.mlir.global internal constant @constant_30("constant_30\00") {addr_space = 0 : i32}
  llvm.mlir.global internal constant @constant_29("constant_29\00") {addr_space = 0 : i32}
  llvm.mlir.global internal constant @constant_28("constant_28\00") {addr_space = 0 : i32}
  llvm.mlir.global internal constant @constant_27("constant_27\00") {addr_space = 0 : i32}
  llvm.mlir.global internal constant @constant_26("constant_26\00") {addr_space = 0 : i32}
  llvm.mlir.global internal constant @constant_25("constant_25\00") {addr_space = 0 : i32}
  llvm.mlir.global internal constant @constant_24("constant_24\00") {addr_space = 0 : i32}
  llvm.mlir.global internal constant @constant_23("constant_23\00") {addr_space = 0 : i32}
  llvm.mlir.global internal constant @constant_22("constant_22\00") {addr_space = 0 : i32}
  llvm.mlir.global internal constant @constant_21("constant_21\00") {addr_space = 0 : i32}
  llvm.mlir.global internal constant @constant_20("constant_20\00") {addr_space = 0 : i32}
  llvm.mlir.global internal constant @constant_19("constant_19\00") {addr_space = 0 : i32}
  llvm.mlir.global internal constant @constant_18("constant_18\00") {addr_space = 0 : i32}
  llvm.mlir.global internal constant @constant_17("constant_17\00") {addr_space = 0 : i32}
  llvm.mlir.global internal constant @constant_16("constant_16\00") {addr_space = 0 : i32}
  llvm.mlir.global internal constant @constant_15("constant_15\00") {addr_space = 0 : i32}
  llvm.mlir.global internal constant @constant_14("constant_14\00") {addr_space = 0 : i32}
  llvm.mlir.global internal constant @constant_13("constant_13\00") {addr_space = 0 : i32}
  llvm.mlir.global internal constant @constant_12("constant_12\00") {addr_space = 0 : i32}
  llvm.mlir.global internal constant @constant_11("constant_11\00") {addr_space = 0 : i32}
  llvm.mlir.global internal constant @constant_10("constant_10\00") {addr_space = 0 : i32}
  llvm.mlir.global internal constant @constant_9("constant_9\00") {addr_space = 0 : i32}
  llvm.mlir.global internal constant @constant_8("constant_8\00") {addr_space = 0 : i32}
  llvm.mlir.global internal constant @constant_7("constant_7\00") {addr_space = 0 : i32}
  llvm.mlir.global internal constant @constant_6("constant_6\00") {addr_space = 0 : i32}
  llvm.mlir.global internal constant @constant_5("constant_5\00") {addr_space = 0 : i32}
  llvm.mlir.global internal constant @constant_4("constant_4\00") {addr_space = 0 : i32}
  llvm.mlir.global internal constant @constant_3("constant_3\00") {addr_space = 0 : i32}
  llvm.mlir.global internal constant @constant_2("constant_2\00") {addr_space = 0 : i32}
  llvm.mlir.global internal constant @constant_1("constant_1\00") {addr_space = 0 : i32}
  func.func private @read_tensor_f32(!llvm.ptr<i8>, memref<*xf32>) attributes {llvm.emit_c_interface}
  llvm.mlir.global internal constant @constant_0("constant_0\00") {addr_space = 0 : i32}
  func.func @main_graph(%arg0: memref<64x1xi64>, %arg1: memref<64x16x255x64xf32>, %arg2: memref<64x16x255x64xf32>, %arg3: memref<64x16x255x64xf32>, %arg4: memref<64x16x255x64xf32>, %arg5: memref<64x16x255x64xf32>, %arg6: memref<64x16x255x64xf32>, %arg7: memref<64x16x255x64xf32>, %arg8: memref<64x16x255x64xf32>, %arg9: memref<64x16x255x64xf32>, %arg10: memref<64x16x255x64xf32>, %arg11: memref<64x16x255x64xf32>, %arg12: memref<64x16x255x64xf32>, %arg13: memref<64x16x255x64xf32>, %arg14: memref<64x16x255x64xf32>, %arg15: memref<64x16x255x64xf32>, %arg16: memref<64x16x255x64xf32>, %arg17: memref<64x16x255x64xf32>, %arg18: memref<64x16x255x64xf32>, %arg19: memref<64x16x255x64xf32>, %arg20: memref<64x16x255x64xf32>, %arg21: memref<64x16x255x64xf32>, %arg22: memref<64x16x255x64xf32>, %arg23: memref<64x16x255x64xf32>, %arg24: memref<64x16x255x64xf32>, %arg25: memref<64x16x255x64xf32>, %arg26: memref<64x16x255x64xf32>, %arg27: memref<64x16x255x64xf32>, %arg28: memref<64x16x255x64xf32>, %arg29: memref<64x16x255x64xf32>, %arg30: memref<64x16x255x64xf32>, %arg31: memref<64x16x255x64xf32>, %arg32: memref<64x16x255x64xf32>, %arg33: memref<64x16x255x64xf32>, %arg34: memref<64x16x255x64xf32>, %arg35: memref<64x16x255x64xf32>, %arg36: memref<64x16x255x64xf32>, %arg37: memref<64x16x255x64xf32>, %arg38: memref<64x16x255x64xf32>, %arg39: memref<64x16x255x64xf32>, %arg40: memref<64x16x255x64xf32>, %arg41: memref<64x16x255x64xf32>, %arg42: memref<64x16x255x64xf32>, %arg43: memref<64x16x255x64xf32>, %arg44: memref<64x16x255x64xf32>, %arg45: memref<64x16x255x64xf32>, %arg46: memref<64x16x255x64xf32>, %arg47: memref<64x16x255x64xf32>, %arg48: memref<64x16x255x64xf32>) -> memref<64x1x50264xf32> attributes {input_names = ["input_ids", "past.0.key", "past.0.value", "past.1.key", "past.1.value", "past.2.key", "past.2.value", "past.3.key", "past.3.value", "past.4.key", "past.4.value", "past.5.key", "past.5.value", "past.6.key", "past.6.value", "past.7.key", "past.7.value", "past.8.key", "past.8.value", "past.9.key", "past.9.value", "past.10.key", "past.10.value", "past.11.key", "past.11.value", "past.12.key", "past.12.value", "past.13.key", "past.13.value", "past.14.key", "past.14.value", "past.15.key", "past.15.value", "past.16.key", "past.16.value", "past.17.key", "past.17.value", "past.18.key", "past.18.value", "past.19.key", "past.19.value", "past.20.key", "past.20.value", "past.21.key", "past.21.value", "past.22.key", "past.22.value", "past.23.key", "past.23.value"], llvm.emit_c_interface, operand_types = [memref<64x1xi64>, !rmem.rmref<1, memref<64x16x255x64xf32>>, !rmem.rmref<1, memref<64x16x255x64xf32>>, !rmem.rmref<1, memref<64x16x255x64xf32>>, !rmem.rmref<1, memref<64x16x255x64xf32>>, !rmem.rmref<1, memref<64x16x255x64xf32>>, !rmem.rmref<1, memref<64x16x255x64xf32>>, !rmem.rmref<1, memref<64x16x255x64xf32>>, !rmem.rmref<1, memref<64x16x255x64xf32>>, !rmem.rmref<1, memref<64x16x255x64xf32>>, !rmem.rmref<1, memref<64x16x255x64xf32>>, !rmem.rmref<1, memref<64x16x255x64xf32>>, !rmem.rmref<1, memref<64x16x255x64xf32>>, !rmem.rmref<1, memref<64x16x255x64xf32>>, !rmem.rmref<1, memref<64x16x255x64xf32>>, !rmem.rmref<1, memref<64x16x255x64xf32>>, !rmem.rmref<1, memref<64x16x255x64xf32>>, !rmem.rmref<1, memref<64x16x255x64xf32>>, !rmem.rmref<1, memref<64x16x255x64xf32>>, !rmem.rmref<1, memref<64x16x255x64xf32>>, !rmem.rmref<1, memref<64x16x255x64xf32>>, !rmem.rmref<1, memref<64x16x255x64xf32>>, !rmem.rmref<1, memref<64x16x255x64xf32>>, !rmem.rmref<1, memref<64x16x255x64xf32>>, !rmem.rmref<1, memref<64x16x255x64xf32>>, !rmem.rmref<1, memref<64x16x255x64xf32>>, !rmem.rmref<1, memref<64x16x255x64xf32>>, !rmem.rmref<1, memref<64x16x255x64xf32>>, !rmem.rmref<1, memref<64x16x255x64xf32>>, !rmem.rmref<1, memref<64x16x255x64xf32>>, !rmem.rmref<1, memref<64x16x255x64xf32>>, !rmem.rmref<1, memref<64x16x255x64xf32>>, !rmem.rmref<1, memref<64x16x255x64xf32>>, !rmem.rmref<1, memref<64x16x255x64xf32>>, !rmem.rmref<1, memref<64x16x255x64xf32>>, !rmem.rmref<1, memref<64x16x255x64xf32>>, !rmem.rmref<1, memref<64x16x255x64xf32>>, !rmem.rmref<1, memref<64x16x255x64xf32>>, !rmem.rmref<1, memref<64x16x255x64xf32>>, !rmem.rmref<1, memref<64x16x255x64xf32>>, !rmem.rmref<1, memref<64x16x255x64xf32>>, !rmem.rmref<1, memref<64x16x255x64xf32>>, !rmem.rmref<1, memref<64x16x255x64xf32>>, !rmem.rmref<1, memref<64x16x255x64xf32>>, !rmem.rmref<1, memref<64x16x255x64xf32>>, !rmem.rmref<1, memref<64x16x255x64xf32>>, !rmem.rmref<1, memref<64x16x255x64xf32>>, !rmem.rmref<1, memref<64x16x255x64xf32>>, !rmem.rmref<1, memref<64x16x255x64xf32>>], output_names = ["logits"], rel_types = [!rmem.rmref<1, memref<64x1x50264xf32>>], remote_target = 1 : i64} {
    %c1 = arith.constant 1 : index
    %c2 = arith.constant 2 : index
    %c3 = arith.constant 3 : index
    %c4 = arith.constant 4 : index
    %c5 = arith.constant 5 : index
    %c6 = arith.constant 6 : index
    %c7 = arith.constant 7 : index
    %c0 = arith.constant 0 : index
    %cst = arith.constant 1.024000e+03 : f32
    %cst_0 = arith.constant 0xFF800000 : f32
    %cst_1 = arith.constant 0.000000e+00 : f32
    %c50264 = arith.constant 50264 : index
    %alloc = memref.alloc() {alignment = 16 : i64} : memref<50264x1024xf32>
    %cast = memref.cast %alloc : memref<50264x1024xf32> to memref<*xf32>
    %0 = llvm.mlir.addressof @constant_0 : !llvm.ptr<array<11 x i8>>
    %1 = llvm.getelementptr %0[0, 0] : (!llvm.ptr<array<11 x i8>>) -> !llvm.ptr<i8>
    call @read_tensor_f32(%1, %cast) : (!llvm.ptr<i8>, memref<*xf32>) -> ()
    %alloc_2 = memref.alloc() {alignment = 16 : i64} : memref<1024xf32>
    %cast_3 = memref.cast %alloc_2 : memref<1024xf32> to memref<*xf32>
    %2 = llvm.mlir.addressof @constant_1 : !llvm.ptr<array<11 x i8>>
    %3 = llvm.getelementptr %2[0, 0] : (!llvm.ptr<array<11 x i8>>) -> !llvm.ptr<i8>
    call @read_tensor_f32(%3, %cast_3) : (!llvm.ptr<i8>, memref<*xf32>) -> ()
    %alloc_4 = memref.alloc() {alignment = 16 : i64} : memref<1024xf32>
    %cast_5 = memref.cast %alloc_4 : memref<1024xf32> to memref<*xf32>
    %4 = llvm.mlir.addressof @constant_2 : !llvm.ptr<array<11 x i8>>
    %5 = llvm.getelementptr %4[0, 0] : (!llvm.ptr<array<11 x i8>>) -> !llvm.ptr<i8>
    call @read_tensor_f32(%5, %cast_5) : (!llvm.ptr<i8>, memref<*xf32>) -> ()
    %alloc_6 = memref.alloc() {alignment = 16 : i64} : memref<1024x3072xf32>
    %cast_7 = memref.cast %alloc_6 : memref<1024x3072xf32> to memref<*xf32>
    %6 = llvm.mlir.addressof @constant_3 : !llvm.ptr<array<11 x i8>>
    %7 = llvm.getelementptr %6[0, 0] : (!llvm.ptr<array<11 x i8>>) -> !llvm.ptr<i8>
    call @read_tensor_f32(%7, %cast_7) : (!llvm.ptr<i8>, memref<*xf32>) -> ()
    %alloc_8 = memref.alloc() {alignment = 16 : i64} : memref<3072xf32>
    %cast_9 = memref.cast %alloc_8 : memref<3072xf32> to memref<*xf32>
    %8 = llvm.mlir.addressof @constant_4 : !llvm.ptr<array<11 x i8>>
    %9 = llvm.getelementptr %8[0, 0] : (!llvm.ptr<array<11 x i8>>) -> !llvm.ptr<i8>
    call @read_tensor_f32(%9, %cast_9) : (!llvm.ptr<i8>, memref<*xf32>) -> ()
    %alloc_10 = memref.alloc() {alignment = 16 : i64} : memref<1024x1024xf32>
    %cast_11 = memref.cast %alloc_10 : memref<1024x1024xf32> to memref<*xf32>
    %10 = llvm.mlir.addressof @constant_5 : !llvm.ptr<array<11 x i8>>
    %11 = llvm.getelementptr %10[0, 0] : (!llvm.ptr<array<11 x i8>>) -> !llvm.ptr<i8>
    call @read_tensor_f32(%11, %cast_11) : (!llvm.ptr<i8>, memref<*xf32>) -> ()
    %alloc_12 = memref.alloc() {alignment = 16 : i64} : memref<1024xf32>
    %cast_13 = memref.cast %alloc_12 : memref<1024xf32> to memref<*xf32>
    %12 = llvm.mlir.addressof @constant_6 : !llvm.ptr<array<11 x i8>>
    %13 = llvm.getelementptr %12[0, 0] : (!llvm.ptr<array<11 x i8>>) -> !llvm.ptr<i8>
    call @read_tensor_f32(%13, %cast_13) : (!llvm.ptr<i8>, memref<*xf32>) -> ()
    %alloc_14 = memref.alloc() {alignment = 16 : i64} : memref<1024xf32>
    %cast_15 = memref.cast %alloc_14 : memref<1024xf32> to memref<*xf32>
    %14 = llvm.mlir.addressof @constant_7 : !llvm.ptr<array<11 x i8>>
    %15 = llvm.getelementptr %14[0, 0] : (!llvm.ptr<array<11 x i8>>) -> !llvm.ptr<i8>
    call @read_tensor_f32(%15, %cast_15) : (!llvm.ptr<i8>, memref<*xf32>) -> ()
    %alloc_16 = memref.alloc() {alignment = 16 : i64} : memref<1024xf32>
    %cast_17 = memref.cast %alloc_16 : memref<1024xf32> to memref<*xf32>
    %16 = llvm.mlir.addressof @constant_8 : !llvm.ptr<array<11 x i8>>
    %17 = llvm.getelementptr %16[0, 0] : (!llvm.ptr<array<11 x i8>>) -> !llvm.ptr<i8>
    call @read_tensor_f32(%17, %cast_17) : (!llvm.ptr<i8>, memref<*xf32>) -> ()
    %alloc_18 = memref.alloc() {alignment = 16 : i64} : memref<1024x4096xf32>
    %cast_19 = memref.cast %alloc_18 : memref<1024x4096xf32> to memref<*xf32>
    %18 = llvm.mlir.addressof @constant_9 : !llvm.ptr<array<11 x i8>>
    %19 = llvm.getelementptr %18[0, 0] : (!llvm.ptr<array<11 x i8>>) -> !llvm.ptr<i8>
    call @read_tensor_f32(%19, %cast_19) : (!llvm.ptr<i8>, memref<*xf32>) -> ()
    %alloc_20 = memref.alloc() {alignment = 16 : i64} : memref<4096xf32>
    %cast_21 = memref.cast %alloc_20 : memref<4096xf32> to memref<*xf32>
    %20 = llvm.mlir.addressof @constant_10 : !llvm.ptr<array<12 x i8>>
    %21 = llvm.getelementptr %20[0, 0] : (!llvm.ptr<array<12 x i8>>) -> !llvm.ptr<i8>
    call @read_tensor_f32(%21, %cast_21) : (!llvm.ptr<i8>, memref<*xf32>) -> ()
    %alloc_22 = memref.alloc() {alignment = 16 : i64} : memref<4096x1024xf32>
    %cast_23 = memref.cast %alloc_22 : memref<4096x1024xf32> to memref<*xf32>
    %22 = llvm.mlir.addressof @constant_11 : !llvm.ptr<array<12 x i8>>
    %23 = llvm.getelementptr %22[0, 0] : (!llvm.ptr<array<12 x i8>>) -> !llvm.ptr<i8>
    call @read_tensor_f32(%23, %cast_23) : (!llvm.ptr<i8>, memref<*xf32>) -> ()
    %alloc_24 = memref.alloc() {alignment = 16 : i64} : memref<1024xf32>
    %cast_25 = memref.cast %alloc_24 : memref<1024xf32> to memref<*xf32>
    %24 = llvm.mlir.addressof @constant_12 : !llvm.ptr<array<12 x i8>>
    %25 = llvm.getelementptr %24[0, 0] : (!llvm.ptr<array<12 x i8>>) -> !llvm.ptr<i8>
    call @read_tensor_f32(%25, %cast_25) : (!llvm.ptr<i8>, memref<*xf32>) -> ()
    %alloc_26 = memref.alloc() {alignment = 16 : i64} : memref<1024xf32>
    %cast_27 = memref.cast %alloc_26 : memref<1024xf32> to memref<*xf32>
    %26 = llvm.mlir.addressof @constant_13 : !llvm.ptr<array<12 x i8>>
    %27 = llvm.getelementptr %26[0, 0] : (!llvm.ptr<array<12 x i8>>) -> !llvm.ptr<i8>
    call @read_tensor_f32(%27, %cast_27) : (!llvm.ptr<i8>, memref<*xf32>) -> ()
    %alloc_28 = memref.alloc() {alignment = 16 : i64} : memref<1024xf32>
    %cast_29 = memref.cast %alloc_28 : memref<1024xf32> to memref<*xf32>
    %28 = llvm.mlir.addressof @constant_14 : !llvm.ptr<array<12 x i8>>
    %29 = llvm.getelementptr %28[0, 0] : (!llvm.ptr<array<12 x i8>>) -> !llvm.ptr<i8>
    call @read_tensor_f32(%29, %cast_29) : (!llvm.ptr<i8>, memref<*xf32>) -> ()
    %alloc_30 = memref.alloc() {alignment = 16 : i64} : memref<1024x3072xf32>
    %cast_31 = memref.cast %alloc_30 : memref<1024x3072xf32> to memref<*xf32>
    %30 = llvm.mlir.addressof @constant_15 : !llvm.ptr<array<12 x i8>>
    %31 = llvm.getelementptr %30[0, 0] : (!llvm.ptr<array<12 x i8>>) -> !llvm.ptr<i8>
    call @read_tensor_f32(%31, %cast_31) : (!llvm.ptr<i8>, memref<*xf32>) -> ()
    %alloc_32 = memref.alloc() {alignment = 16 : i64} : memref<3072xf32>
    %cast_33 = memref.cast %alloc_32 : memref<3072xf32> to memref<*xf32>
    %32 = llvm.mlir.addressof @constant_16 : !llvm.ptr<array<12 x i8>>
    %33 = llvm.getelementptr %32[0, 0] : (!llvm.ptr<array<12 x i8>>) -> !llvm.ptr<i8>
    call @read_tensor_f32(%33, %cast_33) : (!llvm.ptr<i8>, memref<*xf32>) -> ()
    %alloc_34 = memref.alloc() {alignment = 16 : i64} : memref<1024x1024xf32>
    %cast_35 = memref.cast %alloc_34 : memref<1024x1024xf32> to memref<*xf32>
    %34 = llvm.mlir.addressof @constant_17 : !llvm.ptr<array<12 x i8>>
    %35 = llvm.getelementptr %34[0, 0] : (!llvm.ptr<array<12 x i8>>) -> !llvm.ptr<i8>
    call @read_tensor_f32(%35, %cast_35) : (!llvm.ptr<i8>, memref<*xf32>) -> ()
    %alloc_36 = memref.alloc() {alignment = 16 : i64} : memref<1024xf32>
    %cast_37 = memref.cast %alloc_36 : memref<1024xf32> to memref<*xf32>
    %36 = llvm.mlir.addressof @constant_18 : !llvm.ptr<array<12 x i8>>
    %37 = llvm.getelementptr %36[0, 0] : (!llvm.ptr<array<12 x i8>>) -> !llvm.ptr<i8>
    call @read_tensor_f32(%37, %cast_37) : (!llvm.ptr<i8>, memref<*xf32>) -> ()
    %alloc_38 = memref.alloc() {alignment = 16 : i64} : memref<1024xf32>
    %cast_39 = memref.cast %alloc_38 : memref<1024xf32> to memref<*xf32>
    %38 = llvm.mlir.addressof @constant_19 : !llvm.ptr<array<12 x i8>>
    %39 = llvm.getelementptr %38[0, 0] : (!llvm.ptr<array<12 x i8>>) -> !llvm.ptr<i8>
    call @read_tensor_f32(%39, %cast_39) : (!llvm.ptr<i8>, memref<*xf32>) -> ()
    %alloc_40 = memref.alloc() {alignment = 16 : i64} : memref<1024xf32>
    %cast_41 = memref.cast %alloc_40 : memref<1024xf32> to memref<*xf32>
    %40 = llvm.mlir.addressof @constant_20 : !llvm.ptr<array<12 x i8>>
    %41 = llvm.getelementptr %40[0, 0] : (!llvm.ptr<array<12 x i8>>) -> !llvm.ptr<i8>
    call @read_tensor_f32(%41, %cast_41) : (!llvm.ptr<i8>, memref<*xf32>) -> ()
    %alloc_42 = memref.alloc() {alignment = 16 : i64} : memref<1024x4096xf32>
    %cast_43 = memref.cast %alloc_42 : memref<1024x4096xf32> to memref<*xf32>
    %42 = llvm.mlir.addressof @constant_21 : !llvm.ptr<array<12 x i8>>
    %43 = llvm.getelementptr %42[0, 0] : (!llvm.ptr<array<12 x i8>>) -> !llvm.ptr<i8>
    call @read_tensor_f32(%43, %cast_43) : (!llvm.ptr<i8>, memref<*xf32>) -> ()
    %alloc_44 = memref.alloc() {alignment = 16 : i64} : memref<4096xf32>
    %cast_45 = memref.cast %alloc_44 : memref<4096xf32> to memref<*xf32>
    %44 = llvm.mlir.addressof @constant_22 : !llvm.ptr<array<12 x i8>>
    %45 = llvm.getelementptr %44[0, 0] : (!llvm.ptr<array<12 x i8>>) -> !llvm.ptr<i8>
    call @read_tensor_f32(%45, %cast_45) : (!llvm.ptr<i8>, memref<*xf32>) -> ()
    %alloc_46 = memref.alloc() {alignment = 16 : i64} : memref<4096x1024xf32>
    %cast_47 = memref.cast %alloc_46 : memref<4096x1024xf32> to memref<*xf32>
    %46 = llvm.mlir.addressof @constant_23 : !llvm.ptr<array<12 x i8>>
    %47 = llvm.getelementptr %46[0, 0] : (!llvm.ptr<array<12 x i8>>) -> !llvm.ptr<i8>
    call @read_tensor_f32(%47, %cast_47) : (!llvm.ptr<i8>, memref<*xf32>) -> ()
    %alloc_48 = memref.alloc() {alignment = 16 : i64} : memref<1024xf32>
    %cast_49 = memref.cast %alloc_48 : memref<1024xf32> to memref<*xf32>
    %48 = llvm.mlir.addressof @constant_24 : !llvm.ptr<array<12 x i8>>
    %49 = llvm.getelementptr %48[0, 0] : (!llvm.ptr<array<12 x i8>>) -> !llvm.ptr<i8>
    call @read_tensor_f32(%49, %cast_49) : (!llvm.ptr<i8>, memref<*xf32>) -> ()
    %alloc_50 = memref.alloc() {alignment = 16 : i64} : memref<1024xf32>
    %cast_51 = memref.cast %alloc_50 : memref<1024xf32> to memref<*xf32>
    %50 = llvm.mlir.addressof @constant_25 : !llvm.ptr<array<12 x i8>>
    %51 = llvm.getelementptr %50[0, 0] : (!llvm.ptr<array<12 x i8>>) -> !llvm.ptr<i8>
    call @read_tensor_f32(%51, %cast_51) : (!llvm.ptr<i8>, memref<*xf32>) -> ()
    %alloc_52 = memref.alloc() {alignment = 16 : i64} : memref<1024xf32>
    %cast_53 = memref.cast %alloc_52 : memref<1024xf32> to memref<*xf32>
    %52 = llvm.mlir.addressof @constant_26 : !llvm.ptr<array<12 x i8>>
    %53 = llvm.getelementptr %52[0, 0] : (!llvm.ptr<array<12 x i8>>) -> !llvm.ptr<i8>
    call @read_tensor_f32(%53, %cast_53) : (!llvm.ptr<i8>, memref<*xf32>) -> ()
    %alloc_54 = memref.alloc() {alignment = 16 : i64} : memref<1024x3072xf32>
    %cast_55 = memref.cast %alloc_54 : memref<1024x3072xf32> to memref<*xf32>
    %54 = llvm.mlir.addressof @constant_27 : !llvm.ptr<array<12 x i8>>
    %55 = llvm.getelementptr %54[0, 0] : (!llvm.ptr<array<12 x i8>>) -> !llvm.ptr<i8>
    call @read_tensor_f32(%55, %cast_55) : (!llvm.ptr<i8>, memref<*xf32>) -> ()
    %alloc_56 = memref.alloc() {alignment = 16 : i64} : memref<3072xf32>
    %cast_57 = memref.cast %alloc_56 : memref<3072xf32> to memref<*xf32>
    %56 = llvm.mlir.addressof @constant_28 : !llvm.ptr<array<12 x i8>>
    %57 = llvm.getelementptr %56[0, 0] : (!llvm.ptr<array<12 x i8>>) -> !llvm.ptr<i8>
    call @read_tensor_f32(%57, %cast_57) : (!llvm.ptr<i8>, memref<*xf32>) -> ()
    %alloc_58 = memref.alloc() {alignment = 16 : i64} : memref<1024x1024xf32>
    %cast_59 = memref.cast %alloc_58 : memref<1024x1024xf32> to memref<*xf32>
    %58 = llvm.mlir.addressof @constant_29 : !llvm.ptr<array<12 x i8>>
    %59 = llvm.getelementptr %58[0, 0] : (!llvm.ptr<array<12 x i8>>) -> !llvm.ptr<i8>
    call @read_tensor_f32(%59, %cast_59) : (!llvm.ptr<i8>, memref<*xf32>) -> ()
    %alloc_60 = memref.alloc() {alignment = 16 : i64} : memref<1024xf32>
    %cast_61 = memref.cast %alloc_60 : memref<1024xf32> to memref<*xf32>
    %60 = llvm.mlir.addressof @constant_30 : !llvm.ptr<array<12 x i8>>
    %61 = llvm.getelementptr %60[0, 0] : (!llvm.ptr<array<12 x i8>>) -> !llvm.ptr<i8>
    call @read_tensor_f32(%61, %cast_61) : (!llvm.ptr<i8>, memref<*xf32>) -> ()
    %alloc_62 = memref.alloc() {alignment = 16 : i64} : memref<1024xf32>
    %cast_63 = memref.cast %alloc_62 : memref<1024xf32> to memref<*xf32>
    %62 = llvm.mlir.addressof @constant_31 : !llvm.ptr<array<12 x i8>>
    %63 = llvm.getelementptr %62[0, 0] : (!llvm.ptr<array<12 x i8>>) -> !llvm.ptr<i8>
    call @read_tensor_f32(%63, %cast_63) : (!llvm.ptr<i8>, memref<*xf32>) -> ()
    %alloc_64 = memref.alloc() {alignment = 16 : i64} : memref<1024xf32>
    %cast_65 = memref.cast %alloc_64 : memref<1024xf32> to memref<*xf32>
    %64 = llvm.mlir.addressof @constant_32 : !llvm.ptr<array<12 x i8>>
    %65 = llvm.getelementptr %64[0, 0] : (!llvm.ptr<array<12 x i8>>) -> !llvm.ptr<i8>
    call @read_tensor_f32(%65, %cast_65) : (!llvm.ptr<i8>, memref<*xf32>) -> ()
    %alloc_66 = memref.alloc() {alignment = 16 : i64} : memref<1024x4096xf32>
    %cast_67 = memref.cast %alloc_66 : memref<1024x4096xf32> to memref<*xf32>
    %66 = llvm.mlir.addressof @constant_33 : !llvm.ptr<array<12 x i8>>
    %67 = llvm.getelementptr %66[0, 0] : (!llvm.ptr<array<12 x i8>>) -> !llvm.ptr<i8>
    call @read_tensor_f32(%67, %cast_67) : (!llvm.ptr<i8>, memref<*xf32>) -> ()
    %alloc_68 = memref.alloc() {alignment = 16 : i64} : memref<4096xf32>
    %cast_69 = memref.cast %alloc_68 : memref<4096xf32> to memref<*xf32>
    %68 = llvm.mlir.addressof @constant_34 : !llvm.ptr<array<12 x i8>>
    %69 = llvm.getelementptr %68[0, 0] : (!llvm.ptr<array<12 x i8>>) -> !llvm.ptr<i8>
    call @read_tensor_f32(%69, %cast_69) : (!llvm.ptr<i8>, memref<*xf32>) -> ()
    %alloc_70 = memref.alloc() {alignment = 16 : i64} : memref<4096x1024xf32>
    %cast_71 = memref.cast %alloc_70 : memref<4096x1024xf32> to memref<*xf32>
    %70 = llvm.mlir.addressof @constant_35 : !llvm.ptr<array<12 x i8>>
    %71 = llvm.getelementptr %70[0, 0] : (!llvm.ptr<array<12 x i8>>) -> !llvm.ptr<i8>
    call @read_tensor_f32(%71, %cast_71) : (!llvm.ptr<i8>, memref<*xf32>) -> ()
    %alloc_72 = memref.alloc() {alignment = 16 : i64} : memref<1024xf32>
    %cast_73 = memref.cast %alloc_72 : memref<1024xf32> to memref<*xf32>
    %72 = llvm.mlir.addressof @constant_36 : !llvm.ptr<array<12 x i8>>
    %73 = llvm.getelementptr %72[0, 0] : (!llvm.ptr<array<12 x i8>>) -> !llvm.ptr<i8>
    call @read_tensor_f32(%73, %cast_73) : (!llvm.ptr<i8>, memref<*xf32>) -> ()
    %alloc_74 = memref.alloc() {alignment = 16 : i64} : memref<1024xf32>
    %cast_75 = memref.cast %alloc_74 : memref<1024xf32> to memref<*xf32>
    %74 = llvm.mlir.addressof @constant_37 : !llvm.ptr<array<12 x i8>>
    %75 = llvm.getelementptr %74[0, 0] : (!llvm.ptr<array<12 x i8>>) -> !llvm.ptr<i8>
    call @read_tensor_f32(%75, %cast_75) : (!llvm.ptr<i8>, memref<*xf32>) -> ()
    %alloc_76 = memref.alloc() {alignment = 16 : i64} : memref<1024xf32>
    %cast_77 = memref.cast %alloc_76 : memref<1024xf32> to memref<*xf32>
    %76 = llvm.mlir.addressof @constant_38 : !llvm.ptr<array<12 x i8>>
    %77 = llvm.getelementptr %76[0, 0] : (!llvm.ptr<array<12 x i8>>) -> !llvm.ptr<i8>
    call @read_tensor_f32(%77, %cast_77) : (!llvm.ptr<i8>, memref<*xf32>) -> ()
    %alloc_78 = memref.alloc() {alignment = 16 : i64} : memref<1024x3072xf32>
    %cast_79 = memref.cast %alloc_78 : memref<1024x3072xf32> to memref<*xf32>
    %78 = llvm.mlir.addressof @constant_39 : !llvm.ptr<array<12 x i8>>
    %79 = llvm.getelementptr %78[0, 0] : (!llvm.ptr<array<12 x i8>>) -> !llvm.ptr<i8>
    call @read_tensor_f32(%79, %cast_79) : (!llvm.ptr<i8>, memref<*xf32>) -> ()
    %alloc_80 = memref.alloc() {alignment = 16 : i64} : memref<3072xf32>
    %cast_81 = memref.cast %alloc_80 : memref<3072xf32> to memref<*xf32>
    %80 = llvm.mlir.addressof @constant_40 : !llvm.ptr<array<12 x i8>>
    %81 = llvm.getelementptr %80[0, 0] : (!llvm.ptr<array<12 x i8>>) -> !llvm.ptr<i8>
    call @read_tensor_f32(%81, %cast_81) : (!llvm.ptr<i8>, memref<*xf32>) -> ()
    %alloc_82 = memref.alloc() {alignment = 16 : i64} : memref<1024x1024xf32>
    %cast_83 = memref.cast %alloc_82 : memref<1024x1024xf32> to memref<*xf32>
    %82 = llvm.mlir.addressof @constant_41 : !llvm.ptr<array<12 x i8>>
    %83 = llvm.getelementptr %82[0, 0] : (!llvm.ptr<array<12 x i8>>) -> !llvm.ptr<i8>
    call @read_tensor_f32(%83, %cast_83) : (!llvm.ptr<i8>, memref<*xf32>) -> ()
    %alloc_84 = memref.alloc() {alignment = 16 : i64} : memref<1024xf32>
    %cast_85 = memref.cast %alloc_84 : memref<1024xf32> to memref<*xf32>
    %84 = llvm.mlir.addressof @constant_42 : !llvm.ptr<array<12 x i8>>
    %85 = llvm.getelementptr %84[0, 0] : (!llvm.ptr<array<12 x i8>>) -> !llvm.ptr<i8>
    call @read_tensor_f32(%85, %cast_85) : (!llvm.ptr<i8>, memref<*xf32>) -> ()
    %alloc_86 = memref.alloc() {alignment = 16 : i64} : memref<1024xf32>
    %cast_87 = memref.cast %alloc_86 : memref<1024xf32> to memref<*xf32>
    %86 = llvm.mlir.addressof @constant_43 : !llvm.ptr<array<12 x i8>>
    %87 = llvm.getelementptr %86[0, 0] : (!llvm.ptr<array<12 x i8>>) -> !llvm.ptr<i8>
    call @read_tensor_f32(%87, %cast_87) : (!llvm.ptr<i8>, memref<*xf32>) -> ()
    %alloc_88 = memref.alloc() {alignment = 16 : i64} : memref<1024xf32>
    %cast_89 = memref.cast %alloc_88 : memref<1024xf32> to memref<*xf32>
    %88 = llvm.mlir.addressof @constant_44 : !llvm.ptr<array<12 x i8>>
    %89 = llvm.getelementptr %88[0, 0] : (!llvm.ptr<array<12 x i8>>) -> !llvm.ptr<i8>
    call @read_tensor_f32(%89, %cast_89) : (!llvm.ptr<i8>, memref<*xf32>) -> ()
    %alloc_90 = memref.alloc() {alignment = 16 : i64} : memref<1024x4096xf32>
    %cast_91 = memref.cast %alloc_90 : memref<1024x4096xf32> to memref<*xf32>
    %90 = llvm.mlir.addressof @constant_45 : !llvm.ptr<array<12 x i8>>
    %91 = llvm.getelementptr %90[0, 0] : (!llvm.ptr<array<12 x i8>>) -> !llvm.ptr<i8>
    call @read_tensor_f32(%91, %cast_91) : (!llvm.ptr<i8>, memref<*xf32>) -> ()
    %alloc_92 = memref.alloc() {alignment = 16 : i64} : memref<4096xf32>
    %cast_93 = memref.cast %alloc_92 : memref<4096xf32> to memref<*xf32>
    %92 = llvm.mlir.addressof @constant_46 : !llvm.ptr<array<12 x i8>>
    %93 = llvm.getelementptr %92[0, 0] : (!llvm.ptr<array<12 x i8>>) -> !llvm.ptr<i8>
    call @read_tensor_f32(%93, %cast_93) : (!llvm.ptr<i8>, memref<*xf32>) -> ()
    %alloc_94 = memref.alloc() {alignment = 16 : i64} : memref<4096x1024xf32>
    %cast_95 = memref.cast %alloc_94 : memref<4096x1024xf32> to memref<*xf32>
    %94 = llvm.mlir.addressof @constant_47 : !llvm.ptr<array<12 x i8>>
    %95 = llvm.getelementptr %94[0, 0] : (!llvm.ptr<array<12 x i8>>) -> !llvm.ptr<i8>
    call @read_tensor_f32(%95, %cast_95) : (!llvm.ptr<i8>, memref<*xf32>) -> ()
    %alloc_96 = memref.alloc() {alignment = 16 : i64} : memref<1024xf32>
    %cast_97 = memref.cast %alloc_96 : memref<1024xf32> to memref<*xf32>
    %96 = llvm.mlir.addressof @constant_48 : !llvm.ptr<array<12 x i8>>
    %97 = llvm.getelementptr %96[0, 0] : (!llvm.ptr<array<12 x i8>>) -> !llvm.ptr<i8>
    call @read_tensor_f32(%97, %cast_97) : (!llvm.ptr<i8>, memref<*xf32>) -> ()
    %alloc_98 = memref.alloc() {alignment = 16 : i64} : memref<1024xf32>
    %cast_99 = memref.cast %alloc_98 : memref<1024xf32> to memref<*xf32>
    %98 = llvm.mlir.addressof @constant_49 : !llvm.ptr<array<12 x i8>>
    %99 = llvm.getelementptr %98[0, 0] : (!llvm.ptr<array<12 x i8>>) -> !llvm.ptr<i8>
    call @read_tensor_f32(%99, %cast_99) : (!llvm.ptr<i8>, memref<*xf32>) -> ()
    %alloc_100 = memref.alloc() {alignment = 16 : i64} : memref<1024xf32>
    %cast_101 = memref.cast %alloc_100 : memref<1024xf32> to memref<*xf32>
    %100 = llvm.mlir.addressof @constant_50 : !llvm.ptr<array<12 x i8>>
    %101 = llvm.getelementptr %100[0, 0] : (!llvm.ptr<array<12 x i8>>) -> !llvm.ptr<i8>
    call @read_tensor_f32(%101, %cast_101) : (!llvm.ptr<i8>, memref<*xf32>) -> ()
    %alloc_102 = memref.alloc() {alignment = 16 : i64} : memref<1024x3072xf32>
    %cast_103 = memref.cast %alloc_102 : memref<1024x3072xf32> to memref<*xf32>
    %102 = llvm.mlir.addressof @constant_51 : !llvm.ptr<array<12 x i8>>
    %103 = llvm.getelementptr %102[0, 0] : (!llvm.ptr<array<12 x i8>>) -> !llvm.ptr<i8>
    call @read_tensor_f32(%103, %cast_103) : (!llvm.ptr<i8>, memref<*xf32>) -> ()
    %alloc_104 = memref.alloc() {alignment = 16 : i64} : memref<3072xf32>
    %cast_105 = memref.cast %alloc_104 : memref<3072xf32> to memref<*xf32>
    %104 = llvm.mlir.addressof @constant_52 : !llvm.ptr<array<12 x i8>>
    %105 = llvm.getelementptr %104[0, 0] : (!llvm.ptr<array<12 x i8>>) -> !llvm.ptr<i8>
    call @read_tensor_f32(%105, %cast_105) : (!llvm.ptr<i8>, memref<*xf32>) -> ()
    %alloc_106 = memref.alloc() {alignment = 16 : i64} : memref<1024x1024xf32>
    %cast_107 = memref.cast %alloc_106 : memref<1024x1024xf32> to memref<*xf32>
    %106 = llvm.mlir.addressof @constant_53 : !llvm.ptr<array<12 x i8>>
    %107 = llvm.getelementptr %106[0, 0] : (!llvm.ptr<array<12 x i8>>) -> !llvm.ptr<i8>
    call @read_tensor_f32(%107, %cast_107) : (!llvm.ptr<i8>, memref<*xf32>) -> ()
    %alloc_108 = memref.alloc() {alignment = 16 : i64} : memref<1024xf32>
    %cast_109 = memref.cast %alloc_108 : memref<1024xf32> to memref<*xf32>
    %108 = llvm.mlir.addressof @constant_54 : !llvm.ptr<array<12 x i8>>
    %109 = llvm.getelementptr %108[0, 0] : (!llvm.ptr<array<12 x i8>>) -> !llvm.ptr<i8>
    call @read_tensor_f32(%109, %cast_109) : (!llvm.ptr<i8>, memref<*xf32>) -> ()
    %alloc_110 = memref.alloc() {alignment = 16 : i64} : memref<1024xf32>
    %cast_111 = memref.cast %alloc_110 : memref<1024xf32> to memref<*xf32>
    %110 = llvm.mlir.addressof @constant_55 : !llvm.ptr<array<12 x i8>>
    %111 = llvm.getelementptr %110[0, 0] : (!llvm.ptr<array<12 x i8>>) -> !llvm.ptr<i8>
    call @read_tensor_f32(%111, %cast_111) : (!llvm.ptr<i8>, memref<*xf32>) -> ()
    %alloc_112 = memref.alloc() {alignment = 16 : i64} : memref<1024xf32>
    %cast_113 = memref.cast %alloc_112 : memref<1024xf32> to memref<*xf32>
    %112 = llvm.mlir.addressof @constant_56 : !llvm.ptr<array<12 x i8>>
    %113 = llvm.getelementptr %112[0, 0] : (!llvm.ptr<array<12 x i8>>) -> !llvm.ptr<i8>
    call @read_tensor_f32(%113, %cast_113) : (!llvm.ptr<i8>, memref<*xf32>) -> ()
    %alloc_114 = memref.alloc() {alignment = 16 : i64} : memref<1024x4096xf32>
    %cast_115 = memref.cast %alloc_114 : memref<1024x4096xf32> to memref<*xf32>
    %114 = llvm.mlir.addressof @constant_57 : !llvm.ptr<array<12 x i8>>
    %115 = llvm.getelementptr %114[0, 0] : (!llvm.ptr<array<12 x i8>>) -> !llvm.ptr<i8>
    call @read_tensor_f32(%115, %cast_115) : (!llvm.ptr<i8>, memref<*xf32>) -> ()
    %alloc_116 = memref.alloc() {alignment = 16 : i64} : memref<4096xf32>
    %cast_117 = memref.cast %alloc_116 : memref<4096xf32> to memref<*xf32>
    %116 = llvm.mlir.addressof @constant_58 : !llvm.ptr<array<12 x i8>>
    %117 = llvm.getelementptr %116[0, 0] : (!llvm.ptr<array<12 x i8>>) -> !llvm.ptr<i8>
    call @read_tensor_f32(%117, %cast_117) : (!llvm.ptr<i8>, memref<*xf32>) -> ()
    %alloc_118 = memref.alloc() {alignment = 16 : i64} : memref<4096x1024xf32>
    %cast_119 = memref.cast %alloc_118 : memref<4096x1024xf32> to memref<*xf32>
    %118 = llvm.mlir.addressof @constant_59 : !llvm.ptr<array<12 x i8>>
    %119 = llvm.getelementptr %118[0, 0] : (!llvm.ptr<array<12 x i8>>) -> !llvm.ptr<i8>
    call @read_tensor_f32(%119, %cast_119) : (!llvm.ptr<i8>, memref<*xf32>) -> ()
    %alloc_120 = memref.alloc() {alignment = 16 : i64} : memref<1024xf32>
    %cast_121 = memref.cast %alloc_120 : memref<1024xf32> to memref<*xf32>
    %120 = llvm.mlir.addressof @constant_60 : !llvm.ptr<array<12 x i8>>
    %121 = llvm.getelementptr %120[0, 0] : (!llvm.ptr<array<12 x i8>>) -> !llvm.ptr<i8>
    call @read_tensor_f32(%121, %cast_121) : (!llvm.ptr<i8>, memref<*xf32>) -> ()
    %alloc_122 = memref.alloc() {alignment = 16 : i64} : memref<1024xf32>
    %cast_123 = memref.cast %alloc_122 : memref<1024xf32> to memref<*xf32>
    %122 = llvm.mlir.addressof @constant_61 : !llvm.ptr<array<12 x i8>>
    %123 = llvm.getelementptr %122[0, 0] : (!llvm.ptr<array<12 x i8>>) -> !llvm.ptr<i8>
    call @read_tensor_f32(%123, %cast_123) : (!llvm.ptr<i8>, memref<*xf32>) -> ()
    %alloc_124 = memref.alloc() {alignment = 16 : i64} : memref<1024xf32>
    %cast_125 = memref.cast %alloc_124 : memref<1024xf32> to memref<*xf32>
    %124 = llvm.mlir.addressof @constant_62 : !llvm.ptr<array<12 x i8>>
    %125 = llvm.getelementptr %124[0, 0] : (!llvm.ptr<array<12 x i8>>) -> !llvm.ptr<i8>
    call @read_tensor_f32(%125, %cast_125) : (!llvm.ptr<i8>, memref<*xf32>) -> ()
    %alloc_126 = memref.alloc() {alignment = 16 : i64} : memref<1024x3072xf32>
    %cast_127 = memref.cast %alloc_126 : memref<1024x3072xf32> to memref<*xf32>
    %126 = llvm.mlir.addressof @constant_63 : !llvm.ptr<array<12 x i8>>
    %127 = llvm.getelementptr %126[0, 0] : (!llvm.ptr<array<12 x i8>>) -> !llvm.ptr<i8>
    call @read_tensor_f32(%127, %cast_127) : (!llvm.ptr<i8>, memref<*xf32>) -> ()
    %alloc_128 = memref.alloc() {alignment = 16 : i64} : memref<3072xf32>
    %cast_129 = memref.cast %alloc_128 : memref<3072xf32> to memref<*xf32>
    %128 = llvm.mlir.addressof @constant_64 : !llvm.ptr<array<12 x i8>>
    %129 = llvm.getelementptr %128[0, 0] : (!llvm.ptr<array<12 x i8>>) -> !llvm.ptr<i8>
    call @read_tensor_f32(%129, %cast_129) : (!llvm.ptr<i8>, memref<*xf32>) -> ()
    %alloc_130 = memref.alloc() {alignment = 16 : i64} : memref<1024x1024xf32>
    %cast_131 = memref.cast %alloc_130 : memref<1024x1024xf32> to memref<*xf32>
    %130 = llvm.mlir.addressof @constant_65 : !llvm.ptr<array<12 x i8>>
    %131 = llvm.getelementptr %130[0, 0] : (!llvm.ptr<array<12 x i8>>) -> !llvm.ptr<i8>
    call @read_tensor_f32(%131, %cast_131) : (!llvm.ptr<i8>, memref<*xf32>) -> ()
    %alloc_132 = memref.alloc() {alignment = 16 : i64} : memref<1024xf32>
    %cast_133 = memref.cast %alloc_132 : memref<1024xf32> to memref<*xf32>
    %132 = llvm.mlir.addressof @constant_66 : !llvm.ptr<array<12 x i8>>
    %133 = llvm.getelementptr %132[0, 0] : (!llvm.ptr<array<12 x i8>>) -> !llvm.ptr<i8>
    call @read_tensor_f32(%133, %cast_133) : (!llvm.ptr<i8>, memref<*xf32>) -> ()
    %alloc_134 = memref.alloc() {alignment = 16 : i64} : memref<1024xf32>
    %cast_135 = memref.cast %alloc_134 : memref<1024xf32> to memref<*xf32>
    %134 = llvm.mlir.addressof @constant_67 : !llvm.ptr<array<12 x i8>>
    %135 = llvm.getelementptr %134[0, 0] : (!llvm.ptr<array<12 x i8>>) -> !llvm.ptr<i8>
    call @read_tensor_f32(%135, %cast_135) : (!llvm.ptr<i8>, memref<*xf32>) -> ()
    %alloc_136 = memref.alloc() {alignment = 16 : i64} : memref<1024xf32>
    %cast_137 = memref.cast %alloc_136 : memref<1024xf32> to memref<*xf32>
    %136 = llvm.mlir.addressof @constant_68 : !llvm.ptr<array<12 x i8>>
    %137 = llvm.getelementptr %136[0, 0] : (!llvm.ptr<array<12 x i8>>) -> !llvm.ptr<i8>
    call @read_tensor_f32(%137, %cast_137) : (!llvm.ptr<i8>, memref<*xf32>) -> ()
    %alloc_138 = memref.alloc() {alignment = 16 : i64} : memref<1024x4096xf32>
    %cast_139 = memref.cast %alloc_138 : memref<1024x4096xf32> to memref<*xf32>
    %138 = llvm.mlir.addressof @constant_69 : !llvm.ptr<array<12 x i8>>
    %139 = llvm.getelementptr %138[0, 0] : (!llvm.ptr<array<12 x i8>>) -> !llvm.ptr<i8>
    call @read_tensor_f32(%139, %cast_139) : (!llvm.ptr<i8>, memref<*xf32>) -> ()
    %alloc_140 = memref.alloc() {alignment = 16 : i64} : memref<4096xf32>
    %cast_141 = memref.cast %alloc_140 : memref<4096xf32> to memref<*xf32>
    %140 = llvm.mlir.addressof @constant_70 : !llvm.ptr<array<12 x i8>>
    %141 = llvm.getelementptr %140[0, 0] : (!llvm.ptr<array<12 x i8>>) -> !llvm.ptr<i8>
    call @read_tensor_f32(%141, %cast_141) : (!llvm.ptr<i8>, memref<*xf32>) -> ()
    %alloc_142 = memref.alloc() {alignment = 16 : i64} : memref<4096x1024xf32>
    %cast_143 = memref.cast %alloc_142 : memref<4096x1024xf32> to memref<*xf32>
    %142 = llvm.mlir.addressof @constant_71 : !llvm.ptr<array<12 x i8>>
    %143 = llvm.getelementptr %142[0, 0] : (!llvm.ptr<array<12 x i8>>) -> !llvm.ptr<i8>
    call @read_tensor_f32(%143, %cast_143) : (!llvm.ptr<i8>, memref<*xf32>) -> ()
    %alloc_144 = memref.alloc() {alignment = 16 : i64} : memref<1024xf32>
    %cast_145 = memref.cast %alloc_144 : memref<1024xf32> to memref<*xf32>
    %144 = llvm.mlir.addressof @constant_72 : !llvm.ptr<array<12 x i8>>
    %145 = llvm.getelementptr %144[0, 0] : (!llvm.ptr<array<12 x i8>>) -> !llvm.ptr<i8>
    call @read_tensor_f32(%145, %cast_145) : (!llvm.ptr<i8>, memref<*xf32>) -> ()
    %alloc_146 = memref.alloc() {alignment = 16 : i64} : memref<1024xf32>
    %cast_147 = memref.cast %alloc_146 : memref<1024xf32> to memref<*xf32>
    %146 = llvm.mlir.addressof @constant_73 : !llvm.ptr<array<12 x i8>>
    %147 = llvm.getelementptr %146[0, 0] : (!llvm.ptr<array<12 x i8>>) -> !llvm.ptr<i8>
    call @read_tensor_f32(%147, %cast_147) : (!llvm.ptr<i8>, memref<*xf32>) -> ()
    %alloc_148 = memref.alloc() {alignment = 16 : i64} : memref<1024xf32>
    %cast_149 = memref.cast %alloc_148 : memref<1024xf32> to memref<*xf32>
    %148 = llvm.mlir.addressof @constant_74 : !llvm.ptr<array<12 x i8>>
    %149 = llvm.getelementptr %148[0, 0] : (!llvm.ptr<array<12 x i8>>) -> !llvm.ptr<i8>
    call @read_tensor_f32(%149, %cast_149) : (!llvm.ptr<i8>, memref<*xf32>) -> ()
    %alloc_150 = memref.alloc() {alignment = 16 : i64} : memref<1024x3072xf32>
    %cast_151 = memref.cast %alloc_150 : memref<1024x3072xf32> to memref<*xf32>
    %150 = llvm.mlir.addressof @constant_75 : !llvm.ptr<array<12 x i8>>
    %151 = llvm.getelementptr %150[0, 0] : (!llvm.ptr<array<12 x i8>>) -> !llvm.ptr<i8>
    call @read_tensor_f32(%151, %cast_151) : (!llvm.ptr<i8>, memref<*xf32>) -> ()
    %alloc_152 = memref.alloc() {alignment = 16 : i64} : memref<3072xf32>
    %cast_153 = memref.cast %alloc_152 : memref<3072xf32> to memref<*xf32>
    %152 = llvm.mlir.addressof @constant_76 : !llvm.ptr<array<12 x i8>>
    %153 = llvm.getelementptr %152[0, 0] : (!llvm.ptr<array<12 x i8>>) -> !llvm.ptr<i8>
    call @read_tensor_f32(%153, %cast_153) : (!llvm.ptr<i8>, memref<*xf32>) -> ()
    %alloc_154 = memref.alloc() {alignment = 16 : i64} : memref<1024x1024xf32>
    %cast_155 = memref.cast %alloc_154 : memref<1024x1024xf32> to memref<*xf32>
    %154 = llvm.mlir.addressof @constant_77 : !llvm.ptr<array<12 x i8>>
    %155 = llvm.getelementptr %154[0, 0] : (!llvm.ptr<array<12 x i8>>) -> !llvm.ptr<i8>
    call @read_tensor_f32(%155, %cast_155) : (!llvm.ptr<i8>, memref<*xf32>) -> ()
    %alloc_156 = memref.alloc() {alignment = 16 : i64} : memref<1024xf32>
    %cast_157 = memref.cast %alloc_156 : memref<1024xf32> to memref<*xf32>
    %156 = llvm.mlir.addressof @constant_78 : !llvm.ptr<array<12 x i8>>
    %157 = llvm.getelementptr %156[0, 0] : (!llvm.ptr<array<12 x i8>>) -> !llvm.ptr<i8>
    call @read_tensor_f32(%157, %cast_157) : (!llvm.ptr<i8>, memref<*xf32>) -> ()
    %alloc_158 = memref.alloc() {alignment = 16 : i64} : memref<1024xf32>
    %cast_159 = memref.cast %alloc_158 : memref<1024xf32> to memref<*xf32>
    %158 = llvm.mlir.addressof @constant_79 : !llvm.ptr<array<12 x i8>>
    %159 = llvm.getelementptr %158[0, 0] : (!llvm.ptr<array<12 x i8>>) -> !llvm.ptr<i8>
    call @read_tensor_f32(%159, %cast_159) : (!llvm.ptr<i8>, memref<*xf32>) -> ()
    %alloc_160 = memref.alloc() {alignment = 16 : i64} : memref<1024xf32>
    %cast_161 = memref.cast %alloc_160 : memref<1024xf32> to memref<*xf32>
    %160 = llvm.mlir.addressof @constant_80 : !llvm.ptr<array<12 x i8>>
    %161 = llvm.getelementptr %160[0, 0] : (!llvm.ptr<array<12 x i8>>) -> !llvm.ptr<i8>
    call @read_tensor_f32(%161, %cast_161) : (!llvm.ptr<i8>, memref<*xf32>) -> ()
    %alloc_162 = memref.alloc() {alignment = 16 : i64} : memref<1024x4096xf32>
    %cast_163 = memref.cast %alloc_162 : memref<1024x4096xf32> to memref<*xf32>
    %162 = llvm.mlir.addressof @constant_81 : !llvm.ptr<array<12 x i8>>
    %163 = llvm.getelementptr %162[0, 0] : (!llvm.ptr<array<12 x i8>>) -> !llvm.ptr<i8>
    call @read_tensor_f32(%163, %cast_163) : (!llvm.ptr<i8>, memref<*xf32>) -> ()
    %alloc_164 = memref.alloc() {alignment = 16 : i64} : memref<4096xf32>
    %cast_165 = memref.cast %alloc_164 : memref<4096xf32> to memref<*xf32>
    %164 = llvm.mlir.addressof @constant_82 : !llvm.ptr<array<12 x i8>>
    %165 = llvm.getelementptr %164[0, 0] : (!llvm.ptr<array<12 x i8>>) -> !llvm.ptr<i8>
    call @read_tensor_f32(%165, %cast_165) : (!llvm.ptr<i8>, memref<*xf32>) -> ()
    %alloc_166 = memref.alloc() {alignment = 16 : i64} : memref<4096x1024xf32>
    %cast_167 = memref.cast %alloc_166 : memref<4096x1024xf32> to memref<*xf32>
    %166 = llvm.mlir.addressof @constant_83 : !llvm.ptr<array<12 x i8>>
    %167 = llvm.getelementptr %166[0, 0] : (!llvm.ptr<array<12 x i8>>) -> !llvm.ptr<i8>
    call @read_tensor_f32(%167, %cast_167) : (!llvm.ptr<i8>, memref<*xf32>) -> ()
    %alloc_168 = memref.alloc() {alignment = 16 : i64} : memref<1024xf32>
    %cast_169 = memref.cast %alloc_168 : memref<1024xf32> to memref<*xf32>
    %168 = llvm.mlir.addressof @constant_84 : !llvm.ptr<array<12 x i8>>
    %169 = llvm.getelementptr %168[0, 0] : (!llvm.ptr<array<12 x i8>>) -> !llvm.ptr<i8>
    call @read_tensor_f32(%169, %cast_169) : (!llvm.ptr<i8>, memref<*xf32>) -> ()
    %alloc_170 = memref.alloc() {alignment = 16 : i64} : memref<1024xf32>
    %cast_171 = memref.cast %alloc_170 : memref<1024xf32> to memref<*xf32>
    %170 = llvm.mlir.addressof @constant_85 : !llvm.ptr<array<12 x i8>>
    %171 = llvm.getelementptr %170[0, 0] : (!llvm.ptr<array<12 x i8>>) -> !llvm.ptr<i8>
    call @read_tensor_f32(%171, %cast_171) : (!llvm.ptr<i8>, memref<*xf32>) -> ()
    %alloc_172 = memref.alloc() {alignment = 16 : i64} : memref<1024xf32>
    %cast_173 = memref.cast %alloc_172 : memref<1024xf32> to memref<*xf32>
    %172 = llvm.mlir.addressof @constant_86 : !llvm.ptr<array<12 x i8>>
    %173 = llvm.getelementptr %172[0, 0] : (!llvm.ptr<array<12 x i8>>) -> !llvm.ptr<i8>
    call @read_tensor_f32(%173, %cast_173) : (!llvm.ptr<i8>, memref<*xf32>) -> ()
    %alloc_174 = memref.alloc() {alignment = 16 : i64} : memref<1024x3072xf32>
    %cast_175 = memref.cast %alloc_174 : memref<1024x3072xf32> to memref<*xf32>
    %174 = llvm.mlir.addressof @constant_87 : !llvm.ptr<array<12 x i8>>
    %175 = llvm.getelementptr %174[0, 0] : (!llvm.ptr<array<12 x i8>>) -> !llvm.ptr<i8>
    call @read_tensor_f32(%175, %cast_175) : (!llvm.ptr<i8>, memref<*xf32>) -> ()
    %alloc_176 = memref.alloc() {alignment = 16 : i64} : memref<3072xf32>
    %cast_177 = memref.cast %alloc_176 : memref<3072xf32> to memref<*xf32>
    %176 = llvm.mlir.addressof @constant_88 : !llvm.ptr<array<12 x i8>>
    %177 = llvm.getelementptr %176[0, 0] : (!llvm.ptr<array<12 x i8>>) -> !llvm.ptr<i8>
    call @read_tensor_f32(%177, %cast_177) : (!llvm.ptr<i8>, memref<*xf32>) -> ()
    %alloc_178 = memref.alloc() {alignment = 16 : i64} : memref<1024x1024xf32>
    %cast_179 = memref.cast %alloc_178 : memref<1024x1024xf32> to memref<*xf32>
    %178 = llvm.mlir.addressof @constant_89 : !llvm.ptr<array<12 x i8>>
    %179 = llvm.getelementptr %178[0, 0] : (!llvm.ptr<array<12 x i8>>) -> !llvm.ptr<i8>
    call @read_tensor_f32(%179, %cast_179) : (!llvm.ptr<i8>, memref<*xf32>) -> ()
    %alloc_180 = memref.alloc() {alignment = 16 : i64} : memref<1024xf32>
    %cast_181 = memref.cast %alloc_180 : memref<1024xf32> to memref<*xf32>
    %180 = llvm.mlir.addressof @constant_90 : !llvm.ptr<array<12 x i8>>
    %181 = llvm.getelementptr %180[0, 0] : (!llvm.ptr<array<12 x i8>>) -> !llvm.ptr<i8>
    call @read_tensor_f32(%181, %cast_181) : (!llvm.ptr<i8>, memref<*xf32>) -> ()
    %alloc_182 = memref.alloc() {alignment = 16 : i64} : memref<1024xf32>
    %cast_183 = memref.cast %alloc_182 : memref<1024xf32> to memref<*xf32>
    %182 = llvm.mlir.addressof @constant_91 : !llvm.ptr<array<12 x i8>>
    %183 = llvm.getelementptr %182[0, 0] : (!llvm.ptr<array<12 x i8>>) -> !llvm.ptr<i8>
    call @read_tensor_f32(%183, %cast_183) : (!llvm.ptr<i8>, memref<*xf32>) -> ()
    %alloc_184 = memref.alloc() {alignment = 16 : i64} : memref<1024xf32>
    %cast_185 = memref.cast %alloc_184 : memref<1024xf32> to memref<*xf32>
    %184 = llvm.mlir.addressof @constant_92 : !llvm.ptr<array<12 x i8>>
    %185 = llvm.getelementptr %184[0, 0] : (!llvm.ptr<array<12 x i8>>) -> !llvm.ptr<i8>
    call @read_tensor_f32(%185, %cast_185) : (!llvm.ptr<i8>, memref<*xf32>) -> ()
    %alloc_186 = memref.alloc() {alignment = 16 : i64} : memref<1024x4096xf32>
    %cast_187 = memref.cast %alloc_186 : memref<1024x4096xf32> to memref<*xf32>
    %186 = llvm.mlir.addressof @constant_93 : !llvm.ptr<array<12 x i8>>
    %187 = llvm.getelementptr %186[0, 0] : (!llvm.ptr<array<12 x i8>>) -> !llvm.ptr<i8>
    call @read_tensor_f32(%187, %cast_187) : (!llvm.ptr<i8>, memref<*xf32>) -> ()
    %alloc_188 = memref.alloc() {alignment = 16 : i64} : memref<4096xf32>
    %cast_189 = memref.cast %alloc_188 : memref<4096xf32> to memref<*xf32>
    %188 = llvm.mlir.addressof @constant_94 : !llvm.ptr<array<12 x i8>>
    %189 = llvm.getelementptr %188[0, 0] : (!llvm.ptr<array<12 x i8>>) -> !llvm.ptr<i8>
    call @read_tensor_f32(%189, %cast_189) : (!llvm.ptr<i8>, memref<*xf32>) -> ()
    %alloc_190 = memref.alloc() {alignment = 16 : i64} : memref<4096x1024xf32>
    %cast_191 = memref.cast %alloc_190 : memref<4096x1024xf32> to memref<*xf32>
    %190 = llvm.mlir.addressof @constant_95 : !llvm.ptr<array<12 x i8>>
    %191 = llvm.getelementptr %190[0, 0] : (!llvm.ptr<array<12 x i8>>) -> !llvm.ptr<i8>
    call @read_tensor_f32(%191, %cast_191) : (!llvm.ptr<i8>, memref<*xf32>) -> ()
    %alloc_192 = memref.alloc() {alignment = 16 : i64} : memref<1024xf32>
    %cast_193 = memref.cast %alloc_192 : memref<1024xf32> to memref<*xf32>
    %192 = llvm.mlir.addressof @constant_96 : !llvm.ptr<array<12 x i8>>
    %193 = llvm.getelementptr %192[0, 0] : (!llvm.ptr<array<12 x i8>>) -> !llvm.ptr<i8>
    call @read_tensor_f32(%193, %cast_193) : (!llvm.ptr<i8>, memref<*xf32>) -> ()
    %alloc_194 = memref.alloc() {alignment = 16 : i64} : memref<1024xf32>
    %cast_195 = memref.cast %alloc_194 : memref<1024xf32> to memref<*xf32>
    %194 = llvm.mlir.addressof @constant_97 : !llvm.ptr<array<12 x i8>>
    %195 = llvm.getelementptr %194[0, 0] : (!llvm.ptr<array<12 x i8>>) -> !llvm.ptr<i8>
    call @read_tensor_f32(%195, %cast_195) : (!llvm.ptr<i8>, memref<*xf32>) -> ()
    %alloc_196 = memref.alloc() {alignment = 16 : i64} : memref<1024xf32>
    %cast_197 = memref.cast %alloc_196 : memref<1024xf32> to memref<*xf32>
    %196 = llvm.mlir.addressof @constant_98 : !llvm.ptr<array<12 x i8>>
    %197 = llvm.getelementptr %196[0, 0] : (!llvm.ptr<array<12 x i8>>) -> !llvm.ptr<i8>
    call @read_tensor_f32(%197, %cast_197) : (!llvm.ptr<i8>, memref<*xf32>) -> ()
    %alloc_198 = memref.alloc() {alignment = 16 : i64} : memref<1024x3072xf32>
    %cast_199 = memref.cast %alloc_198 : memref<1024x3072xf32> to memref<*xf32>
    %198 = llvm.mlir.addressof @constant_99 : !llvm.ptr<array<12 x i8>>
    %199 = llvm.getelementptr %198[0, 0] : (!llvm.ptr<array<12 x i8>>) -> !llvm.ptr<i8>
    call @read_tensor_f32(%199, %cast_199) : (!llvm.ptr<i8>, memref<*xf32>) -> ()
    %alloc_200 = memref.alloc() {alignment = 16 : i64} : memref<3072xf32>
    %cast_201 = memref.cast %alloc_200 : memref<3072xf32> to memref<*xf32>
    %200 = llvm.mlir.addressof @constant_100 : !llvm.ptr<array<13 x i8>>
    %201 = llvm.getelementptr %200[0, 0] : (!llvm.ptr<array<13 x i8>>) -> !llvm.ptr<i8>
    call @read_tensor_f32(%201, %cast_201) : (!llvm.ptr<i8>, memref<*xf32>) -> ()
    %alloc_202 = memref.alloc() {alignment = 16 : i64} : memref<1024x1024xf32>
    %cast_203 = memref.cast %alloc_202 : memref<1024x1024xf32> to memref<*xf32>
    %202 = llvm.mlir.addressof @constant_101 : !llvm.ptr<array<13 x i8>>
    %203 = llvm.getelementptr %202[0, 0] : (!llvm.ptr<array<13 x i8>>) -> !llvm.ptr<i8>
    call @read_tensor_f32(%203, %cast_203) : (!llvm.ptr<i8>, memref<*xf32>) -> ()
    %alloc_204 = memref.alloc() {alignment = 16 : i64} : memref<1024xf32>
    %cast_205 = memref.cast %alloc_204 : memref<1024xf32> to memref<*xf32>
    %204 = llvm.mlir.addressof @constant_102 : !llvm.ptr<array<13 x i8>>
    %205 = llvm.getelementptr %204[0, 0] : (!llvm.ptr<array<13 x i8>>) -> !llvm.ptr<i8>
    call @read_tensor_f32(%205, %cast_205) : (!llvm.ptr<i8>, memref<*xf32>) -> ()
    %alloc_206 = memref.alloc() {alignment = 16 : i64} : memref<1024xf32>
    %cast_207 = memref.cast %alloc_206 : memref<1024xf32> to memref<*xf32>
    %206 = llvm.mlir.addressof @constant_103 : !llvm.ptr<array<13 x i8>>
    %207 = llvm.getelementptr %206[0, 0] : (!llvm.ptr<array<13 x i8>>) -> !llvm.ptr<i8>
    call @read_tensor_f32(%207, %cast_207) : (!llvm.ptr<i8>, memref<*xf32>) -> ()
    %alloc_208 = memref.alloc() {alignment = 16 : i64} : memref<1024xf32>
    %cast_209 = memref.cast %alloc_208 : memref<1024xf32> to memref<*xf32>
    %208 = llvm.mlir.addressof @constant_104 : !llvm.ptr<array<13 x i8>>
    %209 = llvm.getelementptr %208[0, 0] : (!llvm.ptr<array<13 x i8>>) -> !llvm.ptr<i8>
    call @read_tensor_f32(%209, %cast_209) : (!llvm.ptr<i8>, memref<*xf32>) -> ()
    %alloc_210 = memref.alloc() {alignment = 16 : i64} : memref<1024x4096xf32>
    %cast_211 = memref.cast %alloc_210 : memref<1024x4096xf32> to memref<*xf32>
    %210 = llvm.mlir.addressof @constant_105 : !llvm.ptr<array<13 x i8>>
    %211 = llvm.getelementptr %210[0, 0] : (!llvm.ptr<array<13 x i8>>) -> !llvm.ptr<i8>
    call @read_tensor_f32(%211, %cast_211) : (!llvm.ptr<i8>, memref<*xf32>) -> ()
    %alloc_212 = memref.alloc() {alignment = 16 : i64} : memref<4096xf32>
    %cast_213 = memref.cast %alloc_212 : memref<4096xf32> to memref<*xf32>
    %212 = llvm.mlir.addressof @constant_106 : !llvm.ptr<array<13 x i8>>
    %213 = llvm.getelementptr %212[0, 0] : (!llvm.ptr<array<13 x i8>>) -> !llvm.ptr<i8>
    call @read_tensor_f32(%213, %cast_213) : (!llvm.ptr<i8>, memref<*xf32>) -> ()
    %alloc_214 = memref.alloc() {alignment = 16 : i64} : memref<4096x1024xf32>
    %cast_215 = memref.cast %alloc_214 : memref<4096x1024xf32> to memref<*xf32>
    %214 = llvm.mlir.addressof @constant_107 : !llvm.ptr<array<13 x i8>>
    %215 = llvm.getelementptr %214[0, 0] : (!llvm.ptr<array<13 x i8>>) -> !llvm.ptr<i8>
    call @read_tensor_f32(%215, %cast_215) : (!llvm.ptr<i8>, memref<*xf32>) -> ()
    %alloc_216 = memref.alloc() {alignment = 16 : i64} : memref<1024xf32>
    %cast_217 = memref.cast %alloc_216 : memref<1024xf32> to memref<*xf32>
    %216 = llvm.mlir.addressof @constant_108 : !llvm.ptr<array<13 x i8>>
    %217 = llvm.getelementptr %216[0, 0] : (!llvm.ptr<array<13 x i8>>) -> !llvm.ptr<i8>
    call @read_tensor_f32(%217, %cast_217) : (!llvm.ptr<i8>, memref<*xf32>) -> ()
    %alloc_218 = memref.alloc() {alignment = 16 : i64} : memref<1024xf32>
    %cast_219 = memref.cast %alloc_218 : memref<1024xf32> to memref<*xf32>
    %218 = llvm.mlir.addressof @constant_109 : !llvm.ptr<array<13 x i8>>
    %219 = llvm.getelementptr %218[0, 0] : (!llvm.ptr<array<13 x i8>>) -> !llvm.ptr<i8>
    call @read_tensor_f32(%219, %cast_219) : (!llvm.ptr<i8>, memref<*xf32>) -> ()
    %alloc_220 = memref.alloc() {alignment = 16 : i64} : memref<1024xf32>
    %cast_221 = memref.cast %alloc_220 : memref<1024xf32> to memref<*xf32>
    %220 = llvm.mlir.addressof @constant_110 : !llvm.ptr<array<13 x i8>>
    %221 = llvm.getelementptr %220[0, 0] : (!llvm.ptr<array<13 x i8>>) -> !llvm.ptr<i8>
    call @read_tensor_f32(%221, %cast_221) : (!llvm.ptr<i8>, memref<*xf32>) -> ()
    %alloc_222 = memref.alloc() {alignment = 16 : i64} : memref<1024x3072xf32>
    %cast_223 = memref.cast %alloc_222 : memref<1024x3072xf32> to memref<*xf32>
    %222 = llvm.mlir.addressof @constant_111 : !llvm.ptr<array<13 x i8>>
    %223 = llvm.getelementptr %222[0, 0] : (!llvm.ptr<array<13 x i8>>) -> !llvm.ptr<i8>
    call @read_tensor_f32(%223, %cast_223) : (!llvm.ptr<i8>, memref<*xf32>) -> ()
    %alloc_224 = memref.alloc() {alignment = 16 : i64} : memref<3072xf32>
    %cast_225 = memref.cast %alloc_224 : memref<3072xf32> to memref<*xf32>
    %224 = llvm.mlir.addressof @constant_112 : !llvm.ptr<array<13 x i8>>
    %225 = llvm.getelementptr %224[0, 0] : (!llvm.ptr<array<13 x i8>>) -> !llvm.ptr<i8>
    call @read_tensor_f32(%225, %cast_225) : (!llvm.ptr<i8>, memref<*xf32>) -> ()
    %alloc_226 = memref.alloc() {alignment = 16 : i64} : memref<1024x1024xf32>
    %cast_227 = memref.cast %alloc_226 : memref<1024x1024xf32> to memref<*xf32>
    %226 = llvm.mlir.addressof @constant_113 : !llvm.ptr<array<13 x i8>>
    %227 = llvm.getelementptr %226[0, 0] : (!llvm.ptr<array<13 x i8>>) -> !llvm.ptr<i8>
    call @read_tensor_f32(%227, %cast_227) : (!llvm.ptr<i8>, memref<*xf32>) -> ()
    %alloc_228 = memref.alloc() {alignment = 16 : i64} : memref<1024xf32>
    %cast_229 = memref.cast %alloc_228 : memref<1024xf32> to memref<*xf32>
    %228 = llvm.mlir.addressof @constant_114 : !llvm.ptr<array<13 x i8>>
    %229 = llvm.getelementptr %228[0, 0] : (!llvm.ptr<array<13 x i8>>) -> !llvm.ptr<i8>
    call @read_tensor_f32(%229, %cast_229) : (!llvm.ptr<i8>, memref<*xf32>) -> ()
    %alloc_230 = memref.alloc() {alignment = 16 : i64} : memref<1024xf32>
    %cast_231 = memref.cast %alloc_230 : memref<1024xf32> to memref<*xf32>
    %230 = llvm.mlir.addressof @constant_115 : !llvm.ptr<array<13 x i8>>
    %231 = llvm.getelementptr %230[0, 0] : (!llvm.ptr<array<13 x i8>>) -> !llvm.ptr<i8>
    call @read_tensor_f32(%231, %cast_231) : (!llvm.ptr<i8>, memref<*xf32>) -> ()
    %alloc_232 = memref.alloc() {alignment = 16 : i64} : memref<1024xf32>
    %cast_233 = memref.cast %alloc_232 : memref<1024xf32> to memref<*xf32>
    %232 = llvm.mlir.addressof @constant_116 : !llvm.ptr<array<13 x i8>>
    %233 = llvm.getelementptr %232[0, 0] : (!llvm.ptr<array<13 x i8>>) -> !llvm.ptr<i8>
    call @read_tensor_f32(%233, %cast_233) : (!llvm.ptr<i8>, memref<*xf32>) -> ()
    %alloc_234 = memref.alloc() {alignment = 16 : i64} : memref<1024x4096xf32>
    %cast_235 = memref.cast %alloc_234 : memref<1024x4096xf32> to memref<*xf32>
    %234 = llvm.mlir.addressof @constant_117 : !llvm.ptr<array<13 x i8>>
    %235 = llvm.getelementptr %234[0, 0] : (!llvm.ptr<array<13 x i8>>) -> !llvm.ptr<i8>
    call @read_tensor_f32(%235, %cast_235) : (!llvm.ptr<i8>, memref<*xf32>) -> ()
    %alloc_236 = memref.alloc() {alignment = 16 : i64} : memref<4096xf32>
    %cast_237 = memref.cast %alloc_236 : memref<4096xf32> to memref<*xf32>
    %236 = llvm.mlir.addressof @constant_118 : !llvm.ptr<array<13 x i8>>
    %237 = llvm.getelementptr %236[0, 0] : (!llvm.ptr<array<13 x i8>>) -> !llvm.ptr<i8>
    call @read_tensor_f32(%237, %cast_237) : (!llvm.ptr<i8>, memref<*xf32>) -> ()
    %alloc_238 = memref.alloc() {alignment = 16 : i64} : memref<4096x1024xf32>
    %cast_239 = memref.cast %alloc_238 : memref<4096x1024xf32> to memref<*xf32>
    %238 = llvm.mlir.addressof @constant_119 : !llvm.ptr<array<13 x i8>>
    %239 = llvm.getelementptr %238[0, 0] : (!llvm.ptr<array<13 x i8>>) -> !llvm.ptr<i8>
    call @read_tensor_f32(%239, %cast_239) : (!llvm.ptr<i8>, memref<*xf32>) -> ()
    %alloc_240 = memref.alloc() {alignment = 16 : i64} : memref<1024xf32>
    %cast_241 = memref.cast %alloc_240 : memref<1024xf32> to memref<*xf32>
    %240 = llvm.mlir.addressof @constant_120 : !llvm.ptr<array<13 x i8>>
    %241 = llvm.getelementptr %240[0, 0] : (!llvm.ptr<array<13 x i8>>) -> !llvm.ptr<i8>
    call @read_tensor_f32(%241, %cast_241) : (!llvm.ptr<i8>, memref<*xf32>) -> ()
    %alloc_242 = memref.alloc() {alignment = 16 : i64} : memref<1024xf32>
    %cast_243 = memref.cast %alloc_242 : memref<1024xf32> to memref<*xf32>
    %242 = llvm.mlir.addressof @constant_121 : !llvm.ptr<array<13 x i8>>
    %243 = llvm.getelementptr %242[0, 0] : (!llvm.ptr<array<13 x i8>>) -> !llvm.ptr<i8>
    call @read_tensor_f32(%243, %cast_243) : (!llvm.ptr<i8>, memref<*xf32>) -> ()
    %alloc_244 = memref.alloc() {alignment = 16 : i64} : memref<1024xf32>
    %cast_245 = memref.cast %alloc_244 : memref<1024xf32> to memref<*xf32>
    %244 = llvm.mlir.addressof @constant_122 : !llvm.ptr<array<13 x i8>>
    %245 = llvm.getelementptr %244[0, 0] : (!llvm.ptr<array<13 x i8>>) -> !llvm.ptr<i8>
    call @read_tensor_f32(%245, %cast_245) : (!llvm.ptr<i8>, memref<*xf32>) -> ()
    %alloc_246 = memref.alloc() {alignment = 16 : i64} : memref<1024x3072xf32>
    %cast_247 = memref.cast %alloc_246 : memref<1024x3072xf32> to memref<*xf32>
    %246 = llvm.mlir.addressof @constant_123 : !llvm.ptr<array<13 x i8>>
    %247 = llvm.getelementptr %246[0, 0] : (!llvm.ptr<array<13 x i8>>) -> !llvm.ptr<i8>
    call @read_tensor_f32(%247, %cast_247) : (!llvm.ptr<i8>, memref<*xf32>) -> ()
    %alloc_248 = memref.alloc() {alignment = 16 : i64} : memref<3072xf32>
    %cast_249 = memref.cast %alloc_248 : memref<3072xf32> to memref<*xf32>
    %248 = llvm.mlir.addressof @constant_124 : !llvm.ptr<array<13 x i8>>
    %249 = llvm.getelementptr %248[0, 0] : (!llvm.ptr<array<13 x i8>>) -> !llvm.ptr<i8>
    call @read_tensor_f32(%249, %cast_249) : (!llvm.ptr<i8>, memref<*xf32>) -> ()
    %alloc_250 = memref.alloc() {alignment = 16 : i64} : memref<1024x1024xf32>
    %cast_251 = memref.cast %alloc_250 : memref<1024x1024xf32> to memref<*xf32>
    %250 = llvm.mlir.addressof @constant_125 : !llvm.ptr<array<13 x i8>>
    %251 = llvm.getelementptr %250[0, 0] : (!llvm.ptr<array<13 x i8>>) -> !llvm.ptr<i8>
    call @read_tensor_f32(%251, %cast_251) : (!llvm.ptr<i8>, memref<*xf32>) -> ()
    %alloc_252 = memref.alloc() {alignment = 16 : i64} : memref<1024xf32>
    %cast_253 = memref.cast %alloc_252 : memref<1024xf32> to memref<*xf32>
    %252 = llvm.mlir.addressof @constant_126 : !llvm.ptr<array<13 x i8>>
    %253 = llvm.getelementptr %252[0, 0] : (!llvm.ptr<array<13 x i8>>) -> !llvm.ptr<i8>
    call @read_tensor_f32(%253, %cast_253) : (!llvm.ptr<i8>, memref<*xf32>) -> ()
    %alloc_254 = memref.alloc() {alignment = 16 : i64} : memref<1024xf32>
    %cast_255 = memref.cast %alloc_254 : memref<1024xf32> to memref<*xf32>
    %254 = llvm.mlir.addressof @constant_127 : !llvm.ptr<array<13 x i8>>
    %255 = llvm.getelementptr %254[0, 0] : (!llvm.ptr<array<13 x i8>>) -> !llvm.ptr<i8>
    call @read_tensor_f32(%255, %cast_255) : (!llvm.ptr<i8>, memref<*xf32>) -> ()
    %alloc_256 = memref.alloc() {alignment = 16 : i64} : memref<1024xf32>
    %cast_257 = memref.cast %alloc_256 : memref<1024xf32> to memref<*xf32>
    %256 = llvm.mlir.addressof @constant_128 : !llvm.ptr<array<13 x i8>>
    %257 = llvm.getelementptr %256[0, 0] : (!llvm.ptr<array<13 x i8>>) -> !llvm.ptr<i8>
    call @read_tensor_f32(%257, %cast_257) : (!llvm.ptr<i8>, memref<*xf32>) -> ()
    %alloc_258 = memref.alloc() {alignment = 16 : i64} : memref<1024x4096xf32>
    %cast_259 = memref.cast %alloc_258 : memref<1024x4096xf32> to memref<*xf32>
    %258 = llvm.mlir.addressof @constant_129 : !llvm.ptr<array<13 x i8>>
    %259 = llvm.getelementptr %258[0, 0] : (!llvm.ptr<array<13 x i8>>) -> !llvm.ptr<i8>
    call @read_tensor_f32(%259, %cast_259) : (!llvm.ptr<i8>, memref<*xf32>) -> ()
    %alloc_260 = memref.alloc() {alignment = 16 : i64} : memref<4096xf32>
    %cast_261 = memref.cast %alloc_260 : memref<4096xf32> to memref<*xf32>
    %260 = llvm.mlir.addressof @constant_130 : !llvm.ptr<array<13 x i8>>
    %261 = llvm.getelementptr %260[0, 0] : (!llvm.ptr<array<13 x i8>>) -> !llvm.ptr<i8>
    call @read_tensor_f32(%261, %cast_261) : (!llvm.ptr<i8>, memref<*xf32>) -> ()
    %alloc_262 = memref.alloc() {alignment = 16 : i64} : memref<4096x1024xf32>
    %cast_263 = memref.cast %alloc_262 : memref<4096x1024xf32> to memref<*xf32>
    %262 = llvm.mlir.addressof @constant_131 : !llvm.ptr<array<13 x i8>>
    %263 = llvm.getelementptr %262[0, 0] : (!llvm.ptr<array<13 x i8>>) -> !llvm.ptr<i8>
    call @read_tensor_f32(%263, %cast_263) : (!llvm.ptr<i8>, memref<*xf32>) -> ()
    %alloc_264 = memref.alloc() {alignment = 16 : i64} : memref<1024xf32>
    %cast_265 = memref.cast %alloc_264 : memref<1024xf32> to memref<*xf32>
    %264 = llvm.mlir.addressof @constant_132 : !llvm.ptr<array<13 x i8>>
    %265 = llvm.getelementptr %264[0, 0] : (!llvm.ptr<array<13 x i8>>) -> !llvm.ptr<i8>
    call @read_tensor_f32(%265, %cast_265) : (!llvm.ptr<i8>, memref<*xf32>) -> ()
    %alloc_266 = memref.alloc() {alignment = 16 : i64} : memref<1024xf32>
    %cast_267 = memref.cast %alloc_266 : memref<1024xf32> to memref<*xf32>
    %266 = llvm.mlir.addressof @constant_133 : !llvm.ptr<array<13 x i8>>
    %267 = llvm.getelementptr %266[0, 0] : (!llvm.ptr<array<13 x i8>>) -> !llvm.ptr<i8>
    call @read_tensor_f32(%267, %cast_267) : (!llvm.ptr<i8>, memref<*xf32>) -> ()
    %alloc_268 = memref.alloc() {alignment = 16 : i64} : memref<1024xf32>
    %cast_269 = memref.cast %alloc_268 : memref<1024xf32> to memref<*xf32>
    %268 = llvm.mlir.addressof @constant_134 : !llvm.ptr<array<13 x i8>>
    %269 = llvm.getelementptr %268[0, 0] : (!llvm.ptr<array<13 x i8>>) -> !llvm.ptr<i8>
    call @read_tensor_f32(%269, %cast_269) : (!llvm.ptr<i8>, memref<*xf32>) -> ()
    %alloc_270 = memref.alloc() {alignment = 16 : i64} : memref<1024x3072xf32>
    %cast_271 = memref.cast %alloc_270 : memref<1024x3072xf32> to memref<*xf32>
    %270 = llvm.mlir.addressof @constant_135 : !llvm.ptr<array<13 x i8>>
    %271 = llvm.getelementptr %270[0, 0] : (!llvm.ptr<array<13 x i8>>) -> !llvm.ptr<i8>
    call @read_tensor_f32(%271, %cast_271) : (!llvm.ptr<i8>, memref<*xf32>) -> ()
    %alloc_272 = memref.alloc() {alignment = 16 : i64} : memref<3072xf32>
    %cast_273 = memref.cast %alloc_272 : memref<3072xf32> to memref<*xf32>
    %272 = llvm.mlir.addressof @constant_136 : !llvm.ptr<array<13 x i8>>
    %273 = llvm.getelementptr %272[0, 0] : (!llvm.ptr<array<13 x i8>>) -> !llvm.ptr<i8>
    call @read_tensor_f32(%273, %cast_273) : (!llvm.ptr<i8>, memref<*xf32>) -> ()
    %alloc_274 = memref.alloc() {alignment = 16 : i64} : memref<1024x1024xf32>
    %cast_275 = memref.cast %alloc_274 : memref<1024x1024xf32> to memref<*xf32>
    %274 = llvm.mlir.addressof @constant_137 : !llvm.ptr<array<13 x i8>>
    %275 = llvm.getelementptr %274[0, 0] : (!llvm.ptr<array<13 x i8>>) -> !llvm.ptr<i8>
    call @read_tensor_f32(%275, %cast_275) : (!llvm.ptr<i8>, memref<*xf32>) -> ()
    %alloc_276 = memref.alloc() {alignment = 16 : i64} : memref<1024xf32>
    %cast_277 = memref.cast %alloc_276 : memref<1024xf32> to memref<*xf32>
    %276 = llvm.mlir.addressof @constant_138 : !llvm.ptr<array<13 x i8>>
    %277 = llvm.getelementptr %276[0, 0] : (!llvm.ptr<array<13 x i8>>) -> !llvm.ptr<i8>
    call @read_tensor_f32(%277, %cast_277) : (!llvm.ptr<i8>, memref<*xf32>) -> ()
    %alloc_278 = memref.alloc() {alignment = 16 : i64} : memref<1024xf32>
    %cast_279 = memref.cast %alloc_278 : memref<1024xf32> to memref<*xf32>
    %278 = llvm.mlir.addressof @constant_139 : !llvm.ptr<array<13 x i8>>
    %279 = llvm.getelementptr %278[0, 0] : (!llvm.ptr<array<13 x i8>>) -> !llvm.ptr<i8>
    call @read_tensor_f32(%279, %cast_279) : (!llvm.ptr<i8>, memref<*xf32>) -> ()
    %alloc_280 = memref.alloc() {alignment = 16 : i64} : memref<1024xf32>
    %cast_281 = memref.cast %alloc_280 : memref<1024xf32> to memref<*xf32>
    %280 = llvm.mlir.addressof @constant_140 : !llvm.ptr<array<13 x i8>>
    %281 = llvm.getelementptr %280[0, 0] : (!llvm.ptr<array<13 x i8>>) -> !llvm.ptr<i8>
    call @read_tensor_f32(%281, %cast_281) : (!llvm.ptr<i8>, memref<*xf32>) -> ()
    %alloc_282 = memref.alloc() {alignment = 16 : i64} : memref<1024x4096xf32>
    %cast_283 = memref.cast %alloc_282 : memref<1024x4096xf32> to memref<*xf32>
    %282 = llvm.mlir.addressof @constant_141 : !llvm.ptr<array<13 x i8>>
    %283 = llvm.getelementptr %282[0, 0] : (!llvm.ptr<array<13 x i8>>) -> !llvm.ptr<i8>
    call @read_tensor_f32(%283, %cast_283) : (!llvm.ptr<i8>, memref<*xf32>) -> ()
    %alloc_284 = memref.alloc() {alignment = 16 : i64} : memref<4096xf32>
    %cast_285 = memref.cast %alloc_284 : memref<4096xf32> to memref<*xf32>
    %284 = llvm.mlir.addressof @constant_142 : !llvm.ptr<array<13 x i8>>
    %285 = llvm.getelementptr %284[0, 0] : (!llvm.ptr<array<13 x i8>>) -> !llvm.ptr<i8>
    call @read_tensor_f32(%285, %cast_285) : (!llvm.ptr<i8>, memref<*xf32>) -> ()
    %alloc_286 = memref.alloc() {alignment = 16 : i64} : memref<4096x1024xf32>
    %cast_287 = memref.cast %alloc_286 : memref<4096x1024xf32> to memref<*xf32>
    %286 = llvm.mlir.addressof @constant_143 : !llvm.ptr<array<13 x i8>>
    %287 = llvm.getelementptr %286[0, 0] : (!llvm.ptr<array<13 x i8>>) -> !llvm.ptr<i8>
    call @read_tensor_f32(%287, %cast_287) : (!llvm.ptr<i8>, memref<*xf32>) -> ()
    %alloc_288 = memref.alloc() {alignment = 16 : i64} : memref<1024xf32>
    %cast_289 = memref.cast %alloc_288 : memref<1024xf32> to memref<*xf32>
    %288 = llvm.mlir.addressof @constant_144 : !llvm.ptr<array<13 x i8>>
    %289 = llvm.getelementptr %288[0, 0] : (!llvm.ptr<array<13 x i8>>) -> !llvm.ptr<i8>
    call @read_tensor_f32(%289, %cast_289) : (!llvm.ptr<i8>, memref<*xf32>) -> ()
    %alloc_290 = memref.alloc() {alignment = 16 : i64} : memref<1024xf32>
    %cast_291 = memref.cast %alloc_290 : memref<1024xf32> to memref<*xf32>
    %290 = llvm.mlir.addressof @constant_145 : !llvm.ptr<array<13 x i8>>
    %291 = llvm.getelementptr %290[0, 0] : (!llvm.ptr<array<13 x i8>>) -> !llvm.ptr<i8>
    call @read_tensor_f32(%291, %cast_291) : (!llvm.ptr<i8>, memref<*xf32>) -> ()
    %alloc_292 = memref.alloc() {alignment = 16 : i64} : memref<1024xf32>
    %cast_293 = memref.cast %alloc_292 : memref<1024xf32> to memref<*xf32>
    %292 = llvm.mlir.addressof @constant_146 : !llvm.ptr<array<13 x i8>>
    %293 = llvm.getelementptr %292[0, 0] : (!llvm.ptr<array<13 x i8>>) -> !llvm.ptr<i8>
    call @read_tensor_f32(%293, %cast_293) : (!llvm.ptr<i8>, memref<*xf32>) -> ()
    %alloc_294 = memref.alloc() {alignment = 16 : i64} : memref<1024x3072xf32>
    %cast_295 = memref.cast %alloc_294 : memref<1024x3072xf32> to memref<*xf32>
    %294 = llvm.mlir.addressof @constant_147 : !llvm.ptr<array<13 x i8>>
    %295 = llvm.getelementptr %294[0, 0] : (!llvm.ptr<array<13 x i8>>) -> !llvm.ptr<i8>
    call @read_tensor_f32(%295, %cast_295) : (!llvm.ptr<i8>, memref<*xf32>) -> ()
    %alloc_296 = memref.alloc() {alignment = 16 : i64} : memref<3072xf32>
    %cast_297 = memref.cast %alloc_296 : memref<3072xf32> to memref<*xf32>
    %296 = llvm.mlir.addressof @constant_148 : !llvm.ptr<array<13 x i8>>
    %297 = llvm.getelementptr %296[0, 0] : (!llvm.ptr<array<13 x i8>>) -> !llvm.ptr<i8>
    call @read_tensor_f32(%297, %cast_297) : (!llvm.ptr<i8>, memref<*xf32>) -> ()
    %alloc_298 = memref.alloc() {alignment = 16 : i64} : memref<1024x1024xf32>
    %cast_299 = memref.cast %alloc_298 : memref<1024x1024xf32> to memref<*xf32>
    %298 = llvm.mlir.addressof @constant_149 : !llvm.ptr<array<13 x i8>>
    %299 = llvm.getelementptr %298[0, 0] : (!llvm.ptr<array<13 x i8>>) -> !llvm.ptr<i8>
    call @read_tensor_f32(%299, %cast_299) : (!llvm.ptr<i8>, memref<*xf32>) -> ()
    %alloc_300 = memref.alloc() {alignment = 16 : i64} : memref<1024xf32>
    %cast_301 = memref.cast %alloc_300 : memref<1024xf32> to memref<*xf32>
    %300 = llvm.mlir.addressof @constant_150 : !llvm.ptr<array<13 x i8>>
    %301 = llvm.getelementptr %300[0, 0] : (!llvm.ptr<array<13 x i8>>) -> !llvm.ptr<i8>
    call @read_tensor_f32(%301, %cast_301) : (!llvm.ptr<i8>, memref<*xf32>) -> ()
    %alloc_302 = memref.alloc() {alignment = 16 : i64} : memref<1024xf32>
    %cast_303 = memref.cast %alloc_302 : memref<1024xf32> to memref<*xf32>
    %302 = llvm.mlir.addressof @constant_151 : !llvm.ptr<array<13 x i8>>
    %303 = llvm.getelementptr %302[0, 0] : (!llvm.ptr<array<13 x i8>>) -> !llvm.ptr<i8>
    call @read_tensor_f32(%303, %cast_303) : (!llvm.ptr<i8>, memref<*xf32>) -> ()
    %alloc_304 = memref.alloc() {alignment = 16 : i64} : memref<1024xf32>
    %cast_305 = memref.cast %alloc_304 : memref<1024xf32> to memref<*xf32>
    %304 = llvm.mlir.addressof @constant_152 : !llvm.ptr<array<13 x i8>>
    %305 = llvm.getelementptr %304[0, 0] : (!llvm.ptr<array<13 x i8>>) -> !llvm.ptr<i8>
    call @read_tensor_f32(%305, %cast_305) : (!llvm.ptr<i8>, memref<*xf32>) -> ()
    %alloc_306 = memref.alloc() {alignment = 16 : i64} : memref<1024x4096xf32>
    %cast_307 = memref.cast %alloc_306 : memref<1024x4096xf32> to memref<*xf32>
    %306 = llvm.mlir.addressof @constant_153 : !llvm.ptr<array<13 x i8>>
    %307 = llvm.getelementptr %306[0, 0] : (!llvm.ptr<array<13 x i8>>) -> !llvm.ptr<i8>
    call @read_tensor_f32(%307, %cast_307) : (!llvm.ptr<i8>, memref<*xf32>) -> ()
    %alloc_308 = memref.alloc() {alignment = 16 : i64} : memref<4096xf32>
    %cast_309 = memref.cast %alloc_308 : memref<4096xf32> to memref<*xf32>
    %308 = llvm.mlir.addressof @constant_154 : !llvm.ptr<array<13 x i8>>
    %309 = llvm.getelementptr %308[0, 0] : (!llvm.ptr<array<13 x i8>>) -> !llvm.ptr<i8>
    call @read_tensor_f32(%309, %cast_309) : (!llvm.ptr<i8>, memref<*xf32>) -> ()
    %alloc_310 = memref.alloc() {alignment = 16 : i64} : memref<4096x1024xf32>
    %cast_311 = memref.cast %alloc_310 : memref<4096x1024xf32> to memref<*xf32>
    %310 = llvm.mlir.addressof @constant_155 : !llvm.ptr<array<13 x i8>>
    %311 = llvm.getelementptr %310[0, 0] : (!llvm.ptr<array<13 x i8>>) -> !llvm.ptr<i8>
    call @read_tensor_f32(%311, %cast_311) : (!llvm.ptr<i8>, memref<*xf32>) -> ()
    %alloc_312 = memref.alloc() {alignment = 16 : i64} : memref<1024xf32>
    %cast_313 = memref.cast %alloc_312 : memref<1024xf32> to memref<*xf32>
    %312 = llvm.mlir.addressof @constant_156 : !llvm.ptr<array<13 x i8>>
    %313 = llvm.getelementptr %312[0, 0] : (!llvm.ptr<array<13 x i8>>) -> !llvm.ptr<i8>
    call @read_tensor_f32(%313, %cast_313) : (!llvm.ptr<i8>, memref<*xf32>) -> ()
    %alloc_314 = memref.alloc() {alignment = 16 : i64} : memref<1024xf32>
    %cast_315 = memref.cast %alloc_314 : memref<1024xf32> to memref<*xf32>
    %314 = llvm.mlir.addressof @constant_157 : !llvm.ptr<array<13 x i8>>
    %315 = llvm.getelementptr %314[0, 0] : (!llvm.ptr<array<13 x i8>>) -> !llvm.ptr<i8>
    call @read_tensor_f32(%315, %cast_315) : (!llvm.ptr<i8>, memref<*xf32>) -> ()
    %alloc_316 = memref.alloc() {alignment = 16 : i64} : memref<1024xf32>
    %cast_317 = memref.cast %alloc_316 : memref<1024xf32> to memref<*xf32>
    %316 = llvm.mlir.addressof @constant_158 : !llvm.ptr<array<13 x i8>>
    %317 = llvm.getelementptr %316[0, 0] : (!llvm.ptr<array<13 x i8>>) -> !llvm.ptr<i8>
    call @read_tensor_f32(%317, %cast_317) : (!llvm.ptr<i8>, memref<*xf32>) -> ()
    %alloc_318 = memref.alloc() {alignment = 16 : i64} : memref<1024x3072xf32>
    %cast_319 = memref.cast %alloc_318 : memref<1024x3072xf32> to memref<*xf32>
    %318 = llvm.mlir.addressof @constant_159 : !llvm.ptr<array<13 x i8>>
    %319 = llvm.getelementptr %318[0, 0] : (!llvm.ptr<array<13 x i8>>) -> !llvm.ptr<i8>
    call @read_tensor_f32(%319, %cast_319) : (!llvm.ptr<i8>, memref<*xf32>) -> ()
    %alloc_320 = memref.alloc() {alignment = 16 : i64} : memref<3072xf32>
    %cast_321 = memref.cast %alloc_320 : memref<3072xf32> to memref<*xf32>
    %320 = llvm.mlir.addressof @constant_160 : !llvm.ptr<array<13 x i8>>
    %321 = llvm.getelementptr %320[0, 0] : (!llvm.ptr<array<13 x i8>>) -> !llvm.ptr<i8>
    call @read_tensor_f32(%321, %cast_321) : (!llvm.ptr<i8>, memref<*xf32>) -> ()
    %alloc_322 = memref.alloc() {alignment = 16 : i64} : memref<1024x1024xf32>
    %cast_323 = memref.cast %alloc_322 : memref<1024x1024xf32> to memref<*xf32>
    %322 = llvm.mlir.addressof @constant_161 : !llvm.ptr<array<13 x i8>>
    %323 = llvm.getelementptr %322[0, 0] : (!llvm.ptr<array<13 x i8>>) -> !llvm.ptr<i8>
    call @read_tensor_f32(%323, %cast_323) : (!llvm.ptr<i8>, memref<*xf32>) -> ()
    %alloc_324 = memref.alloc() {alignment = 16 : i64} : memref<1024xf32>
    %cast_325 = memref.cast %alloc_324 : memref<1024xf32> to memref<*xf32>
    %324 = llvm.mlir.addressof @constant_162 : !llvm.ptr<array<13 x i8>>
    %325 = llvm.getelementptr %324[0, 0] : (!llvm.ptr<array<13 x i8>>) -> !llvm.ptr<i8>
    call @read_tensor_f32(%325, %cast_325) : (!llvm.ptr<i8>, memref<*xf32>) -> ()
    %alloc_326 = memref.alloc() {alignment = 16 : i64} : memref<1024xf32>
    %cast_327 = memref.cast %alloc_326 : memref<1024xf32> to memref<*xf32>
    %326 = llvm.mlir.addressof @constant_163 : !llvm.ptr<array<13 x i8>>
    %327 = llvm.getelementptr %326[0, 0] : (!llvm.ptr<array<13 x i8>>) -> !llvm.ptr<i8>
    call @read_tensor_f32(%327, %cast_327) : (!llvm.ptr<i8>, memref<*xf32>) -> ()
    %alloc_328 = memref.alloc() {alignment = 16 : i64} : memref<1024xf32>
    %cast_329 = memref.cast %alloc_328 : memref<1024xf32> to memref<*xf32>
    %328 = llvm.mlir.addressof @constant_164 : !llvm.ptr<array<13 x i8>>
    %329 = llvm.getelementptr %328[0, 0] : (!llvm.ptr<array<13 x i8>>) -> !llvm.ptr<i8>
    call @read_tensor_f32(%329, %cast_329) : (!llvm.ptr<i8>, memref<*xf32>) -> ()
    %alloc_330 = memref.alloc() {alignment = 16 : i64} : memref<1024x4096xf32>
    %cast_331 = memref.cast %alloc_330 : memref<1024x4096xf32> to memref<*xf32>
    %330 = llvm.mlir.addressof @constant_165 : !llvm.ptr<array<13 x i8>>
    %331 = llvm.getelementptr %330[0, 0] : (!llvm.ptr<array<13 x i8>>) -> !llvm.ptr<i8>
    call @read_tensor_f32(%331, %cast_331) : (!llvm.ptr<i8>, memref<*xf32>) -> ()
    %alloc_332 = memref.alloc() {alignment = 16 : i64} : memref<4096xf32>
    %cast_333 = memref.cast %alloc_332 : memref<4096xf32> to memref<*xf32>
    %332 = llvm.mlir.addressof @constant_166 : !llvm.ptr<array<13 x i8>>
    %333 = llvm.getelementptr %332[0, 0] : (!llvm.ptr<array<13 x i8>>) -> !llvm.ptr<i8>
    call @read_tensor_f32(%333, %cast_333) : (!llvm.ptr<i8>, memref<*xf32>) -> ()
    %alloc_334 = memref.alloc() {alignment = 16 : i64} : memref<4096x1024xf32>
    %cast_335 = memref.cast %alloc_334 : memref<4096x1024xf32> to memref<*xf32>
    %334 = llvm.mlir.addressof @constant_167 : !llvm.ptr<array<13 x i8>>
    %335 = llvm.getelementptr %334[0, 0] : (!llvm.ptr<array<13 x i8>>) -> !llvm.ptr<i8>
    call @read_tensor_f32(%335, %cast_335) : (!llvm.ptr<i8>, memref<*xf32>) -> ()
    %alloc_336 = memref.alloc() {alignment = 16 : i64} : memref<1024xf32>
    %cast_337 = memref.cast %alloc_336 : memref<1024xf32> to memref<*xf32>
    %336 = llvm.mlir.addressof @constant_168 : !llvm.ptr<array<13 x i8>>
    %337 = llvm.getelementptr %336[0, 0] : (!llvm.ptr<array<13 x i8>>) -> !llvm.ptr<i8>
    call @read_tensor_f32(%337, %cast_337) : (!llvm.ptr<i8>, memref<*xf32>) -> ()
    %alloc_338 = memref.alloc() {alignment = 16 : i64} : memref<1024xf32>
    %cast_339 = memref.cast %alloc_338 : memref<1024xf32> to memref<*xf32>
    %338 = llvm.mlir.addressof @constant_169 : !llvm.ptr<array<13 x i8>>
    %339 = llvm.getelementptr %338[0, 0] : (!llvm.ptr<array<13 x i8>>) -> !llvm.ptr<i8>
    call @read_tensor_f32(%339, %cast_339) : (!llvm.ptr<i8>, memref<*xf32>) -> ()
    %alloc_340 = memref.alloc() {alignment = 16 : i64} : memref<1024xf32>
    %cast_341 = memref.cast %alloc_340 : memref<1024xf32> to memref<*xf32>
    %340 = llvm.mlir.addressof @constant_170 : !llvm.ptr<array<13 x i8>>
    %341 = llvm.getelementptr %340[0, 0] : (!llvm.ptr<array<13 x i8>>) -> !llvm.ptr<i8>
    call @read_tensor_f32(%341, %cast_341) : (!llvm.ptr<i8>, memref<*xf32>) -> ()
    %alloc_342 = memref.alloc() {alignment = 16 : i64} : memref<1024x3072xf32>
    %cast_343 = memref.cast %alloc_342 : memref<1024x3072xf32> to memref<*xf32>
    %342 = llvm.mlir.addressof @constant_171 : !llvm.ptr<array<13 x i8>>
    %343 = llvm.getelementptr %342[0, 0] : (!llvm.ptr<array<13 x i8>>) -> !llvm.ptr<i8>
    call @read_tensor_f32(%343, %cast_343) : (!llvm.ptr<i8>, memref<*xf32>) -> ()
    %alloc_344 = memref.alloc() {alignment = 16 : i64} : memref<3072xf32>
    %cast_345 = memref.cast %alloc_344 : memref<3072xf32> to memref<*xf32>
    %344 = llvm.mlir.addressof @constant_172 : !llvm.ptr<array<13 x i8>>
    %345 = llvm.getelementptr %344[0, 0] : (!llvm.ptr<array<13 x i8>>) -> !llvm.ptr<i8>
    call @read_tensor_f32(%345, %cast_345) : (!llvm.ptr<i8>, memref<*xf32>) -> ()
    %alloc_346 = memref.alloc() {alignment = 16 : i64} : memref<1024x1024xf32>
    %cast_347 = memref.cast %alloc_346 : memref<1024x1024xf32> to memref<*xf32>
    %346 = llvm.mlir.addressof @constant_173 : !llvm.ptr<array<13 x i8>>
    %347 = llvm.getelementptr %346[0, 0] : (!llvm.ptr<array<13 x i8>>) -> !llvm.ptr<i8>
    call @read_tensor_f32(%347, %cast_347) : (!llvm.ptr<i8>, memref<*xf32>) -> ()
    %alloc_348 = memref.alloc() {alignment = 16 : i64} : memref<1024xf32>
    %cast_349 = memref.cast %alloc_348 : memref<1024xf32> to memref<*xf32>
    %348 = llvm.mlir.addressof @constant_174 : !llvm.ptr<array<13 x i8>>
    %349 = llvm.getelementptr %348[0, 0] : (!llvm.ptr<array<13 x i8>>) -> !llvm.ptr<i8>
    call @read_tensor_f32(%349, %cast_349) : (!llvm.ptr<i8>, memref<*xf32>) -> ()
    %alloc_350 = memref.alloc() {alignment = 16 : i64} : memref<1024xf32>
    %cast_351 = memref.cast %alloc_350 : memref<1024xf32> to memref<*xf32>
    %350 = llvm.mlir.addressof @constant_175 : !llvm.ptr<array<13 x i8>>
    %351 = llvm.getelementptr %350[0, 0] : (!llvm.ptr<array<13 x i8>>) -> !llvm.ptr<i8>
    call @read_tensor_f32(%351, %cast_351) : (!llvm.ptr<i8>, memref<*xf32>) -> ()
    %alloc_352 = memref.alloc() {alignment = 16 : i64} : memref<1024xf32>
    %cast_353 = memref.cast %alloc_352 : memref<1024xf32> to memref<*xf32>
    %352 = llvm.mlir.addressof @constant_176 : !llvm.ptr<array<13 x i8>>
    %353 = llvm.getelementptr %352[0, 0] : (!llvm.ptr<array<13 x i8>>) -> !llvm.ptr<i8>
    call @read_tensor_f32(%353, %cast_353) : (!llvm.ptr<i8>, memref<*xf32>) -> ()
    %alloc_354 = memref.alloc() {alignment = 16 : i64} : memref<1024x4096xf32>
    %cast_355 = memref.cast %alloc_354 : memref<1024x4096xf32> to memref<*xf32>
    %354 = llvm.mlir.addressof @constant_177 : !llvm.ptr<array<13 x i8>>
    %355 = llvm.getelementptr %354[0, 0] : (!llvm.ptr<array<13 x i8>>) -> !llvm.ptr<i8>
    call @read_tensor_f32(%355, %cast_355) : (!llvm.ptr<i8>, memref<*xf32>) -> ()
    %alloc_356 = memref.alloc() {alignment = 16 : i64} : memref<4096xf32>
    %cast_357 = memref.cast %alloc_356 : memref<4096xf32> to memref<*xf32>
    %356 = llvm.mlir.addressof @constant_178 : !llvm.ptr<array<13 x i8>>
    %357 = llvm.getelementptr %356[0, 0] : (!llvm.ptr<array<13 x i8>>) -> !llvm.ptr<i8>
    call @read_tensor_f32(%357, %cast_357) : (!llvm.ptr<i8>, memref<*xf32>) -> ()
    %alloc_358 = memref.alloc() {alignment = 16 : i64} : memref<4096x1024xf32>
    %cast_359 = memref.cast %alloc_358 : memref<4096x1024xf32> to memref<*xf32>
    %358 = llvm.mlir.addressof @constant_179 : !llvm.ptr<array<13 x i8>>
    %359 = llvm.getelementptr %358[0, 0] : (!llvm.ptr<array<13 x i8>>) -> !llvm.ptr<i8>
    call @read_tensor_f32(%359, %cast_359) : (!llvm.ptr<i8>, memref<*xf32>) -> ()
    %alloc_360 = memref.alloc() {alignment = 16 : i64} : memref<1024xf32>
    %cast_361 = memref.cast %alloc_360 : memref<1024xf32> to memref<*xf32>
    %360 = llvm.mlir.addressof @constant_180 : !llvm.ptr<array<13 x i8>>
    %361 = llvm.getelementptr %360[0, 0] : (!llvm.ptr<array<13 x i8>>) -> !llvm.ptr<i8>
    call @read_tensor_f32(%361, %cast_361) : (!llvm.ptr<i8>, memref<*xf32>) -> ()
    %alloc_362 = memref.alloc() {alignment = 16 : i64} : memref<1024xf32>
    %cast_363 = memref.cast %alloc_362 : memref<1024xf32> to memref<*xf32>
    %362 = llvm.mlir.addressof @constant_181 : !llvm.ptr<array<13 x i8>>
    %363 = llvm.getelementptr %362[0, 0] : (!llvm.ptr<array<13 x i8>>) -> !llvm.ptr<i8>
    call @read_tensor_f32(%363, %cast_363) : (!llvm.ptr<i8>, memref<*xf32>) -> ()
    %alloc_364 = memref.alloc() {alignment = 16 : i64} : memref<1024xf32>
    %cast_365 = memref.cast %alloc_364 : memref<1024xf32> to memref<*xf32>
    %364 = llvm.mlir.addressof @constant_182 : !llvm.ptr<array<13 x i8>>
    %365 = llvm.getelementptr %364[0, 0] : (!llvm.ptr<array<13 x i8>>) -> !llvm.ptr<i8>
    call @read_tensor_f32(%365, %cast_365) : (!llvm.ptr<i8>, memref<*xf32>) -> ()
    %alloc_366 = memref.alloc() {alignment = 16 : i64} : memref<1024x3072xf32>
    %cast_367 = memref.cast %alloc_366 : memref<1024x3072xf32> to memref<*xf32>
    %366 = llvm.mlir.addressof @constant_183 : !llvm.ptr<array<13 x i8>>
    %367 = llvm.getelementptr %366[0, 0] : (!llvm.ptr<array<13 x i8>>) -> !llvm.ptr<i8>
    call @read_tensor_f32(%367, %cast_367) : (!llvm.ptr<i8>, memref<*xf32>) -> ()
    %alloc_368 = memref.alloc() {alignment = 16 : i64} : memref<3072xf32>
    %cast_369 = memref.cast %alloc_368 : memref<3072xf32> to memref<*xf32>
    %368 = llvm.mlir.addressof @constant_184 : !llvm.ptr<array<13 x i8>>
    %369 = llvm.getelementptr %368[0, 0] : (!llvm.ptr<array<13 x i8>>) -> !llvm.ptr<i8>
    call @read_tensor_f32(%369, %cast_369) : (!llvm.ptr<i8>, memref<*xf32>) -> ()
    %alloc_370 = memref.alloc() {alignment = 16 : i64} : memref<1024x1024xf32>
    %cast_371 = memref.cast %alloc_370 : memref<1024x1024xf32> to memref<*xf32>
    %370 = llvm.mlir.addressof @constant_185 : !llvm.ptr<array<13 x i8>>
    %371 = llvm.getelementptr %370[0, 0] : (!llvm.ptr<array<13 x i8>>) -> !llvm.ptr<i8>
    call @read_tensor_f32(%371, %cast_371) : (!llvm.ptr<i8>, memref<*xf32>) -> ()
    %alloc_372 = memref.alloc() {alignment = 16 : i64} : memref<1024xf32>
    %cast_373 = memref.cast %alloc_372 : memref<1024xf32> to memref<*xf32>
    %372 = llvm.mlir.addressof @constant_186 : !llvm.ptr<array<13 x i8>>
    %373 = llvm.getelementptr %372[0, 0] : (!llvm.ptr<array<13 x i8>>) -> !llvm.ptr<i8>
    call @read_tensor_f32(%373, %cast_373) : (!llvm.ptr<i8>, memref<*xf32>) -> ()
    %alloc_374 = memref.alloc() {alignment = 16 : i64} : memref<1024xf32>
    %cast_375 = memref.cast %alloc_374 : memref<1024xf32> to memref<*xf32>
    %374 = llvm.mlir.addressof @constant_187 : !llvm.ptr<array<13 x i8>>
    %375 = llvm.getelementptr %374[0, 0] : (!llvm.ptr<array<13 x i8>>) -> !llvm.ptr<i8>
    call @read_tensor_f32(%375, %cast_375) : (!llvm.ptr<i8>, memref<*xf32>) -> ()
    %alloc_376 = memref.alloc() {alignment = 16 : i64} : memref<1024xf32>
    %cast_377 = memref.cast %alloc_376 : memref<1024xf32> to memref<*xf32>
    %376 = llvm.mlir.addressof @constant_188 : !llvm.ptr<array<13 x i8>>
    %377 = llvm.getelementptr %376[0, 0] : (!llvm.ptr<array<13 x i8>>) -> !llvm.ptr<i8>
    call @read_tensor_f32(%377, %cast_377) : (!llvm.ptr<i8>, memref<*xf32>) -> ()
    %alloc_378 = memref.alloc() {alignment = 16 : i64} : memref<1024x4096xf32>
    %cast_379 = memref.cast %alloc_378 : memref<1024x4096xf32> to memref<*xf32>
    %378 = llvm.mlir.addressof @constant_189 : !llvm.ptr<array<13 x i8>>
    %379 = llvm.getelementptr %378[0, 0] : (!llvm.ptr<array<13 x i8>>) -> !llvm.ptr<i8>
    call @read_tensor_f32(%379, %cast_379) : (!llvm.ptr<i8>, memref<*xf32>) -> ()
    %alloc_380 = memref.alloc() {alignment = 16 : i64} : memref<4096xf32>
    %cast_381 = memref.cast %alloc_380 : memref<4096xf32> to memref<*xf32>
    %380 = llvm.mlir.addressof @constant_190 : !llvm.ptr<array<13 x i8>>
    %381 = llvm.getelementptr %380[0, 0] : (!llvm.ptr<array<13 x i8>>) -> !llvm.ptr<i8>
    call @read_tensor_f32(%381, %cast_381) : (!llvm.ptr<i8>, memref<*xf32>) -> ()
    %alloc_382 = memref.alloc() {alignment = 16 : i64} : memref<4096x1024xf32>
    %cast_383 = memref.cast %alloc_382 : memref<4096x1024xf32> to memref<*xf32>
    %382 = llvm.mlir.addressof @constant_191 : !llvm.ptr<array<13 x i8>>
    %383 = llvm.getelementptr %382[0, 0] : (!llvm.ptr<array<13 x i8>>) -> !llvm.ptr<i8>
    call @read_tensor_f32(%383, %cast_383) : (!llvm.ptr<i8>, memref<*xf32>) -> ()
    %alloc_384 = memref.alloc() {alignment = 16 : i64} : memref<1024xf32>
    %cast_385 = memref.cast %alloc_384 : memref<1024xf32> to memref<*xf32>
    %384 = llvm.mlir.addressof @constant_192 : !llvm.ptr<array<13 x i8>>
    %385 = llvm.getelementptr %384[0, 0] : (!llvm.ptr<array<13 x i8>>) -> !llvm.ptr<i8>
    call @read_tensor_f32(%385, %cast_385) : (!llvm.ptr<i8>, memref<*xf32>) -> ()
    %alloc_386 = memref.alloc() {alignment = 16 : i64} : memref<1024xf32>
    %cast_387 = memref.cast %alloc_386 : memref<1024xf32> to memref<*xf32>
    %386 = llvm.mlir.addressof @constant_193 : !llvm.ptr<array<13 x i8>>
    %387 = llvm.getelementptr %386[0, 0] : (!llvm.ptr<array<13 x i8>>) -> !llvm.ptr<i8>
    call @read_tensor_f32(%387, %cast_387) : (!llvm.ptr<i8>, memref<*xf32>) -> ()
    %alloc_388 = memref.alloc() {alignment = 16 : i64} : memref<1024xf32>
    %cast_389 = memref.cast %alloc_388 : memref<1024xf32> to memref<*xf32>
    %388 = llvm.mlir.addressof @constant_194 : !llvm.ptr<array<13 x i8>>
    %389 = llvm.getelementptr %388[0, 0] : (!llvm.ptr<array<13 x i8>>) -> !llvm.ptr<i8>
    call @read_tensor_f32(%389, %cast_389) : (!llvm.ptr<i8>, memref<*xf32>) -> ()
    %alloc_390 = memref.alloc() {alignment = 16 : i64} : memref<1024x3072xf32>
    %cast_391 = memref.cast %alloc_390 : memref<1024x3072xf32> to memref<*xf32>
    %390 = llvm.mlir.addressof @constant_195 : !llvm.ptr<array<13 x i8>>
    %391 = llvm.getelementptr %390[0, 0] : (!llvm.ptr<array<13 x i8>>) -> !llvm.ptr<i8>
    call @read_tensor_f32(%391, %cast_391) : (!llvm.ptr<i8>, memref<*xf32>) -> ()
    %alloc_392 = memref.alloc() {alignment = 16 : i64} : memref<3072xf32>
    %cast_393 = memref.cast %alloc_392 : memref<3072xf32> to memref<*xf32>
    %392 = llvm.mlir.addressof @constant_196 : !llvm.ptr<array<13 x i8>>
    %393 = llvm.getelementptr %392[0, 0] : (!llvm.ptr<array<13 x i8>>) -> !llvm.ptr<i8>
    call @read_tensor_f32(%393, %cast_393) : (!llvm.ptr<i8>, memref<*xf32>) -> ()
    %alloc_394 = memref.alloc() {alignment = 16 : i64} : memref<1024x1024xf32>
    %cast_395 = memref.cast %alloc_394 : memref<1024x1024xf32> to memref<*xf32>
    %394 = llvm.mlir.addressof @constant_197 : !llvm.ptr<array<13 x i8>>
    %395 = llvm.getelementptr %394[0, 0] : (!llvm.ptr<array<13 x i8>>) -> !llvm.ptr<i8>
    call @read_tensor_f32(%395, %cast_395) : (!llvm.ptr<i8>, memref<*xf32>) -> ()
    %alloc_396 = memref.alloc() {alignment = 16 : i64} : memref<1024xf32>
    %cast_397 = memref.cast %alloc_396 : memref<1024xf32> to memref<*xf32>
    %396 = llvm.mlir.addressof @constant_198 : !llvm.ptr<array<13 x i8>>
    %397 = llvm.getelementptr %396[0, 0] : (!llvm.ptr<array<13 x i8>>) -> !llvm.ptr<i8>
    call @read_tensor_f32(%397, %cast_397) : (!llvm.ptr<i8>, memref<*xf32>) -> ()
    %alloc_398 = memref.alloc() {alignment = 16 : i64} : memref<1024xf32>
    %cast_399 = memref.cast %alloc_398 : memref<1024xf32> to memref<*xf32>
    %398 = llvm.mlir.addressof @constant_199 : !llvm.ptr<array<13 x i8>>
    %399 = llvm.getelementptr %398[0, 0] : (!llvm.ptr<array<13 x i8>>) -> !llvm.ptr<i8>
    call @read_tensor_f32(%399, %cast_399) : (!llvm.ptr<i8>, memref<*xf32>) -> ()
    %alloc_400 = memref.alloc() {alignment = 16 : i64} : memref<1024xf32>
    %cast_401 = memref.cast %alloc_400 : memref<1024xf32> to memref<*xf32>
    %400 = llvm.mlir.addressof @constant_200 : !llvm.ptr<array<13 x i8>>
    %401 = llvm.getelementptr %400[0, 0] : (!llvm.ptr<array<13 x i8>>) -> !llvm.ptr<i8>
    call @read_tensor_f32(%401, %cast_401) : (!llvm.ptr<i8>, memref<*xf32>) -> ()
    %alloc_402 = memref.alloc() {alignment = 16 : i64} : memref<1024x4096xf32>
    %cast_403 = memref.cast %alloc_402 : memref<1024x4096xf32> to memref<*xf32>
    %402 = llvm.mlir.addressof @constant_201 : !llvm.ptr<array<13 x i8>>
    %403 = llvm.getelementptr %402[0, 0] : (!llvm.ptr<array<13 x i8>>) -> !llvm.ptr<i8>
    call @read_tensor_f32(%403, %cast_403) : (!llvm.ptr<i8>, memref<*xf32>) -> ()
    %alloc_404 = memref.alloc() {alignment = 16 : i64} : memref<4096xf32>
    %cast_405 = memref.cast %alloc_404 : memref<4096xf32> to memref<*xf32>
    %404 = llvm.mlir.addressof @constant_202 : !llvm.ptr<array<13 x i8>>
    %405 = llvm.getelementptr %404[0, 0] : (!llvm.ptr<array<13 x i8>>) -> !llvm.ptr<i8>
    call @read_tensor_f32(%405, %cast_405) : (!llvm.ptr<i8>, memref<*xf32>) -> ()
    %alloc_406 = memref.alloc() {alignment = 16 : i64} : memref<4096x1024xf32>
    %cast_407 = memref.cast %alloc_406 : memref<4096x1024xf32> to memref<*xf32>
    %406 = llvm.mlir.addressof @constant_203 : !llvm.ptr<array<13 x i8>>
    %407 = llvm.getelementptr %406[0, 0] : (!llvm.ptr<array<13 x i8>>) -> !llvm.ptr<i8>
    call @read_tensor_f32(%407, %cast_407) : (!llvm.ptr<i8>, memref<*xf32>) -> ()
    %alloc_408 = memref.alloc() {alignment = 16 : i64} : memref<1024xf32>
    %cast_409 = memref.cast %alloc_408 : memref<1024xf32> to memref<*xf32>
    %408 = llvm.mlir.addressof @constant_204 : !llvm.ptr<array<13 x i8>>
    %409 = llvm.getelementptr %408[0, 0] : (!llvm.ptr<array<13 x i8>>) -> !llvm.ptr<i8>
    call @read_tensor_f32(%409, %cast_409) : (!llvm.ptr<i8>, memref<*xf32>) -> ()
    %alloc_410 = memref.alloc() {alignment = 16 : i64} : memref<1024xf32>
    %cast_411 = memref.cast %alloc_410 : memref<1024xf32> to memref<*xf32>
    %410 = llvm.mlir.addressof @constant_205 : !llvm.ptr<array<13 x i8>>
    %411 = llvm.getelementptr %410[0, 0] : (!llvm.ptr<array<13 x i8>>) -> !llvm.ptr<i8>
    call @read_tensor_f32(%411, %cast_411) : (!llvm.ptr<i8>, memref<*xf32>) -> ()
    %alloc_412 = memref.alloc() {alignment = 16 : i64} : memref<1024xf32>
    %cast_413 = memref.cast %alloc_412 : memref<1024xf32> to memref<*xf32>
    %412 = llvm.mlir.addressof @constant_206 : !llvm.ptr<array<13 x i8>>
    %413 = llvm.getelementptr %412[0, 0] : (!llvm.ptr<array<13 x i8>>) -> !llvm.ptr<i8>
    call @read_tensor_f32(%413, %cast_413) : (!llvm.ptr<i8>, memref<*xf32>) -> ()
    %alloc_414 = memref.alloc() {alignment = 16 : i64} : memref<1024x3072xf32>
    %cast_415 = memref.cast %alloc_414 : memref<1024x3072xf32> to memref<*xf32>
    %414 = llvm.mlir.addressof @constant_207 : !llvm.ptr<array<13 x i8>>
    %415 = llvm.getelementptr %414[0, 0] : (!llvm.ptr<array<13 x i8>>) -> !llvm.ptr<i8>
    call @read_tensor_f32(%415, %cast_415) : (!llvm.ptr<i8>, memref<*xf32>) -> ()
    %alloc_416 = memref.alloc() {alignment = 16 : i64} : memref<3072xf32>
    %cast_417 = memref.cast %alloc_416 : memref<3072xf32> to memref<*xf32>
    %416 = llvm.mlir.addressof @constant_208 : !llvm.ptr<array<13 x i8>>
    %417 = llvm.getelementptr %416[0, 0] : (!llvm.ptr<array<13 x i8>>) -> !llvm.ptr<i8>
    call @read_tensor_f32(%417, %cast_417) : (!llvm.ptr<i8>, memref<*xf32>) -> ()
    %alloc_418 = memref.alloc() {alignment = 16 : i64} : memref<1024x1024xf32>
    %cast_419 = memref.cast %alloc_418 : memref<1024x1024xf32> to memref<*xf32>
    %418 = llvm.mlir.addressof @constant_209 : !llvm.ptr<array<13 x i8>>
    %419 = llvm.getelementptr %418[0, 0] : (!llvm.ptr<array<13 x i8>>) -> !llvm.ptr<i8>
    call @read_tensor_f32(%419, %cast_419) : (!llvm.ptr<i8>, memref<*xf32>) -> ()
    %alloc_420 = memref.alloc() {alignment = 16 : i64} : memref<1024xf32>
    %cast_421 = memref.cast %alloc_420 : memref<1024xf32> to memref<*xf32>
    %420 = llvm.mlir.addressof @constant_210 : !llvm.ptr<array<13 x i8>>
    %421 = llvm.getelementptr %420[0, 0] : (!llvm.ptr<array<13 x i8>>) -> !llvm.ptr<i8>
    call @read_tensor_f32(%421, %cast_421) : (!llvm.ptr<i8>, memref<*xf32>) -> ()
    %alloc_422 = memref.alloc() {alignment = 16 : i64} : memref<1024xf32>
    %cast_423 = memref.cast %alloc_422 : memref<1024xf32> to memref<*xf32>
    %422 = llvm.mlir.addressof @constant_211 : !llvm.ptr<array<13 x i8>>
    %423 = llvm.getelementptr %422[0, 0] : (!llvm.ptr<array<13 x i8>>) -> !llvm.ptr<i8>
    call @read_tensor_f32(%423, %cast_423) : (!llvm.ptr<i8>, memref<*xf32>) -> ()
    %alloc_424 = memref.alloc() {alignment = 16 : i64} : memref<1024xf32>
    %cast_425 = memref.cast %alloc_424 : memref<1024xf32> to memref<*xf32>
    %424 = llvm.mlir.addressof @constant_212 : !llvm.ptr<array<13 x i8>>
    %425 = llvm.getelementptr %424[0, 0] : (!llvm.ptr<array<13 x i8>>) -> !llvm.ptr<i8>
    call @read_tensor_f32(%425, %cast_425) : (!llvm.ptr<i8>, memref<*xf32>) -> ()
    %alloc_426 = memref.alloc() {alignment = 16 : i64} : memref<1024x4096xf32>
    %cast_427 = memref.cast %alloc_426 : memref<1024x4096xf32> to memref<*xf32>
    %426 = llvm.mlir.addressof @constant_213 : !llvm.ptr<array<13 x i8>>
    %427 = llvm.getelementptr %426[0, 0] : (!llvm.ptr<array<13 x i8>>) -> !llvm.ptr<i8>
    call @read_tensor_f32(%427, %cast_427) : (!llvm.ptr<i8>, memref<*xf32>) -> ()
    %alloc_428 = memref.alloc() {alignment = 16 : i64} : memref<4096xf32>
    %cast_429 = memref.cast %alloc_428 : memref<4096xf32> to memref<*xf32>
    %428 = llvm.mlir.addressof @constant_214 : !llvm.ptr<array<13 x i8>>
    %429 = llvm.getelementptr %428[0, 0] : (!llvm.ptr<array<13 x i8>>) -> !llvm.ptr<i8>
    call @read_tensor_f32(%429, %cast_429) : (!llvm.ptr<i8>, memref<*xf32>) -> ()
    %alloc_430 = memref.alloc() {alignment = 16 : i64} : memref<4096x1024xf32>
    %cast_431 = memref.cast %alloc_430 : memref<4096x1024xf32> to memref<*xf32>
    %430 = llvm.mlir.addressof @constant_215 : !llvm.ptr<array<13 x i8>>
    %431 = llvm.getelementptr %430[0, 0] : (!llvm.ptr<array<13 x i8>>) -> !llvm.ptr<i8>
    call @read_tensor_f32(%431, %cast_431) : (!llvm.ptr<i8>, memref<*xf32>) -> ()
    %alloc_432 = memref.alloc() {alignment = 16 : i64} : memref<1024xf32>
    %cast_433 = memref.cast %alloc_432 : memref<1024xf32> to memref<*xf32>
    %432 = llvm.mlir.addressof @constant_216 : !llvm.ptr<array<13 x i8>>
    %433 = llvm.getelementptr %432[0, 0] : (!llvm.ptr<array<13 x i8>>) -> !llvm.ptr<i8>
    call @read_tensor_f32(%433, %cast_433) : (!llvm.ptr<i8>, memref<*xf32>) -> ()
    %alloc_434 = memref.alloc() {alignment = 16 : i64} : memref<1024xf32>
    %cast_435 = memref.cast %alloc_434 : memref<1024xf32> to memref<*xf32>
    %434 = llvm.mlir.addressof @constant_217 : !llvm.ptr<array<13 x i8>>
    %435 = llvm.getelementptr %434[0, 0] : (!llvm.ptr<array<13 x i8>>) -> !llvm.ptr<i8>
    call @read_tensor_f32(%435, %cast_435) : (!llvm.ptr<i8>, memref<*xf32>) -> ()
    %alloc_436 = memref.alloc() {alignment = 16 : i64} : memref<1024xf32>
    %cast_437 = memref.cast %alloc_436 : memref<1024xf32> to memref<*xf32>
    %436 = llvm.mlir.addressof @constant_218 : !llvm.ptr<array<13 x i8>>
    %437 = llvm.getelementptr %436[0, 0] : (!llvm.ptr<array<13 x i8>>) -> !llvm.ptr<i8>
    call @read_tensor_f32(%437, %cast_437) : (!llvm.ptr<i8>, memref<*xf32>) -> ()
    %alloc_438 = memref.alloc() {alignment = 16 : i64} : memref<1024x3072xf32>
    %cast_439 = memref.cast %alloc_438 : memref<1024x3072xf32> to memref<*xf32>
    %438 = llvm.mlir.addressof @constant_219 : !llvm.ptr<array<13 x i8>>
    %439 = llvm.getelementptr %438[0, 0] : (!llvm.ptr<array<13 x i8>>) -> !llvm.ptr<i8>
    call @read_tensor_f32(%439, %cast_439) : (!llvm.ptr<i8>, memref<*xf32>) -> ()
    %alloc_440 = memref.alloc() {alignment = 16 : i64} : memref<3072xf32>
    %cast_441 = memref.cast %alloc_440 : memref<3072xf32> to memref<*xf32>
    %440 = llvm.mlir.addressof @constant_220 : !llvm.ptr<array<13 x i8>>
    %441 = llvm.getelementptr %440[0, 0] : (!llvm.ptr<array<13 x i8>>) -> !llvm.ptr<i8>
    call @read_tensor_f32(%441, %cast_441) : (!llvm.ptr<i8>, memref<*xf32>) -> ()
    %alloc_442 = memref.alloc() {alignment = 16 : i64} : memref<1024x1024xf32>
    %cast_443 = memref.cast %alloc_442 : memref<1024x1024xf32> to memref<*xf32>
    %442 = llvm.mlir.addressof @constant_221 : !llvm.ptr<array<13 x i8>>
    %443 = llvm.getelementptr %442[0, 0] : (!llvm.ptr<array<13 x i8>>) -> !llvm.ptr<i8>
    call @read_tensor_f32(%443, %cast_443) : (!llvm.ptr<i8>, memref<*xf32>) -> ()
    %alloc_444 = memref.alloc() {alignment = 16 : i64} : memref<1024xf32>
    %cast_445 = memref.cast %alloc_444 : memref<1024xf32> to memref<*xf32>
    %444 = llvm.mlir.addressof @constant_222 : !llvm.ptr<array<13 x i8>>
    %445 = llvm.getelementptr %444[0, 0] : (!llvm.ptr<array<13 x i8>>) -> !llvm.ptr<i8>
    call @read_tensor_f32(%445, %cast_445) : (!llvm.ptr<i8>, memref<*xf32>) -> ()
    %alloc_446 = memref.alloc() {alignment = 16 : i64} : memref<1024xf32>
    %cast_447 = memref.cast %alloc_446 : memref<1024xf32> to memref<*xf32>
    %446 = llvm.mlir.addressof @constant_223 : !llvm.ptr<array<13 x i8>>
    %447 = llvm.getelementptr %446[0, 0] : (!llvm.ptr<array<13 x i8>>) -> !llvm.ptr<i8>
    call @read_tensor_f32(%447, %cast_447) : (!llvm.ptr<i8>, memref<*xf32>) -> ()
    %alloc_448 = memref.alloc() {alignment = 16 : i64} : memref<1024xf32>
    %cast_449 = memref.cast %alloc_448 : memref<1024xf32> to memref<*xf32>
    %448 = llvm.mlir.addressof @constant_224 : !llvm.ptr<array<13 x i8>>
    %449 = llvm.getelementptr %448[0, 0] : (!llvm.ptr<array<13 x i8>>) -> !llvm.ptr<i8>
    call @read_tensor_f32(%449, %cast_449) : (!llvm.ptr<i8>, memref<*xf32>) -> ()
    %alloc_450 = memref.alloc() {alignment = 16 : i64} : memref<1024x4096xf32>
    %cast_451 = memref.cast %alloc_450 : memref<1024x4096xf32> to memref<*xf32>
    %450 = llvm.mlir.addressof @constant_225 : !llvm.ptr<array<13 x i8>>
    %451 = llvm.getelementptr %450[0, 0] : (!llvm.ptr<array<13 x i8>>) -> !llvm.ptr<i8>
    call @read_tensor_f32(%451, %cast_451) : (!llvm.ptr<i8>, memref<*xf32>) -> ()
    %alloc_452 = memref.alloc() {alignment = 16 : i64} : memref<4096xf32>
    %cast_453 = memref.cast %alloc_452 : memref<4096xf32> to memref<*xf32>
    %452 = llvm.mlir.addressof @constant_226 : !llvm.ptr<array<13 x i8>>
    %453 = llvm.getelementptr %452[0, 0] : (!llvm.ptr<array<13 x i8>>) -> !llvm.ptr<i8>
    call @read_tensor_f32(%453, %cast_453) : (!llvm.ptr<i8>, memref<*xf32>) -> ()
    %alloc_454 = memref.alloc() {alignment = 16 : i64} : memref<4096x1024xf32>
    %cast_455 = memref.cast %alloc_454 : memref<4096x1024xf32> to memref<*xf32>
    %454 = llvm.mlir.addressof @constant_227 : !llvm.ptr<array<13 x i8>>
    %455 = llvm.getelementptr %454[0, 0] : (!llvm.ptr<array<13 x i8>>) -> !llvm.ptr<i8>
    call @read_tensor_f32(%455, %cast_455) : (!llvm.ptr<i8>, memref<*xf32>) -> ()
    %alloc_456 = memref.alloc() {alignment = 16 : i64} : memref<1024xf32>
    %cast_457 = memref.cast %alloc_456 : memref<1024xf32> to memref<*xf32>
    %456 = llvm.mlir.addressof @constant_228 : !llvm.ptr<array<13 x i8>>
    %457 = llvm.getelementptr %456[0, 0] : (!llvm.ptr<array<13 x i8>>) -> !llvm.ptr<i8>
    call @read_tensor_f32(%457, %cast_457) : (!llvm.ptr<i8>, memref<*xf32>) -> ()
    %alloc_458 = memref.alloc() {alignment = 16 : i64} : memref<1024xf32>
    %cast_459 = memref.cast %alloc_458 : memref<1024xf32> to memref<*xf32>
…
        %1312 = affine.load %alloc_2773[%arg49, %arg50] : memref<64x1024xf32>
        %1313 = affine.load %alloc_564[%arg50] : memref<1024xf32>
        %1314 = arith.addf %1312, %1313 : f32
        affine.store %1314, %alloc_2773[%arg49, %arg50] : memref<64x1024xf32>
      }
    }
    %reinterpret_cast_2776 = memref.reinterpret_cast %alloc_2773 to offset: [0], sizes: [64, 1, 1024], strides: [1024, 1024, 1] : memref<64x1024xf32> to memref<64x1x1024xf32>
    %alloc_2777 = memref.alloc() {alignment = 16 : i64} : memref<64x1x1024xf32>
    affine.for %arg49 = 0 to 64 {
      affine.for %arg50 = 0 to 1 {
        affine.for %arg51 = 0 to 1024 {
          %1312 = affine.load %reinterpret_cast_2776[%arg49, %arg50, %arg51] : memref<64x1x1024xf32>
          %1313 = affine.load %alloc_2727[%arg49, %arg50, %arg51] : memref<64x1x1024xf32>
          %1314 = arith.addf %1312, %1313 : f32
          affine.store %1314, %alloc_2777[%arg49, %arg50, %arg51] : memref<64x1x1024xf32>
        }
      }
    }
    %alloc_2778 = memref.alloc() {alignment = 16 : i64} : memref<64x1x1024xf32>
    affine.for %arg49 = 0 to 64 {
      affine.for %arg50 = 0 to 1 {
        affine.for %arg51 = 0 to 1024 {
          %1312 = affine.load %alloc_2777[%arg49, %arg50, %arg51] : memref<64x1x1024xf32>
          %1313 = affine.load %alloc_585[0, %arg50, %arg51] : memref<1x1x1024xf32>
          %1314 = arith.addf %1312, %1313 : f32
          affine.store %1314, %alloc_2778[%arg49, %arg50, %arg51] : memref<64x1x1024xf32>
        }
      }
    }
    %alloc_2779 = memref.alloc() {alignment = 16 : i64} : memref<64x1x1xf32>
    affine.for %arg49 = 0 to 64 {
      affine.for %arg50 = 0 to 1 {
        affine.for %arg51 = 0 to 1 {
          affine.store %cst_1, %alloc_2779[%arg49, %arg50, %arg51] : memref<64x1x1xf32>
        }
      }
    }
    affine.for %arg49 = 0 to 64 {
      affine.for %arg50 = 0 to 1 {
        affine.for %arg51 = 0 to 1024 {
          %1312 = affine.load %alloc_2778[%arg49, %arg50, %arg51] : memref<64x1x1024xf32>
          %1313 = affine.load %alloc_2779[%arg49, %arg50, 0] : memref<64x1x1xf32>
          %1314 = arith.addf %1313, %1312 : f32
          affine.store %1314, %alloc_2779[%arg49, %arg50, 0] : memref<64x1x1xf32>
        }
      }
    }
    affine.for %arg49 = 0 to 64 {
      affine.for %arg50 = 0 to 1 {
        affine.for %arg51 = 0 to 1 {
          %1312 = affine.load %alloc_2779[%arg49, %arg50, %arg51] : memref<64x1x1xf32>
          %1313 = arith.divf %1312, %cst : f32
          affine.store %1313, %alloc_2779[%arg49, %arg50, %arg51] : memref<64x1x1xf32>
        }
      }
    }
    %alloc_2780 = memref.alloc() {alignment = 16 : i64} : memref<64x1x1024xf32>
    affine.for %arg49 = 0 to 64 {
      affine.for %arg50 = 0 to 1 {
        affine.for %arg51 = 0 to 1024 {
          %1312 = affine.load %alloc_2778[%arg49, %arg50, %arg51] : memref<64x1x1024xf32>
          %1313 = affine.load %alloc_2779[%arg49, %arg50, 0] : memref<64x1x1xf32>
          %1314 = arith.subf %1312, %1313 : f32
          affine.store %1314, %alloc_2780[%arg49, %arg50, %arg51] : memref<64x1x1024xf32>
        }
      }
    }
    %alloc_2781 = memref.alloc() : memref<f32>
    %cast_2782 = memref.cast %alloc_2781 : memref<f32> to memref<*xf32>
    %1294 = llvm.mlir.addressof @constant_884 : !llvm.ptr<array<13 x i8>>
    %1295 = llvm.getelementptr %1294[0, 0] : (!llvm.ptr<array<13 x i8>>) -> !llvm.ptr<i8>
    call @read_tensor_f32(%1295, %cast_2782) : (!llvm.ptr<i8>, memref<*xf32>) -> ()
    %alloc_2783 = memref.alloc() {alignment = 16 : i64} : memref<64x1x1024xf32>
    affine.for %arg49 = 0 to 64 {
      affine.for %arg50 = 0 to 1 {
        affine.for %arg51 = 0 to 1024 {
          %1312 = affine.load %alloc_2780[%arg49, %arg50, %arg51] : memref<64x1x1024xf32>
          %1313 = affine.load %alloc_2781[] : memref<f32>
          %1314 = math.powf %1312, %1313 : f32
          affine.store %1314, %alloc_2783[%arg49, %arg50, %arg51] : memref<64x1x1024xf32>
        }
      }
    }
    %alloc_2784 = memref.alloc() {alignment = 16 : i64} : memref<64x1x1xf32>
    affine.for %arg49 = 0 to 64 {
      affine.for %arg50 = 0 to 1 {
        affine.for %arg51 = 0 to 1 {
          affine.store %cst_1, %alloc_2784[%arg49, %arg50, %arg51] : memref<64x1x1xf32>
        }
      }
    }
    affine.for %arg49 = 0 to 64 {
      affine.for %arg50 = 0 to 1 {
        affine.for %arg51 = 0 to 1024 {
          %1312 = affine.load %alloc_2783[%arg49, %arg50, %arg51] : memref<64x1x1024xf32>
          %1313 = affine.load %alloc_2784[%arg49, %arg50, 0] : memref<64x1x1xf32>
          %1314 = arith.addf %1313, %1312 : f32
          affine.store %1314, %alloc_2784[%arg49, %arg50, 0] : memref<64x1x1xf32>
        }
      }
    }
    affine.for %arg49 = 0 to 64 {
      affine.for %arg50 = 0 to 1 {
        affine.for %arg51 = 0 to 1 {
          %1312 = affine.load %alloc_2784[%arg49, %arg50, %arg51] : memref<64x1x1xf32>
          %1313 = arith.divf %1312, %cst : f32
          affine.store %1313, %alloc_2784[%arg49, %arg50, %arg51] : memref<64x1x1xf32>
        }
      }
    }
    %alloc_2785 = memref.alloc() : memref<f32>
    %cast_2786 = memref.cast %alloc_2785 : memref<f32> to memref<*xf32>
    %1296 = llvm.mlir.addressof @constant_885 : !llvm.ptr<array<13 x i8>>
    %1297 = llvm.getelementptr %1296[0, 0] : (!llvm.ptr<array<13 x i8>>) -> !llvm.ptr<i8>
    call @read_tensor_f32(%1297, %cast_2786) : (!llvm.ptr<i8>, memref<*xf32>) -> ()
    %alloc_2787 = memref.alloc() {alignment = 16 : i64} : memref<64x1x1xf32>
    affine.for %arg49 = 0 to 64 {
      affine.for %arg50 = 0 to 1 {
        affine.for %arg51 = 0 to 1 {
          %1312 = affine.load %alloc_2784[%arg49, %arg50, %arg51] : memref<64x1x1xf32>
          %1313 = affine.load %alloc_2785[] : memref<f32>
          %1314 = arith.addf %1312, %1313 : f32
          affine.store %1314, %alloc_2787[%arg49, %arg50, %arg51] : memref<64x1x1xf32>
        }
      }
    }
    %alloc_2788 = memref.alloc() {alignment = 16 : i64} : memref<64x1x1xf32>
    affine.for %arg49 = 0 to 64 {
      affine.for %arg50 = 0 to 1 {
        affine.for %arg51 = 0 to 1 {
          %1312 = affine.load %alloc_2787[%arg49, %arg50, %arg51] : memref<64x1x1xf32>
          %1313 = math.sqrt %1312 : f32
          affine.store %1313, %alloc_2788[%arg49, %arg50, %arg51] : memref<64x1x1xf32>
        }
      }
    }
    %alloc_2789 = memref.alloc() {alignment = 16 : i64} : memref<64x1x1024xf32>
    affine.for %arg49 = 0 to 64 {
      affine.for %arg50 = 0 to 1 {
        affine.for %arg51 = 0 to 1024 {
          %1312 = affine.load %alloc_2780[%arg49, %arg50, %arg51] : memref<64x1x1024xf32>
          %1313 = affine.load %alloc_2788[%arg49, %arg50, 0] : memref<64x1x1xf32>
          %1314 = arith.divf %1312, %1313 : f32
          affine.store %1314, %alloc_2789[%arg49, %arg50, %arg51] : memref<64x1x1024xf32>
        }
      }
    }
    %alloc_2790 = memref.alloc() {alignment = 16 : i64} : memref<64x1x1024xf32>
    affine.for %arg49 = 0 to 64 {
      affine.for %arg50 = 0 to 1 {
        affine.for %arg51 = 0 to 1024 {
          %1312 = affine.load %alloc_2789[%arg49, %arg50, %arg51] : memref<64x1x1024xf32>
          %1313 = affine.load %alloc_566[%arg51] : memref<1024xf32>
          %1314 = arith.mulf %1312, %1313 : f32
          affine.store %1314, %alloc_2790[%arg49, %arg50, %arg51] : memref<64x1x1024xf32>
        }
      }
    }
    %alloc_2791 = memref.alloc() {alignment = 16 : i64} : memref<64x1x1024xf32>
    affine.for %arg49 = 0 to 64 {
      affine.for %arg50 = 0 to 1 {
        affine.for %arg51 = 0 to 1024 {
          %1312 = affine.load %alloc_2790[%arg49, %arg50, %arg51] : memref<64x1x1024xf32>
          %1313 = affine.load %alloc_568[%arg51] : memref<1024xf32>
          %1314 = arith.addf %1312, %1313 : f32
          affine.store %1314, %alloc_2791[%arg49, %arg50, %arg51] : memref<64x1x1024xf32>
        }
      }
    }
    %reinterpret_cast_2792 = memref.reinterpret_cast %alloc_2791 to offset: [0], sizes: [64, 1024], strides: [1024, 1] : memref<64x1x1024xf32> to memref<64x1024xf32>
    %alloc_2793 = memref.alloc() {alignment = 128 : i64} : memref<64x4096xf32>
    affine.for %arg49 = 0 to 64 {
      affine.for %arg50 = 0 to 4096 {
        affine.store %cst_1, %alloc_2793[%arg49, %arg50] : memref<64x4096xf32>
      }
    }
    %alloc_2794 = memref.alloc() {alignment = 128 : i64} : memref<32x256xf32>
    %alloc_2795 = memref.alloc() {alignment = 128 : i64} : memref<256x64xf32>
    affine.for %arg49 = 0 to 4096 step 64 {
      affine.for %arg50 = 0 to 1024 step 256 {
        affine.for %arg51 = 0 to 256 {
          affine.for %arg52 = 0 to 64 {
            %1312 = affine.load %alloc_570[%arg50 + %arg51, %arg49 + %arg52] : memref<1024x4096xf32>
            affine.store %1312, %alloc_2795[%arg51, %arg52] : memref<256x64xf32>
          }
        }
        affine.for %arg51 = 0 to 64 step 32 {
          affine.for %arg52 = 0 to 32 {
            affine.for %arg53 = 0 to 256 {
              %1312 = affine.load %reinterpret_cast_2792[%arg51 + %arg52, %arg50 + %arg53] : memref<64x1024xf32>
              affine.store %1312, %alloc_2794[%arg52, %arg53] : memref<32x256xf32>
            }
          }
          affine.for %arg52 = #map(%arg49) to #map1(%arg49) step 16 {
            affine.for %arg53 = #map(%arg51) to #map2(%arg51) step 4 {
              %1312 = affine.apply #map3(%arg51, %arg53)
              %1313 = affine.apply #map3(%arg49, %arg52)
              %alloca = memref.alloca() {alignment = 64 : i64} : memref<4xvector<16xf32>>
              %1314 = vector.load %alloc_2793[%arg53, %arg52] : memref<64x4096xf32>, vector<16xf32>
              affine.store %1314, %alloca[0] : memref<4xvector<16xf32>>
              %1315 = arith.addi %arg53, %c1 : index
              %1316 = vector.load %alloc_2793[%1315, %arg52] : memref<64x4096xf32>, vector<16xf32>
              affine.store %1316, %alloca[1] : memref<4xvector<16xf32>>
              %1317 = arith.addi %arg53, %c2 : index
              %1318 = vector.load %alloc_2793[%1317, %arg52] : memref<64x4096xf32>, vector<16xf32>
              affine.store %1318, %alloca[2] : memref<4xvector<16xf32>>
              %1319 = arith.addi %arg53, %c3 : index
              %1320 = vector.load %alloc_2793[%1319, %arg52] : memref<64x4096xf32>, vector<16xf32>
              affine.store %1320, %alloca[3] : memref<4xvector<16xf32>>
              affine.for %arg54 = 0 to 256 step 4 {
                %1325 = memref.load %alloc_2794[%1312, %arg54] : memref<32x256xf32>
                %1326 = vector.broadcast %1325 : f32 to vector<16xf32>
                %1327 = vector.load %alloc_2795[%arg54, %1313] : memref<256x64xf32>, vector<16xf32>
                %1328 = affine.load %alloca[0] : memref<4xvector<16xf32>>
                %1329 = vector.fma %1326, %1327, %1328 : vector<16xf32>
                affine.store %1329, %alloca[0] : memref<4xvector<16xf32>>
                %1330 = affine.apply #map4(%arg54)
                %1331 = memref.load %alloc_2794[%1312, %1330] : memref<32x256xf32>
                %1332 = vector.broadcast %1331 : f32 to vector<16xf32>
                %1333 = vector.load %alloc_2795[%1330, %1313] : memref<256x64xf32>, vector<16xf32>
                %1334 = affine.load %alloca[0] : memref<4xvector<16xf32>>
                %1335 = vector.fma %1332, %1333, %1334 : vector<16xf32>
                affine.store %1335, %alloca[0] : memref<4xvector<16xf32>>
                %1336 = affine.apply #map5(%arg54)
                %1337 = memref.load %alloc_2794[%1312, %1336] : memref<32x256xf32>
                %1338 = vector.broadcast %1337 : f32 to vector<16xf32>
                %1339 = vector.load %alloc_2795[%1336, %1313] : memref<256x64xf32>, vector<16xf32>
                %1340 = affine.load %alloca[0] : memref<4xvector<16xf32>>
                %1341 = vector.fma %1338, %1339, %1340 : vector<16xf32>
                affine.store %1341, %alloca[0] : memref<4xvector<16xf32>>
                %1342 = affine.apply #map6(%arg54)
                %1343 = memref.load %alloc_2794[%1312, %1342] : memref<32x256xf32>
                %1344 = vector.broadcast %1343 : f32 to vector<16xf32>
                %1345 = vector.load %alloc_2795[%1342, %1313] : memref<256x64xf32>, vector<16xf32>
                %1346 = affine.load %alloca[0] : memref<4xvector<16xf32>>
                %1347 = vector.fma %1344, %1345, %1346 : vector<16xf32>
                affine.store %1347, %alloca[0] : memref<4xvector<16xf32>>
                %1348 = arith.addi %1312, %c1 : index
                %1349 = memref.load %alloc_2794[%1348, %arg54] : memref<32x256xf32>
                %1350 = vector.broadcast %1349 : f32 to vector<16xf32>
                %1351 = vector.load %alloc_2795[%arg54, %1313] : memref<256x64xf32>, vector<16xf32>
                %1352 = affine.load %alloca[1] : memref<4xvector<16xf32>>
                %1353 = vector.fma %1350, %1351, %1352 : vector<16xf32>
                affine.store %1353, %alloca[1] : memref<4xvector<16xf32>>
                %1354 = memref.load %alloc_2794[%1348, %1330] : memref<32x256xf32>
                %1355 = vector.broadcast %1354 : f32 to vector<16xf32>
                %1356 = vector.load %alloc_2795[%1330, %1313] : memref<256x64xf32>, vector<16xf32>
                %1357 = affine.load %alloca[1] : memref<4xvector<16xf32>>
                %1358 = vector.fma %1355, %1356, %1357 : vector<16xf32>
                affine.store %1358, %alloca[1] : memref<4xvector<16xf32>>
                %1359 = memref.load %alloc_2794[%1348, %1336] : memref<32x256xf32>
                %1360 = vector.broadcast %1359 : f32 to vector<16xf32>
                %1361 = vector.load %alloc_2795[%1336, %1313] : memref<256x64xf32>, vector<16xf32>
                %1362 = affine.load %alloca[1] : memref<4xvector<16xf32>>
                %1363 = vector.fma %1360, %1361, %1362 : vector<16xf32>
                affine.store %1363, %alloca[1] : memref<4xvector<16xf32>>
                %1364 = memref.load %alloc_2794[%1348, %1342] : memref<32x256xf32>
                %1365 = vector.broadcast %1364 : f32 to vector<16xf32>
                %1366 = vector.load %alloc_2795[%1342, %1313] : memref<256x64xf32>, vector<16xf32>
                %1367 = affine.load %alloca[1] : memref<4xvector<16xf32>>
                %1368 = vector.fma %1365, %1366, %1367 : vector<16xf32>
                affine.store %1368, %alloca[1] : memref<4xvector<16xf32>>
                %1369 = arith.addi %1312, %c2 : index
                %1370 = memref.load %alloc_2794[%1369, %arg54] : memref<32x256xf32>
                %1371 = vector.broadcast %1370 : f32 to vector<16xf32>
                %1372 = vector.load %alloc_2795[%arg54, %1313] : memref<256x64xf32>, vector<16xf32>
                %1373 = affine.load %alloca[2] : memref<4xvector<16xf32>>
                %1374 = vector.fma %1371, %1372, %1373 : vector<16xf32>
                affine.store %1374, %alloca[2] : memref<4xvector<16xf32>>
                %1375 = memref.load %alloc_2794[%1369, %1330] : memref<32x256xf32>
                %1376 = vector.broadcast %1375 : f32 to vector<16xf32>
                %1377 = vector.load %alloc_2795[%1330, %1313] : memref<256x64xf32>, vector<16xf32>
                %1378 = affine.load %alloca[2] : memref<4xvector<16xf32>>
                %1379 = vector.fma %1376, %1377, %1378 : vector<16xf32>
                affine.store %1379, %alloca[2] : memref<4xvector<16xf32>>
                %1380 = memref.load %alloc_2794[%1369, %1336] : memref<32x256xf32>
                %1381 = vector.broadcast %1380 : f32 to vector<16xf32>
                %1382 = vector.load %alloc_2795[%1336, %1313] : memref<256x64xf32>, vector<16xf32>
                %1383 = affine.load %alloca[2] : memref<4xvector<16xf32>>
                %1384 = vector.fma %1381, %1382, %1383 : vector<16xf32>
                affine.store %1384, %alloca[2] : memref<4xvector<16xf32>>
                %1385 = memref.load %alloc_2794[%1369, %1342] : memref<32x256xf32>
                %1386 = vector.broadcast %1385 : f32 to vector<16xf32>
                %1387 = vector.load %alloc_2795[%1342, %1313] : memref<256x64xf32>, vector<16xf32>
                %1388 = affine.load %alloca[2] : memref<4xvector<16xf32>>
                %1389 = vector.fma %1386, %1387, %1388 : vector<16xf32>
                affine.store %1389, %alloca[2] : memref<4xvector<16xf32>>
                %1390 = arith.addi %1312, %c3 : index
                %1391 = memref.load %alloc_2794[%1390, %arg54] : memref<32x256xf32>
                %1392 = vector.broadcast %1391 : f32 to vector<16xf32>
                %1393 = vector.load %alloc_2795[%arg54, %1313] : memref<256x64xf32>, vector<16xf32>
                %1394 = affine.load %alloca[3] : memref<4xvector<16xf32>>
                %1395 = vector.fma %1392, %1393, %1394 : vector<16xf32>
                affine.store %1395, %alloca[3] : memref<4xvector<16xf32>>
                %1396 = memref.load %alloc_2794[%1390, %1330] : memref<32x256xf32>
                %1397 = vector.broadcast %1396 : f32 to vector<16xf32>
                %1398 = vector.load %alloc_2795[%1330, %1313] : memref<256x64xf32>, vector<16xf32>
                %1399 = affine.load %alloca[3] : memref<4xvector<16xf32>>
                %1400 = vector.fma %1397, %1398, %1399 : vector<16xf32>
                affine.store %1400, %alloca[3] : memref<4xvector<16xf32>>
                %1401 = memref.load %alloc_2794[%1390, %1336] : memref<32x256xf32>
                %1402 = vector.broadcast %1401 : f32 to vector<16xf32>
                %1403 = vector.load %alloc_2795[%1336, %1313] : memref<256x64xf32>, vector<16xf32>
                %1404 = affine.load %alloca[3] : memref<4xvector<16xf32>>
                %1405 = vector.fma %1402, %1403, %1404 : vector<16xf32>
                affine.store %1405, %alloca[3] : memref<4xvector<16xf32>>
                %1406 = memref.load %alloc_2794[%1390, %1342] : memref<32x256xf32>
                %1407 = vector.broadcast %1406 : f32 to vector<16xf32>
                %1408 = vector.load %alloc_2795[%1342, %1313] : memref<256x64xf32>, vector<16xf32>
                %1409 = affine.load %alloca[3] : memref<4xvector<16xf32>>
                %1410 = vector.fma %1407, %1408, %1409 : vector<16xf32>
                affine.store %1410, %alloca[3] : memref<4xvector<16xf32>>
              }
              %1321 = affine.load %alloca[0] : memref<4xvector<16xf32>>
              vector.store %1321, %alloc_2793[%arg53, %arg52] : memref<64x4096xf32>, vector<16xf32>
              %1322 = affine.load %alloca[1] : memref<4xvector<16xf32>>
              vector.store %1322, %alloc_2793[%1315, %arg52] : memref<64x4096xf32>, vector<16xf32>
              %1323 = affine.load %alloca[2] : memref<4xvector<16xf32>>
              vector.store %1323, %alloc_2793[%1317, %arg52] : memref<64x4096xf32>, vector<16xf32>
              %1324 = affine.load %alloca[3] : memref<4xvector<16xf32>>
              vector.store %1324, %alloc_2793[%1319, %arg52] : memref<64x4096xf32>, vector<16xf32>
            }
          }
        }
      }
    }
    affine.for %arg49 = 0 to 64 {
      affine.for %arg50 = 0 to 4096 {
        %1312 = affine.load %alloc_2793[%arg49, %arg50] : memref<64x4096xf32>
        %1313 = affine.load %alloc_572[%arg50] : memref<4096xf32>
        %1314 = arith.addf %1312, %1313 : f32
        affine.store %1314, %alloc_2793[%arg49, %arg50] : memref<64x4096xf32>
      }
    }
    %reinterpret_cast_2796 = memref.reinterpret_cast %alloc_2793 to offset: [0], sizes: [64, 1, 4096], strides: [4096, 4096, 1] : memref<64x4096xf32> to memref<64x1x4096xf32>
    %alloc_2797 = memref.alloc() : memref<f32>
    %cast_2798 = memref.cast %alloc_2797 : memref<f32> to memref<*xf32>
    %1298 = llvm.mlir.addressof @constant_888 : !llvm.ptr<array<13 x i8>>
    %1299 = llvm.getelementptr %1298[0, 0] : (!llvm.ptr<array<13 x i8>>) -> !llvm.ptr<i8>
    call @read_tensor_f32(%1299, %cast_2798) : (!llvm.ptr<i8>, memref<*xf32>) -> ()
    %alloc_2799 = memref.alloc() : memref<f32>
    %cast_2800 = memref.cast %alloc_2799 : memref<f32> to memref<*xf32>
    %1300 = llvm.mlir.addressof @constant_889 : !llvm.ptr<array<13 x i8>>
    %1301 = llvm.getelementptr %1300[0, 0] : (!llvm.ptr<array<13 x i8>>) -> !llvm.ptr<i8>
    call @read_tensor_f32(%1301, %cast_2800) : (!llvm.ptr<i8>, memref<*xf32>) -> ()
    %alloc_2801 = memref.alloc() {alignment = 16 : i64} : memref<64x1x4096xf32>
    affine.for %arg49 = 0 to 64 {
      affine.for %arg50 = 0 to 1 {
        affine.for %arg51 = 0 to 4096 {
          %1312 = affine.load %reinterpret_cast_2796[%arg49, %arg50, %arg51] : memref<64x1x4096xf32>
          %1313 = affine.load %alloc_2799[] : memref<f32>
          %1314 = math.powf %1312, %1313 : f32
          affine.store %1314, %alloc_2801[%arg49, %arg50, %arg51] : memref<64x1x4096xf32>
        }
      }
    }
    %alloc_2802 = memref.alloc() : memref<f32>
    %cast_2803 = memref.cast %alloc_2802 : memref<f32> to memref<*xf32>
    %1302 = llvm.mlir.addressof @constant_890 : !llvm.ptr<array<13 x i8>>
    %1303 = llvm.getelementptr %1302[0, 0] : (!llvm.ptr<array<13 x i8>>) -> !llvm.ptr<i8>
    call @read_tensor_f32(%1303, %cast_2803) : (!llvm.ptr<i8>, memref<*xf32>) -> ()
    %alloc_2804 = memref.alloc() {alignment = 16 : i64} : memref<64x1x4096xf32>
    affine.for %arg49 = 0 to 64 {
      affine.for %arg50 = 0 to 1 {
        affine.for %arg51 = 0 to 4096 {
          %1312 = affine.load %alloc_2801[%arg49, %arg50, %arg51] : memref<64x1x4096xf32>
          %1313 = affine.load %alloc_2802[] : memref<f32>
          %1314 = arith.mulf %1312, %1313 : f32
          affine.store %1314, %alloc_2804[%arg49, %arg50, %arg51] : memref<64x1x4096xf32>
        }
      }
    }
    %alloc_2805 = memref.alloc() {alignment = 16 : i64} : memref<64x1x4096xf32>
    affine.for %arg49 = 0 to 64 {
      affine.for %arg50 = 0 to 1 {
        affine.for %arg51 = 0 to 4096 {
          %1312 = affine.load %reinterpret_cast_2796[%arg49, %arg50, %arg51] : memref<64x1x4096xf32>
          %1313 = affine.load %alloc_2804[%arg49, %arg50, %arg51] : memref<64x1x4096xf32>
          %1314 = arith.addf %1312, %1313 : f32
          affine.store %1314, %alloc_2805[%arg49, %arg50, %arg51] : memref<64x1x4096xf32>
        }
      }
    }
    %alloc_2806 = memref.alloc() : memref<f32>
    %cast_2807 = memref.cast %alloc_2806 : memref<f32> to memref<*xf32>
    %1304 = llvm.mlir.addressof @constant_891 : !llvm.ptr<array<13 x i8>>
    %1305 = llvm.getelementptr %1304[0, 0] : (!llvm.ptr<array<13 x i8>>) -> !llvm.ptr<i8>
    call @read_tensor_f32(%1305, %cast_2807) : (!llvm.ptr<i8>, memref<*xf32>) -> ()
    %alloc_2808 = memref.alloc() {alignment = 16 : i64} : memref<64x1x4096xf32>
    affine.for %arg49 = 0 to 64 {
      affine.for %arg50 = 0 to 1 {
        affine.for %arg51 = 0 to 4096 {
          %1312 = affine.load %alloc_2805[%arg49, %arg50, %arg51] : memref<64x1x4096xf32>
          %1313 = affine.load %alloc_2806[] : memref<f32>
          %1314 = arith.mulf %1312, %1313 : f32
          affine.store %1314, %alloc_2808[%arg49, %arg50, %arg51] : memref<64x1x4096xf32>
        }
      }
    }
    %alloc_2809 = memref.alloc() {alignment = 16 : i64} : memref<64x1x4096xf32>
    affine.for %arg49 = 0 to 64 {
      affine.for %arg50 = 0 to 1 {
        affine.for %arg51 = 0 to 4096 {
          %1312 = affine.load %alloc_2808[%arg49, %arg50, %arg51] : memref<64x1x4096xf32>
          %1313 = math.tanh %1312 : f32
          affine.store %1313, %alloc_2809[%arg49, %arg50, %arg51] : memref<64x1x4096xf32>
        }
      }
    }
    %alloc_2810 = memref.alloc() : memref<f32>
    %cast_2811 = memref.cast %alloc_2810 : memref<f32> to memref<*xf32>
    %1306 = llvm.mlir.addressof @constant_892 : !llvm.ptr<array<13 x i8>>
    %1307 = llvm.getelementptr %1306[0, 0] : (!llvm.ptr<array<13 x i8>>) -> !llvm.ptr<i8>
    call @read_tensor_f32(%1307, %cast_2811) : (!llvm.ptr<i8>, memref<*xf32>) -> ()
    %alloc_2812 = memref.alloc() {alignment = 16 : i64} : memref<64x1x4096xf32>
    affine.for %arg49 = 0 to 64 {
      affine.for %arg50 = 0 to 1 {
        affine.for %arg51 = 0 to 4096 {
          %1312 = affine.load %alloc_2809[%arg49, %arg50, %arg51] : memref<64x1x4096xf32>
          %1313 = affine.load %alloc_2810[] : memref<f32>
          %1314 = arith.addf %1312, %1313 : f32
          affine.store %1314, %alloc_2812[%arg49, %arg50, %arg51] : memref<64x1x4096xf32>
        }
      }
    }
    %alloc_2813 = memref.alloc() {alignment = 16 : i64} : memref<64x1x4096xf32>
    affine.for %arg49 = 0 to 64 {
      affine.for %arg50 = 0 to 1 {
        affine.for %arg51 = 0 to 4096 {
          %1312 = affine.load %reinterpret_cast_2796[%arg49, %arg50, %arg51] : memref<64x1x4096xf32>
          %1313 = affine.load %alloc_2812[%arg49, %arg50, %arg51] : memref<64x1x4096xf32>
          %1314 = arith.mulf %1312, %1313 : f32
          affine.store %1314, %alloc_2813[%arg49, %arg50, %arg51] : memref<64x1x4096xf32>
        }
      }
    }
    %alloc_2814 = memref.alloc() {alignment = 16 : i64} : memref<64x1x4096xf32>
    affine.for %arg49 = 0 to 64 {
      affine.for %arg50 = 0 to 1 {
        affine.for %arg51 = 0 to 4096 {
          %1312 = affine.load %alloc_2813[%arg49, %arg50, %arg51] : memref<64x1x4096xf32>
          %1313 = affine.load %alloc_2797[] : memref<f32>
          %1314 = arith.mulf %1312, %1313 : f32
          affine.store %1314, %alloc_2814[%arg49, %arg50, %arg51] : memref<64x1x4096xf32>
        }
      }
    }
    %reinterpret_cast_2815 = memref.reinterpret_cast %alloc_2814 to offset: [0], sizes: [64, 4096], strides: [4096, 1] : memref<64x1x4096xf32> to memref<64x4096xf32>
    %alloc_2816 = memref.alloc() {alignment = 128 : i64} : memref<64x1024xf32>
    affine.for %arg49 = 0 to 64 {
      affine.for %arg50 = 0 to 1024 {
        affine.store %cst_1, %alloc_2816[%arg49, %arg50] : memref<64x1024xf32>
      }
    }
    %alloc_2817 = memref.alloc() {alignment = 128 : i64} : memref<32x256xf32>
    %alloc_2818 = memref.alloc() {alignment = 128 : i64} : memref<256x64xf32>
    affine.for %arg49 = 0 to 1024 step 64 {
      affine.for %arg50 = 0 to 4096 step 256 {
        affine.for %arg51 = 0 to 256 {
          affine.for %arg52 = 0 to 64 {
            %1312 = affine.load %alloc_574[%arg50 + %arg51, %arg49 + %arg52] : memref<4096x1024xf32>
            affine.store %1312, %alloc_2818[%arg51, %arg52] : memref<256x64xf32>
          }
        }
        affine.for %arg51 = 0 to 64 step 32 {
          affine.for %arg52 = 0 to 32 {
            affine.for %arg53 = 0 to 256 {
              %1312 = affine.load %reinterpret_cast_2815[%arg51 + %arg52, %arg50 + %arg53] : memref<64x4096xf32>
              affine.store %1312, %alloc_2817[%arg52, %arg53] : memref<32x256xf32>
            }
          }
          affine.for %arg52 = #map(%arg49) to #map1(%arg49) step 16 {
            affine.for %arg53 = #map(%arg51) to #map2(%arg51) step 4 {
              %1312 = affine.apply #map3(%arg51, %arg53)
              %1313 = affine.apply #map3(%arg49, %arg52)
              %alloca = memref.alloca() {alignment = 64 : i64} : memref<4xvector<16xf32>>
              %1314 = vector.load %alloc_2816[%arg53, %arg52] : memref<64x1024xf32>, vector<16xf32>
              affine.store %1314, %alloca[0] : memref<4xvector<16xf32>>
              %1315 = arith.addi %arg53, %c1 : index
              %1316 = vector.load %alloc_2816[%1315, %arg52] : memref<64x1024xf32>, vector<16xf32>
              affine.store %1316, %alloca[1] : memref<4xvector<16xf32>>
              %1317 = arith.addi %arg53, %c2 : index
              %1318 = vector.load %alloc_2816[%1317, %arg52] : memref<64x1024xf32>, vector<16xf32>
              affine.store %1318, %alloca[2] : memref<4xvector<16xf32>>
              %1319 = arith.addi %arg53, %c3 : index
              %1320 = vector.load %alloc_2816[%1319, %arg52] : memref<64x1024xf32>, vector<16xf32>
              affine.store %1320, %alloca[3] : memref<4xvector<16xf32>>
              affine.for %arg54 = 0 to 256 step 4 {
                %1325 = memref.load %alloc_2817[%1312, %arg54] : memref<32x256xf32>
                %1326 = vector.broadcast %1325 : f32 to vector<16xf32>
                %1327 = vector.load %alloc_2818[%arg54, %1313] : memref<256x64xf32>, vector<16xf32>
                %1328 = affine.load %alloca[0] : memref<4xvector<16xf32>>
                %1329 = vector.fma %1326, %1327, %1328 : vector<16xf32>
                affine.store %1329, %alloca[0] : memref<4xvector<16xf32>>
                %1330 = affine.apply #map4(%arg54)
                %1331 = memref.load %alloc_2817[%1312, %1330] : memref<32x256xf32>
                %1332 = vector.broadcast %1331 : f32 to vector<16xf32>
                %1333 = vector.load %alloc_2818[%1330, %1313] : memref<256x64xf32>, vector<16xf32>
                %1334 = affine.load %alloca[0] : memref<4xvector<16xf32>>
                %1335 = vector.fma %1332, %1333, %1334 : vector<16xf32>
                affine.store %1335, %alloca[0] : memref<4xvector<16xf32>>
                %1336 = affine.apply #map5(%arg54)
                %1337 = memref.load %alloc_2817[%1312, %1336] : memref<32x256xf32>
                %1338 = vector.broadcast %1337 : f32 to vector<16xf32>
                %1339 = vector.load %alloc_2818[%1336, %1313] : memref<256x64xf32>, vector<16xf32>
                %1340 = affine.load %alloca[0] : memref<4xvector<16xf32>>
                %1341 = vector.fma %1338, %1339, %1340 : vector<16xf32>
                affine.store %1341, %alloca[0] : memref<4xvector<16xf32>>
                %1342 = affine.apply #map6(%arg54)
                %1343 = memref.load %alloc_2817[%1312, %1342] : memref<32x256xf32>
                %1344 = vector.broadcast %1343 : f32 to vector<16xf32>
                %1345 = vector.load %alloc_2818[%1342, %1313] : memref<256x64xf32>, vector<16xf32>
                %1346 = affine.load %alloca[0] : memref<4xvector<16xf32>>
                %1347 = vector.fma %1344, %1345, %1346 : vector<16xf32>
                affine.store %1347, %alloca[0] : memref<4xvector<16xf32>>
                %1348 = arith.addi %1312, %c1 : index
                %1349 = memref.load %alloc_2817[%1348, %arg54] : memref<32x256xf32>
                %1350 = vector.broadcast %1349 : f32 to vector<16xf32>
                %1351 = vector.load %alloc_2818[%arg54, %1313] : memref<256x64xf32>, vector<16xf32>
                %1352 = affine.load %alloca[1] : memref<4xvector<16xf32>>
                %1353 = vector.fma %1350, %1351, %1352 : vector<16xf32>
                affine.store %1353, %alloca[1] : memref<4xvector<16xf32>>
                %1354 = memref.load %alloc_2817[%1348, %1330] : memref<32x256xf32>
                %1355 = vector.broadcast %1354 : f32 to vector<16xf32>
                %1356 = vector.load %alloc_2818[%1330, %1313] : memref<256x64xf32>, vector<16xf32>
                %1357 = affine.load %alloca[1] : memref<4xvector<16xf32>>
                %1358 = vector.fma %1355, %1356, %1357 : vector<16xf32>
                affine.store %1358, %alloca[1] : memref<4xvector<16xf32>>
                %1359 = memref.load %alloc_2817[%1348, %1336] : memref<32x256xf32>
                %1360 = vector.broadcast %1359 : f32 to vector<16xf32>
                %1361 = vector.load %alloc_2818[%1336, %1313] : memref<256x64xf32>, vector<16xf32>
                %1362 = affine.load %alloca[1] : memref<4xvector<16xf32>>
                %1363 = vector.fma %1360, %1361, %1362 : vector<16xf32>
                affine.store %1363, %alloca[1] : memref<4xvector<16xf32>>
                %1364 = memref.load %alloc_2817[%1348, %1342] : memref<32x256xf32>
                %1365 = vector.broadcast %1364 : f32 to vector<16xf32>
                %1366 = vector.load %alloc_2818[%1342, %1313] : memref<256x64xf32>, vector<16xf32>
                %1367 = affine.load %alloca[1] : memref<4xvector<16xf32>>
                %1368 = vector.fma %1365, %1366, %1367 : vector<16xf32>
                affine.store %1368, %alloca[1] : memref<4xvector<16xf32>>
                %1369 = arith.addi %1312, %c2 : index
                %1370 = memref.load %alloc_2817[%1369, %arg54] : memref<32x256xf32>
                %1371 = vector.broadcast %1370 : f32 to vector<16xf32>
                %1372 = vector.load %alloc_2818[%arg54, %1313] : memref<256x64xf32>, vector<16xf32>
                %1373 = affine.load %alloca[2] : memref<4xvector<16xf32>>
                %1374 = vector.fma %1371, %1372, %1373 : vector<16xf32>
                affine.store %1374, %alloca[2] : memref<4xvector<16xf32>>
                %1375 = memref.load %alloc_2817[%1369, %1330] : memref<32x256xf32>
                %1376 = vector.broadcast %1375 : f32 to vector<16xf32>
                %1377 = vector.load %alloc_2818[%1330, %1313] : memref<256x64xf32>, vector<16xf32>
                %1378 = affine.load %alloca[2] : memref<4xvector<16xf32>>
                %1379 = vector.fma %1376, %1377, %1378 : vector<16xf32>
                affine.store %1379, %alloca[2] : memref<4xvector<16xf32>>
                %1380 = memref.load %alloc_2817[%1369, %1336] : memref<32x256xf32>
                %1381 = vector.broadcast %1380 : f32 to vector<16xf32>
                %1382 = vector.load %alloc_2818[%1336, %1313] : memref<256x64xf32>, vector<16xf32>
                %1383 = affine.load %alloca[2] : memref<4xvector<16xf32>>
                %1384 = vector.fma %1381, %1382, %1383 : vector<16xf32>
                affine.store %1384, %alloca[2] : memref<4xvector<16xf32>>
                %1385 = memref.load %alloc_2817[%1369, %1342] : memref<32x256xf32>
                %1386 = vector.broadcast %1385 : f32 to vector<16xf32>
                %1387 = vector.load %alloc_2818[%1342, %1313] : memref<256x64xf32>, vector<16xf32>
                %1388 = affine.load %alloca[2] : memref<4xvector<16xf32>>
                %1389 = vector.fma %1386, %1387, %1388 : vector<16xf32>
                affine.store %1389, %alloca[2] : memref<4xvector<16xf32>>
                %1390 = arith.addi %1312, %c3 : index
                %1391 = memref.load %alloc_2817[%1390, %arg54] : memref<32x256xf32>
                %1392 = vector.broadcast %1391 : f32 to vector<16xf32>
                %1393 = vector.load %alloc_2818[%arg54, %1313] : memref<256x64xf32>, vector<16xf32>
                %1394 = affine.load %alloca[3] : memref<4xvector<16xf32>>
                %1395 = vector.fma %1392, %1393, %1394 : vector<16xf32>
                affine.store %1395, %alloca[3] : memref<4xvector<16xf32>>
                %1396 = memref.load %alloc_2817[%1390, %1330] : memref<32x256xf32>
                %1397 = vector.broadcast %1396 : f32 to vector<16xf32>
                %1398 = vector.load %alloc_2818[%1330, %1313] : memref<256x64xf32>, vector<16xf32>
                %1399 = affine.load %alloca[3] : memref<4xvector<16xf32>>
                %1400 = vector.fma %1397, %1398, %1399 : vector<16xf32>
                affine.store %1400, %alloca[3] : memref<4xvector<16xf32>>
                %1401 = memref.load %alloc_2817[%1390, %1336] : memref<32x256xf32>
                %1402 = vector.broadcast %1401 : f32 to vector<16xf32>
                %1403 = vector.load %alloc_2818[%1336, %1313] : memref<256x64xf32>, vector<16xf32>
                %1404 = affine.load %alloca[3] : memref<4xvector<16xf32>>
                %1405 = vector.fma %1402, %1403, %1404 : vector<16xf32>
                affine.store %1405, %alloca[3] : memref<4xvector<16xf32>>
                %1406 = memref.load %alloc_2817[%1390, %1342] : memref<32x256xf32>
                %1407 = vector.broadcast %1406 : f32 to vector<16xf32>
                %1408 = vector.load %alloc_2818[%1342, %1313] : memref<256x64xf32>, vector<16xf32>
                %1409 = affine.load %alloca[3] : memref<4xvector<16xf32>>
                %1410 = vector.fma %1407, %1408, %1409 : vector<16xf32>
                affine.store %1410, %alloca[3] : memref<4xvector<16xf32>>
              }
              %1321 = affine.load %alloca[0] : memref<4xvector<16xf32>>
              vector.store %1321, %alloc_2816[%arg53, %arg52] : memref<64x1024xf32>, vector<16xf32>
              %1322 = affine.load %alloca[1] : memref<4xvector<16xf32>>
              vector.store %1322, %alloc_2816[%1315, %arg52] : memref<64x1024xf32>, vector<16xf32>
              %1323 = affine.load %alloca[2] : memref<4xvector<16xf32>>
              vector.store %1323, %alloc_2816[%1317, %arg52] : memref<64x1024xf32>, vector<16xf32>
              %1324 = affine.load %alloca[3] : memref<4xvector<16xf32>>
              vector.store %1324, %alloc_2816[%1319, %arg52] : memref<64x1024xf32>, vector<16xf32>
            }
          }
        }
      }
    }
    affine.for %arg49 = 0 to 64 {
      affine.for %arg50 = 0 to 1024 {
        %1312 = affine.load %alloc_2816[%arg49, %arg50] : memref<64x1024xf32>
        %1313 = affine.load %alloc_576[%arg50] : memref<1024xf32>
        %1314 = arith.addf %1312, %1313 : f32
        affine.store %1314, %alloc_2816[%arg49, %arg50] : memref<64x1024xf32>
      }
    }
    %reinterpret_cast_2819 = memref.reinterpret_cast %alloc_2816 to offset: [0], sizes: [64, 1, 1024], strides: [1024, 1024, 1] : memref<64x1024xf32> to memref<64x1x1024xf32>
    %alloc_2820 = memref.alloc() {alignment = 16 : i64} : memref<64x1x1024xf32>
    affine.for %arg49 = 0 to 64 {
      affine.for %arg50 = 0 to 1 {
        affine.for %arg51 = 0 to 1024 {
          %1312 = affine.load %alloc_2777[%arg49, %arg50, %arg51] : memref<64x1x1024xf32>
          %1313 = affine.load %reinterpret_cast_2819[%arg49, %arg50, %arg51] : memref<64x1x1024xf32>
          %1314 = arith.addf %1312, %1313 : f32
          affine.store %1314, %alloc_2820[%arg49, %arg50, %arg51] : memref<64x1x1024xf32>
        }
      }
    }
    %alloc_2821 = memref.alloc() {alignment = 16 : i64} : memref<64x1x1024xf32>
    affine.for %arg49 = 0 to 64 {
      affine.for %arg50 = 0 to 1 {
        affine.for %arg51 = 0 to 1024 {
          %1312 = affine.load %alloc_2820[%arg49, %arg50, %arg51] : memref<64x1x1024xf32>
          %1313 = affine.load %alloc_585[0, %arg50, %arg51] : memref<1x1x1024xf32>
          %1314 = arith.addf %1312, %1313 : f32
          affine.store %1314, %alloc_2821[%arg49, %arg50, %arg51] : memref<64x1x1024xf32>
        }
      }
    }
    %alloc_2822 = memref.alloc() {alignment = 16 : i64} : memref<64x1x1xf32>
    affine.for %arg49 = 0 to 64 {
      affine.for %arg50 = 0 to 1 {
        affine.for %arg51 = 0 to 1 {
          affine.store %cst_1, %alloc_2822[%arg49, %arg50, %arg51] : memref<64x1x1xf32>
        }
      }
    }
    affine.for %arg49 = 0 to 64 {
      affine.for %arg50 = 0 to 1 {
        affine.for %arg51 = 0 to 1024 {
          %1312 = affine.load %alloc_2821[%arg49, %arg50, %arg51] : memref<64x1x1024xf32>
          %1313 = affine.load %alloc_2822[%arg49, %arg50, 0] : memref<64x1x1xf32>
          %1314 = arith.addf %1313, %1312 : f32
          affine.store %1314, %alloc_2822[%arg49, %arg50, 0] : memref<64x1x1xf32>
        }
      }
    }
    affine.for %arg49 = 0 to 64 {
      affine.for %arg50 = 0 to 1 {
        affine.for %arg51 = 0 to 1 {
          %1312 = affine.load %alloc_2822[%arg49, %arg50, %arg51] : memref<64x1x1xf32>
          %1313 = arith.divf %1312, %cst : f32
          affine.store %1313, %alloc_2822[%arg49, %arg50, %arg51] : memref<64x1x1xf32>
        }
      }
    }
    %alloc_2823 = memref.alloc() {alignment = 16 : i64} : memref<64x1x1024xf32>
    affine.for %arg49 = 0 to 64 {
      affine.for %arg50 = 0 to 1 {
        affine.for %arg51 = 0 to 1024 {
          %1312 = affine.load %alloc_2821[%arg49, %arg50, %arg51] : memref<64x1x1024xf32>
          %1313 = affine.load %alloc_2822[%arg49, %arg50, 0] : memref<64x1x1xf32>
          %1314 = arith.subf %1312, %1313 : f32
          affine.store %1314, %alloc_2823[%arg49, %arg50, %arg51] : memref<64x1x1024xf32>
        }
      }
    }
    %alloc_2824 = memref.alloc() : memref<f32>
    %cast_2825 = memref.cast %alloc_2824 : memref<f32> to memref<*xf32>
    %1308 = llvm.mlir.addressof @constant_895 : !llvm.ptr<array<13 x i8>>
    %1309 = llvm.getelementptr %1308[0, 0] : (!llvm.ptr<array<13 x i8>>) -> !llvm.ptr<i8>
    call @read_tensor_f32(%1309, %cast_2825) : (!llvm.ptr<i8>, memref<*xf32>) -> ()
    %alloc_2826 = memref.alloc() {alignment = 16 : i64} : memref<64x1x1024xf32>
    affine.for %arg49 = 0 to 64 {
      affine.for %arg50 = 0 to 1 {
        affine.for %arg51 = 0 to 1024 {
          %1312 = affine.load %alloc_2823[%arg49, %arg50, %arg51] : memref<64x1x1024xf32>
          %1313 = affine.load %alloc_2824[] : memref<f32>
          %1314 = math.powf %1312, %1313 : f32
          affine.store %1314, %alloc_2826[%arg49, %arg50, %arg51] : memref<64x1x1024xf32>
        }
      }
    }
    %alloc_2827 = memref.alloc() {alignment = 16 : i64} : memref<64x1x1xf32>
    affine.for %arg49 = 0 to 64 {
      affine.for %arg50 = 0 to 1 {
        affine.for %arg51 = 0 to 1 {
          affine.store %cst_1, %alloc_2827[%arg49, %arg50, %arg51] : memref<64x1x1xf32>
        }
      }
    }
    affine.for %arg49 = 0 to 64 {
      affine.for %arg50 = 0 to 1 {
        affine.for %arg51 = 0 to 1024 {
          %1312 = affine.load %alloc_2826[%arg49, %arg50, %arg51] : memref<64x1x1024xf32>
          %1313 = affine.load %alloc_2827[%arg49, %arg50, 0] : memref<64x1x1xf32>
          %1314 = arith.addf %1313, %1312 : f32
          affine.store %1314, %alloc_2827[%arg49, %arg50, 0] : memref<64x1x1xf32>
        }
      }
    }
    affine.for %arg49 = 0 to 64 {
      affine.for %arg50 = 0 to 1 {
        affine.for %arg51 = 0 to 1 {
          %1312 = affine.load %alloc_2827[%arg49, %arg50, %arg51] : memref<64x1x1xf32>
          %1313 = arith.divf %1312, %cst : f32
          affine.store %1313, %alloc_2827[%arg49, %arg50, %arg51] : memref<64x1x1xf32>
        }
      }
    }
    %alloc_2828 = memref.alloc() : memref<f32>
    %cast_2829 = memref.cast %alloc_2828 : memref<f32> to memref<*xf32>
    %1310 = llvm.mlir.addressof @constant_896 : !llvm.ptr<array<13 x i8>>
    %1311 = llvm.getelementptr %1310[0, 0] : (!llvm.ptr<array<13 x i8>>) -> !llvm.ptr<i8>
    call @read_tensor_f32(%1311, %cast_2829) : (!llvm.ptr<i8>, memref<*xf32>) -> ()
    %alloc_2830 = memref.alloc() {alignment = 16 : i64} : memref<64x1x1xf32>
    affine.for %arg49 = 0 to 64 {
      affine.for %arg50 = 0 to 1 {
        affine.for %arg51 = 0 to 1 {
          %1312 = affine.load %alloc_2827[%arg49, %arg50, %arg51] : memref<64x1x1xf32>
          %1313 = affine.load %alloc_2828[] : memref<f32>
          %1314 = arith.addf %1312, %1313 : f32
          affine.store %1314, %alloc_2830[%arg49, %arg50, %arg51] : memref<64x1x1xf32>
        }
      }
    }
    %alloc_2831 = memref.alloc() {alignment = 16 : i64} : memref<64x1x1xf32>
    affine.for %arg49 = 0 to 64 {
      affine.for %arg50 = 0 to 1 {
        affine.for %arg51 = 0 to 1 {
          %1312 = affine.load %alloc_2830[%arg49, %arg50, %arg51] : memref<64x1x1xf32>
          %1313 = math.sqrt %1312 : f32
          affine.store %1313, %alloc_2831[%arg49, %arg50, %arg51] : memref<64x1x1xf32>
        }
      }
    }
    %alloc_2832 = memref.alloc() {alignment = 16 : i64} : memref<64x1x1024xf32>
    affine.for %arg49 = 0 to 64 {
      affine.for %arg50 = 0 to 1 {
        affine.for %arg51 = 0 to 1024 {
          %1312 = affine.load %alloc_2823[%arg49, %arg50, %arg51] : memref<64x1x1024xf32>
          %1313 = affine.load %alloc_2831[%arg49, %arg50, 0] : memref<64x1x1xf32>
          %1314 = arith.divf %1312, %1313 : f32
          affine.store %1314, %alloc_2832[%arg49, %arg50, %arg51] : memref<64x1x1024xf32>
        }
      }
    }
    %alloc_2833 = memref.alloc() {alignment = 16 : i64} : memref<64x1x1024xf32>
    affine.for %arg49 = 0 to 64 {
      affine.for %arg50 = 0 to 1 {
        affine.for %arg51 = 0 to 1024 {
          %1312 = affine.load %alloc_2832[%arg49, %arg50, %arg51] : memref<64x1x1024xf32>
          %1313 = affine.load %alloc_578[%arg51] : memref<1024xf32>
          %1314 = arith.mulf %1312, %1313 : f32
          affine.store %1314, %alloc_2833[%arg49, %arg50, %arg51] : memref<64x1x1024xf32>
        }
      }
    }
    %alloc_2834 = memref.alloc() {alignment = 16 : i64} : memref<64x1x1024xf32>
    affine.for %arg49 = 0 to 64 {
      affine.for %arg50 = 0 to 1 {
        affine.for %arg51 = 0 to 1024 {
          %1312 = affine.load %alloc_2833[%arg49, %arg50, %arg51] : memref<64x1x1024xf32>
          %1313 = affine.load %alloc_580[%arg51] : memref<1024xf32>
          %1314 = arith.addf %1312, %1313 : f32
          affine.store %1314, %alloc_2834[%arg49, %arg50, %arg51] : memref<64x1x1024xf32>
        }
      }
    }
    %alloc_2835 = memref.alloc() {alignment = 16 : i64, remote_target = 1 : i64} : memref<64x1x50264xf32>
    affine.for %arg49 = 0 to 64 {
      affine.for %arg50 = 0 to 1 {
        affine.for %arg51 = 0 to 50264 {
          affine.store %cst_1, %alloc_2835[%arg49, %arg50, %arg51] {remote_check_use = 1 : i8} : memref<64x1x50264xf32>
        }
      }
    }
    affine.for %arg49 = 0 to 64 {
      affine.for %arg50 = 0 to 1 {
        affine.for %arg51 = 0 to 50264 step 8 {
          affine.for %arg52 = 0 to 1024 step 8 {
            %alloca = memref.alloca() {alignment = 64 : i64} : memref<1xvector<8xf32>>
            affine.for %arg53 = 0 to 1 {
              %1312 = arith.addi %arg53, %arg50 : index
              %1313 = vector.load %alloc_2835[%arg49, %1312, %arg51] {remote_check_use = 1 : i8} : memref<64x1x50264xf32>, vector<8xf32>
              affine.store %1313, %alloca[0] {remote_check_use = 1 : i8} : memref<1xvector<8xf32>>
              %1314 = memref.load %alloc_2834[%arg49, %1312, %arg52] : memref<64x1x1024xf32>
              %1315 = vector.broadcast %1314 : f32 to vector<8xf32>
              %1316 = vector.load %alloc_582[%arg52, %arg51] : memref<1024x50264xf32>, vector<8xf32>
              %1317 = affine.load %alloca[0] : memref<1xvector<8xf32>>
              %1318 = vector.fma %1315, %1316, %1317 : vector<8xf32>
              affine.store %1318, %alloca[0] : memref<1xvector<8xf32>>
              %1319 = arith.addi %arg52, %c1 : index
              %1320 = memref.load %alloc_2834[%arg49, %1312, %1319] : memref<64x1x1024xf32>
              %1321 = vector.broadcast %1320 : f32 to vector<8xf32>
              %1322 = vector.load %alloc_582[%1319, %arg51] : memref<1024x50264xf32>, vector<8xf32>
              %1323 = affine.load %alloca[0] : memref<1xvector<8xf32>>
              %1324 = vector.fma %1321, %1322, %1323 : vector<8xf32>
              affine.store %1324, %alloca[0] : memref<1xvector<8xf32>>
              %1325 = arith.addi %arg52, %c2 : index
              %1326 = memref.load %alloc_2834[%arg49, %1312, %1325] : memref<64x1x1024xf32>
              %1327 = vector.broadcast %1326 : f32 to vector<8xf32>
              %1328 = vector.load %alloc_582[%1325, %arg51] : memref<1024x50264xf32>, vector<8xf32>
              %1329 = affine.load %alloca[0] : memref<1xvector<8xf32>>
              %1330 = vector.fma %1327, %1328, %1329 : vector<8xf32>
              affine.store %1330, %alloca[0] : memref<1xvector<8xf32>>
              %1331 = arith.addi %arg52, %c3 : index
              %1332 = memref.load %alloc_2834[%arg49, %1312, %1331] : memref<64x1x1024xf32>
              %1333 = vector.broadcast %1332 : f32 to vector<8xf32>
              %1334 = vector.load %alloc_582[%1331, %arg51] : memref<1024x50264xf32>, vector<8xf32>
              %1335 = affine.load %alloca[0] : memref<1xvector<8xf32>>
              %1336 = vector.fma %1333, %1334, %1335 : vector<8xf32>
              affine.store %1336, %alloca[0] : memref<1xvector<8xf32>>
              %1337 = arith.addi %arg52, %c4 : index
              %1338 = memref.load %alloc_2834[%arg49, %1312, %1337] : memref<64x1x1024xf32>
              %1339 = vector.broadcast %1338 : f32 to vector<8xf32>
              %1340 = vector.load %alloc_582[%1337, %arg51] : memref<1024x50264xf32>, vector<8xf32>
              %1341 = affine.load %alloca[0] : memref<1xvector<8xf32>>
              %1342 = vector.fma %1339, %1340, %1341 : vector<8xf32>
              affine.store %1342, %alloca[0] : memref<1xvector<8xf32>>
              %1343 = arith.addi %arg52, %c5 : index
              %1344 = memref.load %alloc_2834[%arg49, %1312, %1343] : memref<64x1x1024xf32>
              %1345 = vector.broadcast %1344 : f32 to vector<8xf32>
              %1346 = vector.load %alloc_582[%1343, %arg51] : memref<1024x50264xf32>, vector<8xf32>
              %1347 = affine.load %alloca[0] : memref<1xvector<8xf32>>
              %1348 = vector.fma %1345, %1346, %1347 : vector<8xf32>
              affine.store %1348, %alloca[0] : memref<1xvector<8xf32>>
              %1349 = arith.addi %arg52, %c6 : index
              %1350 = memref.load %alloc_2834[%arg49, %1312, %1349] : memref<64x1x1024xf32>
              %1351 = vector.broadcast %1350 : f32 to vector<8xf32>
              %1352 = vector.load %alloc_582[%1349, %arg51] : memref<1024x50264xf32>, vector<8xf32>
              %1353 = affine.load %alloca[0] : memref<1xvector<8xf32>>
              %1354 = vector.fma %1351, %1352, %1353 : vector<8xf32>
              affine.store %1354, %alloca[0] : memref<1xvector<8xf32>>
              %1355 = arith.addi %arg52, %c7 : index
              %1356 = memref.load %alloc_2834[%arg49, %1312, %1355] : memref<64x1x1024xf32>
              %1357 = vector.broadcast %1356 : f32 to vector<8xf32>
              %1358 = vector.load %alloc_582[%1355, %arg51] : memref<1024x50264xf32>, vector<8xf32>
              %1359 = affine.load %alloca[0] : memref<1xvector<8xf32>>
              %1360 = vector.fma %1357, %1358, %1359 : vector<8xf32>
              affine.store %1360, %alloca[0] : memref<1xvector<8xf32>>
              %1361 = affine.load %alloca[0] : memref<1xvector<8xf32>>
              vector.store %1361, %alloc_2835[%arg49, %1312, %arg51] {remote_check_use = 1 : i8} : memref<64x1x50264xf32>, vector<8xf32>
            }
          }
        }
      }
    }
    return {remote_check_use = 1 : i8} %alloc_2835 : memref<64x1x50264xf32>
  }
}

