#map = affine_map<(d0) -> (d0)>
#map1 = affine_map<(d0) -> (d0 + 64)>
#map2 = affine_map<(d0) -> (d0 + 32)>
#map3 = affine_map<(d0, d1) -> (-d0 + d1)>
#map4 = affine_map<(d0) -> (d0 + 1)>
#map5 = affine_map<(d0) -> (d0 + 2)>
#map6 = affine_map<(d0) -> (d0 + 3)>
#map7 = affine_map<(d0) -> (d0 * 261120)>
#map8 = affine_map<(d0) -> (d0 * 262144)>
#map9 = affine_map<(d0) -> (d0 * 262144 + 16320)>
#map10 = affine_map<(d0, d1) -> (d0 + d1)>
#map11 = affine_map<(d0, d1, d2) -> (d0 * 16384 + d1 + d2 * 256)>
#map12 = affine_map<(d0, d1, d2) -> (d0 * 16384 + d1 + d2 * 256 + 256)>
#map13 = affine_map<(d0, d1, d2) -> (d0 * 16384 + d1 + d2 * 256 + 512)>
#map14 = affine_map<(d0, d1, d2) -> (d0 * 16384 + d1 + d2 * 256 + 768)>
#map15 = affine_map<(d0, d1, d2) -> (d0 * 16384 + d1 + d2 * 256 + 1024)>
#map16 = affine_map<(d0, d1, d2) -> (d0 * 16384 + d1 + d2 * 256 + 1280)>
#map17 = affine_map<(d0, d1, d2) -> (d0 * 16384 + d1 + d2 * 256 + 1536)>
#map18 = affine_map<(d0, d1, d2) -> (d0 * 16384 + d1 + d2 * 256 + 1792)>
#map19 = affine_map<(d0, d1, d2) -> (d0 * 16384 + d1 + d2 * 64)>
#map20 = affine_map<(d0, d1, d2) -> (d0 * 16384 + d1 + d2 * 64 + 64)>
#map21 = affine_map<(d0, d1, d2) -> (d0 * 16384 + d1 + d2 * 64 + 128)>
#map22 = affine_map<(d0, d1, d2) -> (d0 * 16384 + d1 + d2 * 64 + 192)>
#map23 = affine_map<(d0, d1, d2) -> (d0 * 16384 + d1 + d2 * 64 + 256)>
#map24 = affine_map<(d0, d1, d2) -> (d0 * 16384 + d1 + d2 * 64 + 320)>
#map25 = affine_map<(d0, d1, d2) -> (d0 * 16384 + d1 + d2 * 64 + 384)>
#map26 = affine_map<(d0, d1, d2) -> (d0 * 16384 + d1 + d2 * 64 + 448)>
#map27 = affine_map<(d0) -> (d0 * 50264)>
#map28 = affine_map<(d0, d1, d2) -> (d0 * 50264 + d1 + d2 * 50264)>
module attributes {llvm.data_layout = "e-m:e-p270:32:32-p271:32:32-p272:64:64-i64:64-f80:128-n8:16:32:64-S128", llvm.target_triple = "x86_64-unknown-linux-gnu", rmem.templates = {t0 = ["ref0", 8372224, 0, 16777216, f32, 262144, 1, 1 : i32], t1 = ["ref1", 101749088, 0, 16777216, f32, 262144, 1, 1 : i32], t10 = ["ref10", 2093056, 0, 16777216, f32, 262144, 1, 1 : i32], t100 = ["ref100", 99656032, 0, 16711680, f32, 261120, 1, 1 : i32], t101 = ["ref101", 111169888, 0, 16711680, f32, 261120, 1, 1 : i32], t102 = ["ref102", 41865216, 0, 16711680, f32, 261120, 1, 1 : i32], t103 = ["ref103", 25116672, 0, 16711680, f32, 261120, 1, 1 : i32], t104 = ["ref104", 5234688, 0, 16711680, f32, 261120, 1, 1 : i32], t105 = ["ref105", 109080928, 0, 16711680, f32, 261120, 1, 1 : i32], t106 = ["ref106", 65966080, 0, 16711680, f32, 261120, 1, 1 : i32], t107 = ["ref107", 21975040, 0, 16711680, f32, 261120, 1, 1 : i32], t108 = ["ref108", 91287904, 0, 16711680, f32, 261120, 1, 1 : i32], t109 = ["ref109", 19881984, 0, 16711680, f32, 261120, 1, 1 : i32], t11 = ["ref11", 51294208, 0, 16777216, f32, 262144, 1, 1 : i32], t110 = ["ref110", 92332384, 0, 16711680, f32, 261120, 1, 1 : i32], t111 = ["ref111", 94421344, 0, 16711680, f32, 261120, 1, 1 : i32], t112 = ["ref112", 86053216, 0, 16711680, f32, 261120, 1, 1 : i32], t113 = ["ref113", 79572992, 0, 16711680, f32, 261120, 1, 1 : i32], t114 = ["ref114", 28254208, 0, 16711680, f32, 261120, 1, 1 : i32], t115 = ["ref115", 3141632, 0, 16711680, f32, 261120, 1, 1 : i32], t116 = ["ref116", 110125408, 0, 16711680, f32, 261120, 1, 1 : i32], t117 = ["ref117", 59678720, 0, 16711680, f32, 261120, 1, 1 : i32], t118 = ["ref118", 0, 0, 16711680, f32, 261120, 1, 1 : i32], t119 = ["ref119", 17788928, 0, 16711680, f32, 261120, 1, 1 : i32], t12 = ["ref12", 70152192, 0, 16777216, f32, 262144, 1, 1 : i32], t120 = ["ref120", 9420800, 0, 16711680, f32, 261120, 1, 1 : i32], t13 = ["ref13", 58630144, 0, 16777216, f32, 262144, 1, 1 : i32], t14 = ["ref14", 39768064, 0, 16777216, f32, 262144, 1, 1 : i32], t15 = ["ref15", 53391360, 0, 16777216, f32, 262144, 1, 1 : i32], t16 = ["ref16", 83956064, 0, 16777216, f32, 262144, 1, 1 : i32], t17 = ["ref17", 52342784, 0, 16777216, f32, 262144, 1, 1 : i32], t18 = ["ref18", 103846240, 0, 16777216, f32, 262144, 1, 1 : i32], t19 = ["ref19", 4186112, 0, 16777216, f32, 262144, 1, 1 : i32], t2 = ["ref2", 12558336, 0, 16777216, f32, 262144, 1, 1 : i32], t20 = ["ref20", 1044480, 0, 16777216, f32, 262144, 1, 1 : i32], t21 = ["ref21", 96514400, 0, 16777216, f32, 262144, 1, 1 : i32], t22 = ["ref22", 88146272, 0, 16777216, f32, 262144, 1, 1 : i32], t23 = ["ref23", 55488512, 0, 16777216, f32, 262144, 1, 1 : i32], t24 = ["ref24", 40816640, 0, 16777216, f32, 262144, 1, 1 : i32], t25 = ["ref25", 26161152, 0, 16777216, f32, 262144, 1, 1 : i32], t26 = ["ref26", 30343168, 0, 16777216, f32, 262144, 1, 1 : i32], t27 = ["ref27", 97562976, 0, 16777216, f32, 262144, 1, 1 : i32], t28 = ["ref28", 57581568, 0, 16777216, f32, 262144, 1, 1 : i32], t29 = ["ref29", 54439936, 0, 16777216, f32, 262144, 1, 1 : i32], t3 = ["ref3", 108032352, 0, 16777216, f32, 262144, 1, 1 : i32], t30 = ["ref30", 68055040, 0, 16777216, f32, 262144, 1, 1 : i32], t31 = ["ref31", 23019520, 0, 16777216, f32, 262144, 1, 1 : i32], t32 = ["ref32", 75390976, 0, 16777216, f32, 262144, 1, 1 : i32], t33 = ["ref33", 7323648, 0, 16777216, f32, 262144, 1, 1 : i32], t34 = ["ref34", 37675008, 0, 16777216, f32, 262144, 1, 1 : i32], t35 = ["ref35", 112214368, 0, 16777216, f32, 262144, 1, 1 : i32], t36 = ["ref36", 117449056, 0, 16777216, f32, 262144, 1, 1 : i32], t37 = ["ref37", 24068096, 0, 16777216, f32, 262144, 1, 1 : i32], t38 = ["ref38", 63868928, 0, 16777216, f32, 262144, 1, 1 : i32], t39 = ["ref39", 43958272, 0, 16777216, f32, 262144, 1, 1 : i32], t4 = ["ref4", 45006848, 0, 16777216, f32, 262144, 1, 1 : i32], t40 = ["ref40", 115356000, 0, 16777216, f32, 262144, 1, 1 : i32], t41 = ["ref41", 72245248, 0, 16777216, f32, 262144, 1, 1 : i32], t42 = ["ref42", 89194848, 0, 16777216, f32, 262144, 1, 1 : i32], t43 = ["ref43", 42909696, 0, 16777216, f32, 262144, 1, 1 : i32], t44 = ["ref44", 49201152, 0, 16777216, f32, 262144, 1, 1 : i32], t45 = ["ref45", 74342400, 0, 16777216, f32, 262144, 1, 1 : i32], t46 = ["ref46", 64917504, 0, 16777216, f32, 262144, 1, 1 : i32], t47 = ["ref47", 73293824, 0, 16777216, f32, 262144, 1, 1 : i32], t48 = ["ref48", 118497632, 0, 16777216, f32, 262144, 1, 1 : i32], t49 = ["ref49", 119546208, 0, 16777216, f32, 262144, 1, 1 : i32], t5 = ["ref5", 34529280, 0, 16777216, f32, 262144, 1, 1 : i32], t50 = ["ref50", 18833408, 0, 16777216, f32, 262144, 1, 1 : i32], t51 = ["ref51", 61771776, 0, 16777216, f32, 262144, 1, 1 : i32], t52 = ["ref52", 14651392, 0, 16777216, f32, 262144, 1, 1 : i32], t53 = ["ref53", 87097696, 0, 16777216, f32, 262144, 1, 1 : i32], t54 = ["ref54", 20926464, 0, 16777216, f32, 262144, 1, 1 : i32], t55 = ["ref55", 80617472, 0, 16777216, f32, 262144, 1, 1 : i32], t56 = ["ref56", 114307424, 0, 16777216, f32, 262144, 1, 1 : i32], t57 = ["ref57", 62820352, 0, 16777216, f32, 262144, 1, 1 : i32], t58 = ["ref58", 122691936, 0, 16777216, f32, 262144, 1, 1 : i32], t59 = ["ref59", 11509760, 0, 16777216, f32, 262144, 1, 1 : i32], t6 = ["ref6", 120594784, 0, 16777216, f32, 262144, 1, 1 : i32], t60 = ["ref60", 47104000, 0, 16777216, f32, 262144, 1, 1 : i32], t61 = ["ref61", 35577856, 0, 16777216, f32, 262144, 1, 1 : i32], t62 = ["ref62", 95465824, 0, 16777216, f32, 262144, 1, 1 : i32], t63 = ["ref63", 121643360, 0, 16777216, f32, 262144, 1, 1 : i32], t64 = ["ref64", 46055424, 0, 16777216, f32, 262144, 1, 1 : i32], t65 = ["ref65", 123740512, 0, 16777216, f32, 262144, 1, 1 : i32], t66 = ["ref66", 104894816, 0, 16777216, f32, 262144, 1, 1 : i32], t67 = ["ref67", 36626432, 0, 16777216, f32, 262144, 1, 1 : i32], t68 = ["ref68", 85004640, 0, 16777216, f32, 262144, 1, 1 : i32], t69 = ["ref69", 33480704, 0, 16777216, f32, 262144, 1, 1 : i32], t7 = ["ref7", 48152576, 0, 16777216, f32, 262144, 1, 1 : i32], t70 = ["ref70", 100700512, 0, 16777216, f32, 262144, 1, 1 : i32], t71 = ["ref71", 102797664, 0, 16777216, f32, 262144, 1, 1 : i32], t72 = ["ref72", 81666048, 0, 3216896, f32, 50264, 1, 1 : i32], t73 = ["ref73", 27209728, 0, 16711680, f32, 261120, 1, 1 : i32], t74 = ["ref74", 78528512, 0, 16711680, f32, 261120, 1, 1 : i32], t75 = ["ref75", 56537088, 0, 16711680, f32, 261120, 1, 1 : i32], t76 = ["ref76", 10465280, 0, 16711680, f32, 261120, 1, 1 : i32], t77 = ["ref77", 106987872, 0, 16711680, f32, 261120, 1, 1 : i32], t78 = ["ref78", 93376864, 0, 16711680, f32, 261120, 1, 1 : i32], t79 = ["ref79", 50249728, 0, 16711680, f32, 261120, 1, 1 : i32], t8 = ["ref8", 60723200, 0, 16777216, f32, 262144, 1, 1 : i32], t80 = ["ref80", 6279168, 0, 16711680, f32, 261120, 1, 1 : i32], t81 = ["ref81", 81867104, 0, 16711680, f32, 261120, 1, 1 : i32], t82 = ["ref82", 105943392, 0, 16711680, f32, 261120, 1, 1 : i32], t83 = ["ref83", 67010560, 0, 16711680, f32, 261120, 1, 1 : i32], t84 = ["ref84", 32436224, 0, 16711680, f32, 261120, 1, 1 : i32], t85 = ["ref85", 38723584, 0, 16711680, f32, 261120, 1, 1 : i32], t86 = ["ref86", 98611552, 0, 16711680, f32, 261120, 1, 1 : i32], t87 = ["ref87", 82911584, 0, 16711680, f32, 261120, 1, 1 : i32], t88 = ["ref88", 76439552, 0, 16711680, f32, 261120, 1, 1 : i32], t89 = ["ref89", 124789088, 0, 16711680, f32, 261120, 1, 1 : i32], t9 = ["ref9", 69103616, 0, 16777216, f32, 262144, 1, 1 : i32], t90 = ["ref90", 71200768, 0, 16711680, f32, 261120, 1, 1 : i32], t91 = ["ref91", 13606912, 0, 16711680, f32, 261120, 1, 1 : i32], t92 = ["ref92", 90243424, 0, 16711680, f32, 261120, 1, 1 : i32], t93 = ["ref93", 15699968, 0, 16711680, f32, 261120, 1, 1 : i32], t94 = ["ref94", 29298688, 0, 16711680, f32, 261120, 1, 1 : i32], t95 = ["ref95", 113262944, 0, 16711680, f32, 261120, 1, 1 : i32], t96 = ["ref96", 31391744, 0, 16711680, f32, 261120, 1, 1 : i32], t97 = ["ref97", 16744448, 0, 16711680, f32, 261120, 1, 1 : i32], t98 = ["ref98", 77484032, 0, 16711680, f32, 261120, 1, 1 : i32], t99 = ["ref99", 116404576, 0, 16711680, f32, 261120, 1, 1 : i32]}} {
  llvm.mlir.global internal constant @constant_896("constant_896\00") {addr_space = 0 : i32}
  llvm.mlir.global internal constant @constant_895("constant_895\00") {addr_space = 0 : i32}
  llvm.mlir.global internal constant @constant_892("constant_892\00") {addr_space = 0 : i32}
  llvm.mlir.global internal constant @constant_891("constant_891\00") {addr_space = 0 : i32}
  llvm.mlir.global internal constant @constant_890("constant_890\00") {addr_space = 0 : i32}
  llvm.mlir.global internal constant @constant_889("constant_889\00") {addr_space = 0 : i32}
  llvm.mlir.global internal constant @constant_888("constant_888\00") {addr_space = 0 : i32}
  llvm.mlir.global internal constant @constant_885("constant_885\00") {addr_space = 0 : i32}
  llvm.mlir.global internal constant @constant_884("constant_884\00") {addr_space = 0 : i32}
  llvm.mlir.global internal constant @constant_881("constant_881\00") {addr_space = 0 : i32}
  llvm.mlir.global internal constant @constant_879("constant_879\00") {addr_space = 0 : i32}
  llvm.mlir.global internal constant @constant_878("constant_878\00") {addr_space = 0 : i32}
  llvm.mlir.global internal constant @constant_871("constant_871\00") {addr_space = 0 : i32}
  llvm.mlir.global internal constant @constant_870("constant_870\00") {addr_space = 0 : i32}
  llvm.mlir.global internal constant @constant_867("constant_867\00") {addr_space = 0 : i32}
  llvm.mlir.global internal constant @constant_866("constant_866\00") {addr_space = 0 : i32}
  llvm.mlir.global internal constant @constant_865("constant_865\00") {addr_space = 0 : i32}
  llvm.mlir.global internal constant @constant_864("constant_864\00") {addr_space = 0 : i32}
  llvm.mlir.global internal constant @constant_863("constant_863\00") {addr_space = 0 : i32}
  llvm.mlir.global internal constant @constant_860("constant_860\00") {addr_space = 0 : i32}
  llvm.mlir.global internal constant @constant_859("constant_859\00") {addr_space = 0 : i32}
  llvm.mlir.global internal constant @constant_856("constant_856\00") {addr_space = 0 : i32}
  llvm.mlir.global internal constant @constant_854("constant_854\00") {addr_space = 0 : i32}
  llvm.mlir.global internal constant @constant_853("constant_853\00") {addr_space = 0 : i32}
  llvm.mlir.global internal constant @constant_846("constant_846\00") {addr_space = 0 : i32}
  llvm.mlir.global internal constant @constant_845("constant_845\00") {addr_space = 0 : i32}
  llvm.mlir.global internal constant @constant_842("constant_842\00") {addr_space = 0 : i32}
  llvm.mlir.global internal constant @constant_841("constant_841\00") {addr_space = 0 : i32}
  llvm.mlir.global internal constant @constant_840("constant_840\00") {addr_space = 0 : i32}
  llvm.mlir.global internal constant @constant_839("constant_839\00") {addr_space = 0 : i32}
  llvm.mlir.global internal constant @constant_838("constant_838\00") {addr_space = 0 : i32}
  llvm.mlir.global internal constant @constant_835("constant_835\00") {addr_space = 0 : i32}
  llvm.mlir.global internal constant @constant_834("constant_834\00") {addr_space = 0 : i32}
  llvm.mlir.global internal constant @constant_831("constant_831\00") {addr_space = 0 : i32}
  llvm.mlir.global internal constant @constant_829("constant_829\00") {addr_space = 0 : i32}
  llvm.mlir.global internal constant @constant_828("constant_828\00") {addr_space = 0 : i32}
  llvm.mlir.global internal constant @constant_821("constant_821\00") {addr_space = 0 : i32}
  llvm.mlir.global internal constant @constant_820("constant_820\00") {addr_space = 0 : i32}
  llvm.mlir.global internal constant @constant_817("constant_817\00") {addr_space = 0 : i32}
  llvm.mlir.global internal constant @constant_816("constant_816\00") {addr_space = 0 : i32}
  llvm.mlir.global internal constant @constant_815("constant_815\00") {addr_space = 0 : i32}
  llvm.mlir.global internal constant @constant_814("constant_814\00") {addr_space = 0 : i32}
  llvm.mlir.global internal constant @constant_813("constant_813\00") {addr_space = 0 : i32}
  llvm.mlir.global internal constant @constant_810("constant_810\00") {addr_space = 0 : i32}
  llvm.mlir.global internal constant @constant_809("constant_809\00") {addr_space = 0 : i32}
  llvm.mlir.global internal constant @constant_806("constant_806\00") {addr_space = 0 : i32}
  llvm.mlir.global internal constant @constant_804("constant_804\00") {addr_space = 0 : i32}
  llvm.mlir.global internal constant @constant_803("constant_803\00") {addr_space = 0 : i32}
  llvm.mlir.global internal constant @constant_796("constant_796\00") {addr_space = 0 : i32}
  llvm.mlir.global internal constant @constant_795("constant_795\00") {addr_space = 0 : i32}
  llvm.mlir.global internal constant @constant_792("constant_792\00") {addr_space = 0 : i32}
  llvm.mlir.global internal constant @constant_791("constant_791\00") {addr_space = 0 : i32}
  llvm.mlir.global internal constant @constant_790("constant_790\00") {addr_space = 0 : i32}
  llvm.mlir.global internal constant @constant_789("constant_789\00") {addr_space = 0 : i32}
  llvm.mlir.global internal constant @constant_788("constant_788\00") {addr_space = 0 : i32}
  llvm.mlir.global internal constant @constant_785("constant_785\00") {addr_space = 0 : i32}
  llvm.mlir.global internal constant @constant_784("constant_784\00") {addr_space = 0 : i32}
  llvm.mlir.global internal constant @constant_781("constant_781\00") {addr_space = 0 : i32}
  llvm.mlir.global internal constant @constant_779("constant_779\00") {addr_space = 0 : i32}
  llvm.mlir.global internal constant @constant_778("constant_778\00") {addr_space = 0 : i32}
  llvm.mlir.global internal constant @constant_771("constant_771\00") {addr_space = 0 : i32}
  llvm.mlir.global internal constant @constant_770("constant_770\00") {addr_space = 0 : i32}
  llvm.mlir.global internal constant @constant_767("constant_767\00") {addr_space = 0 : i32}
  llvm.mlir.global internal constant @constant_766("constant_766\00") {addr_space = 0 : i32}
  llvm.mlir.global internal constant @constant_765("constant_765\00") {addr_space = 0 : i32}
  llvm.mlir.global internal constant @constant_764("constant_764\00") {addr_space = 0 : i32}
  llvm.mlir.global internal constant @constant_763("constant_763\00") {addr_space = 0 : i32}
  llvm.mlir.global internal constant @constant_760("constant_760\00") {addr_space = 0 : i32}
  llvm.mlir.global internal constant @constant_759("constant_759\00") {addr_space = 0 : i32}
  llvm.mlir.global internal constant @constant_756("constant_756\00") {addr_space = 0 : i32}
  llvm.mlir.global internal constant @constant_754("constant_754\00") {addr_space = 0 : i32}
  llvm.mlir.global internal constant @constant_753("constant_753\00") {addr_space = 0 : i32}
  llvm.mlir.global internal constant @constant_746("constant_746\00") {addr_space = 0 : i32}
  llvm.mlir.global internal constant @constant_745("constant_745\00") {addr_space = 0 : i32}
  llvm.mlir.global internal constant @constant_742("constant_742\00") {addr_space = 0 : i32}
  llvm.mlir.global internal constant @constant_741("constant_741\00") {addr_space = 0 : i32}
  llvm.mlir.global internal constant @constant_740("constant_740\00") {addr_space = 0 : i32}
  llvm.mlir.global internal constant @constant_739("constant_739\00") {addr_space = 0 : i32}
  llvm.mlir.global internal constant @constant_738("constant_738\00") {addr_space = 0 : i32}
  llvm.mlir.global internal constant @constant_735("constant_735\00") {addr_space = 0 : i32}
  llvm.mlir.global internal constant @constant_734("constant_734\00") {addr_space = 0 : i32}
  llvm.mlir.global internal constant @constant_731("constant_731\00") {addr_space = 0 : i32}
  llvm.mlir.global internal constant @constant_729("constant_729\00") {addr_space = 0 : i32}
  llvm.mlir.global internal constant @constant_728("constant_728\00") {addr_space = 0 : i32}
  llvm.mlir.global internal constant @constant_721("constant_721\00") {addr_space = 0 : i32}
  llvm.mlir.global internal constant @constant_720("constant_720\00") {addr_space = 0 : i32}
  llvm.mlir.global internal constant @constant_717("constant_717\00") {addr_space = 0 : i32}
  llvm.mlir.global internal constant @constant_716("constant_716\00") {addr_space = 0 : i32}
  llvm.mlir.global internal constant @constant_715("constant_715\00") {addr_space = 0 : i32}
  llvm.mlir.global internal constant @constant_714("constant_714\00") {addr_space = 0 : i32}
  llvm.mlir.global internal constant @constant_713("constant_713\00") {addr_space = 0 : i32}
  llvm.mlir.global internal constant @constant_710("constant_710\00") {addr_space = 0 : i32}
  llvm.mlir.global internal constant @constant_709("constant_709\00") {addr_space = 0 : i32}
  llvm.mlir.global internal constant @constant_706("constant_706\00") {addr_space = 0 : i32}
  llvm.mlir.global internal constant @constant_704("constant_704\00") {addr_space = 0 : i32}
  llvm.mlir.global internal constant @constant_703("constant_703\00") {addr_space = 0 : i32}
  llvm.mlir.global internal constant @constant_696("constant_696\00") {addr_space = 0 : i32}
  llvm.mlir.global internal constant @constant_695("constant_695\00") {addr_space = 0 : i32}
  llvm.mlir.global internal constant @constant_692("constant_692\00") {addr_space = 0 : i32}
  llvm.mlir.global internal constant @constant_691("constant_691\00") {addr_space = 0 : i32}
  llvm.mlir.global internal constant @constant_690("constant_690\00") {addr_space = 0 : i32}
  llvm.mlir.global internal constant @constant_689("constant_689\00") {addr_space = 0 : i32}
  llvm.mlir.global internal constant @constant_688("constant_688\00") {addr_space = 0 : i32}
  llvm.mlir.global internal constant @constant_685("constant_685\00") {addr_space = 0 : i32}
  llvm.mlir.global internal constant @constant_684("constant_684\00") {addr_space = 0 : i32}
  llvm.mlir.global internal constant @constant_681("constant_681\00") {addr_space = 0 : i32}
  llvm.mlir.global internal constant @constant_679("constant_679\00") {addr_space = 0 : i32}
  llvm.mlir.global internal constant @constant_678("constant_678\00") {addr_space = 0 : i32}
  llvm.mlir.global internal constant @constant_671("constant_671\00") {addr_space = 0 : i32}
  llvm.mlir.global internal constant @constant_670("constant_670\00") {addr_space = 0 : i32}
  llvm.mlir.global internal constant @constant_667("constant_667\00") {addr_space = 0 : i32}
  llvm.mlir.global internal constant @constant_666("constant_666\00") {addr_space = 0 : i32}
  llvm.mlir.global internal constant @constant_665("constant_665\00") {addr_space = 0 : i32}
  llvm.mlir.global internal constant @constant_664("constant_664\00") {addr_space = 0 : i32}
  llvm.mlir.global internal constant @constant_663("constant_663\00") {addr_space = 0 : i32}
  llvm.mlir.global internal constant @constant_660("constant_660\00") {addr_space = 0 : i32}
  llvm.mlir.global internal constant @constant_659("constant_659\00") {addr_space = 0 : i32}
  llvm.mlir.global internal constant @constant_656("constant_656\00") {addr_space = 0 : i32}
  llvm.mlir.global internal constant @constant_654("constant_654\00") {addr_space = 0 : i32}
  llvm.mlir.global internal constant @constant_653("constant_653\00") {addr_space = 0 : i32}
  llvm.mlir.global internal constant @constant_646("constant_646\00") {addr_space = 0 : i32}
  llvm.mlir.global internal constant @constant_645("constant_645\00") {addr_space = 0 : i32}
  llvm.mlir.global internal constant @constant_642("constant_642\00") {addr_space = 0 : i32}
  llvm.mlir.global internal constant @constant_641("constant_641\00") {addr_space = 0 : i32}
  llvm.mlir.global internal constant @constant_640("constant_640\00") {addr_space = 0 : i32}
  llvm.mlir.global internal constant @constant_639("constant_639\00") {addr_space = 0 : i32}
  llvm.mlir.global internal constant @constant_638("constant_638\00") {addr_space = 0 : i32}
  llvm.mlir.global internal constant @constant_635("constant_635\00") {addr_space = 0 : i32}
  llvm.mlir.global internal constant @constant_634("constant_634\00") {addr_space = 0 : i32}
  llvm.mlir.global internal constant @constant_631("constant_631\00") {addr_space = 0 : i32}
  llvm.mlir.global internal constant @constant_629("constant_629\00") {addr_space = 0 : i32}
  llvm.mlir.global internal constant @constant_628("constant_628\00") {addr_space = 0 : i32}
  llvm.mlir.global internal constant @constant_621("constant_621\00") {addr_space = 0 : i32}
  llvm.mlir.global internal constant @constant_620("constant_620\00") {addr_space = 0 : i32}
  llvm.mlir.global internal constant @constant_617("constant_617\00") {addr_space = 0 : i32}
  llvm.mlir.global internal constant @constant_616("constant_616\00") {addr_space = 0 : i32}
  llvm.mlir.global internal constant @constant_615("constant_615\00") {addr_space = 0 : i32}
  llvm.mlir.global internal constant @constant_614("constant_614\00") {addr_space = 0 : i32}
  llvm.mlir.global internal constant @constant_613("constant_613\00") {addr_space = 0 : i32}
  llvm.mlir.global internal constant @constant_610("constant_610\00") {addr_space = 0 : i32}
  llvm.mlir.global internal constant @constant_609("constant_609\00") {addr_space = 0 : i32}
  llvm.mlir.global internal constant @constant_606("constant_606\00") {addr_space = 0 : i32}
  llvm.mlir.global internal constant @constant_604("constant_604\00") {addr_space = 0 : i32}
  llvm.mlir.global internal constant @constant_603("constant_603\00") {addr_space = 0 : i32}
  llvm.mlir.global internal constant @constant_596("constant_596\00") {addr_space = 0 : i32}
  llvm.mlir.global internal constant @constant_595("constant_595\00") {addr_space = 0 : i32}
  llvm.mlir.global internal constant @constant_592("constant_592\00") {addr_space = 0 : i32}
  llvm.mlir.global internal constant @constant_591("constant_591\00") {addr_space = 0 : i32}
  llvm.mlir.global internal constant @constant_590("constant_590\00") {addr_space = 0 : i32}
  llvm.mlir.global internal constant @constant_589("constant_589\00") {addr_space = 0 : i32}
  llvm.mlir.global internal constant @constant_588("constant_588\00") {addr_space = 0 : i32}
  llvm.mlir.global internal constant @constant_585("constant_585\00") {addr_space = 0 : i32}
  llvm.mlir.global internal constant @constant_584("constant_584\00") {addr_space = 0 : i32}
  llvm.mlir.global internal constant @constant_581("constant_581\00") {addr_space = 0 : i32}
  llvm.mlir.global internal constant @constant_579("constant_579\00") {addr_space = 0 : i32}
  llvm.mlir.global internal constant @constant_578("constant_578\00") {addr_space = 0 : i32}
  llvm.mlir.global internal constant @constant_571("constant_571\00") {addr_space = 0 : i32}
  llvm.mlir.global internal constant @constant_570("constant_570\00") {addr_space = 0 : i32}
  llvm.mlir.global internal constant @constant_567("constant_567\00") {addr_space = 0 : i32}
  llvm.mlir.global internal constant @constant_566("constant_566\00") {addr_space = 0 : i32}
  llvm.mlir.global internal constant @constant_565("constant_565\00") {addr_space = 0 : i32}
  llvm.mlir.global internal constant @constant_564("constant_564\00") {addr_space = 0 : i32}
  llvm.mlir.global internal constant @constant_563("constant_563\00") {addr_space = 0 : i32}
  llvm.mlir.global internal constant @constant_560("constant_560\00") {addr_space = 0 : i32}
  llvm.mlir.global internal constant @constant_559("constant_559\00") {addr_space = 0 : i32}
  llvm.mlir.global internal constant @constant_556("constant_556\00") {addr_space = 0 : i32}
  llvm.mlir.global internal constant @constant_554("constant_554\00") {addr_space = 0 : i32}
  llvm.mlir.global internal constant @constant_553("constant_553\00") {addr_space = 0 : i32}
  llvm.mlir.global internal constant @constant_546("constant_546\00") {addr_space = 0 : i32}
  llvm.mlir.global internal constant @constant_545("constant_545\00") {addr_space = 0 : i32}
  llvm.mlir.global internal constant @constant_542("constant_542\00") {addr_space = 0 : i32}
  llvm.mlir.global internal constant @constant_541("constant_541\00") {addr_space = 0 : i32}
  llvm.mlir.global internal constant @constant_540("constant_540\00") {addr_space = 0 : i32}
  llvm.mlir.global internal constant @constant_539("constant_539\00") {addr_space = 0 : i32}
  llvm.mlir.global internal constant @constant_538("constant_538\00") {addr_space = 0 : i32}
  llvm.mlir.global internal constant @constant_535("constant_535\00") {addr_space = 0 : i32}
  llvm.mlir.global internal constant @constant_534("constant_534\00") {addr_space = 0 : i32}
  llvm.mlir.global internal constant @constant_531("constant_531\00") {addr_space = 0 : i32}
  llvm.mlir.global internal constant @constant_529("constant_529\00") {addr_space = 0 : i32}
  llvm.mlir.global internal constant @constant_528("constant_528\00") {addr_space = 0 : i32}
  llvm.mlir.global internal constant @constant_521("constant_521\00") {addr_space = 0 : i32}
  llvm.mlir.global internal constant @constant_520("constant_520\00") {addr_space = 0 : i32}
  llvm.mlir.global internal constant @constant_517("constant_517\00") {addr_space = 0 : i32}
  llvm.mlir.global internal constant @constant_516("constant_516\00") {addr_space = 0 : i32}
  llvm.mlir.global internal constant @constant_515("constant_515\00") {addr_space = 0 : i32}
  llvm.mlir.global internal constant @constant_514("constant_514\00") {addr_space = 0 : i32}
  llvm.mlir.global internal constant @constant_513("constant_513\00") {addr_space = 0 : i32}
  llvm.mlir.global internal constant @constant_510("constant_510\00") {addr_space = 0 : i32}
  llvm.mlir.global internal constant @constant_509("constant_509\00") {addr_space = 0 : i32}
  llvm.mlir.global internal constant @constant_506("constant_506\00") {addr_space = 0 : i32}
  llvm.mlir.global internal constant @constant_504("constant_504\00") {addr_space = 0 : i32}
  llvm.mlir.global internal constant @constant_503("constant_503\00") {addr_space = 0 : i32}
  llvm.mlir.global internal constant @constant_496("constant_496\00") {addr_space = 0 : i32}
  llvm.mlir.global internal constant @constant_495("constant_495\00") {addr_space = 0 : i32}
  llvm.mlir.global internal constant @constant_492("constant_492\00") {addr_space = 0 : i32}
  llvm.mlir.global internal constant @constant_491("constant_491\00") {addr_space = 0 : i32}
  llvm.mlir.global internal constant @constant_490("constant_490\00") {addr_space = 0 : i32}
  llvm.mlir.global internal constant @constant_489("constant_489\00") {addr_space = 0 : i32}
  llvm.mlir.global internal constant @constant_488("constant_488\00") {addr_space = 0 : i32}
  llvm.mlir.global internal constant @constant_485("constant_485\00") {addr_space = 0 : i32}
  llvm.mlir.global internal constant @constant_484("constant_484\00") {addr_space = 0 : i32}
  llvm.mlir.global internal constant @constant_481("constant_481\00") {addr_space = 0 : i32}
  llvm.mlir.global internal constant @constant_479("constant_479\00") {addr_space = 0 : i32}
  llvm.mlir.global internal constant @constant_478("constant_478\00") {addr_space = 0 : i32}
  llvm.mlir.global internal constant @constant_471("constant_471\00") {addr_space = 0 : i32}
  llvm.mlir.global internal constant @constant_470("constant_470\00") {addr_space = 0 : i32}
  llvm.mlir.global internal constant @constant_467("constant_467\00") {addr_space = 0 : i32}
  llvm.mlir.global internal constant @constant_466("constant_466\00") {addr_space = 0 : i32}
  llvm.mlir.global internal constant @constant_465("constant_465\00") {addr_space = 0 : i32}
  llvm.mlir.global internal constant @constant_464("constant_464\00") {addr_space = 0 : i32}
  llvm.mlir.global internal constant @constant_463("constant_463\00") {addr_space = 0 : i32}
  llvm.mlir.global internal constant @constant_460("constant_460\00") {addr_space = 0 : i32}
  llvm.mlir.global internal constant @constant_459("constant_459\00") {addr_space = 0 : i32}
  llvm.mlir.global internal constant @constant_456("constant_456\00") {addr_space = 0 : i32}
  llvm.mlir.global internal constant @constant_454("constant_454\00") {addr_space = 0 : i32}
  llvm.mlir.global internal constant @constant_453("constant_453\00") {addr_space = 0 : i32}
  llvm.mlir.global internal constant @constant_446("constant_446\00") {addr_space = 0 : i32}
  llvm.mlir.global internal constant @constant_445("constant_445\00") {addr_space = 0 : i32}
  llvm.mlir.global internal constant @constant_442("constant_442\00") {addr_space = 0 : i32}
  llvm.mlir.global internal constant @constant_441("constant_441\00") {addr_space = 0 : i32}
  llvm.mlir.global internal constant @constant_440("constant_440\00") {addr_space = 0 : i32}
  llvm.mlir.global internal constant @constant_439("constant_439\00") {addr_space = 0 : i32}
  llvm.mlir.global internal constant @constant_438("constant_438\00") {addr_space = 0 : i32}
  llvm.mlir.global internal constant @constant_435("constant_435\00") {addr_space = 0 : i32}
  llvm.mlir.global internal constant @constant_434("constant_434\00") {addr_space = 0 : i32}
  llvm.mlir.global internal constant @constant_431("constant_431\00") {addr_space = 0 : i32}
  llvm.mlir.global internal constant @constant_429("constant_429\00") {addr_space = 0 : i32}
  llvm.mlir.global internal constant @constant_428("constant_428\00") {addr_space = 0 : i32}
  llvm.mlir.global internal constant @constant_421("constant_421\00") {addr_space = 0 : i32}
  llvm.mlir.global internal constant @constant_420("constant_420\00") {addr_space = 0 : i32}
  llvm.mlir.global internal constant @constant_417("constant_417\00") {addr_space = 0 : i32}
  llvm.mlir.global internal constant @constant_416("constant_416\00") {addr_space = 0 : i32}
  llvm.mlir.global internal constant @constant_415("constant_415\00") {addr_space = 0 : i32}
  llvm.mlir.global internal constant @constant_414("constant_414\00") {addr_space = 0 : i32}
  llvm.mlir.global internal constant @constant_413("constant_413\00") {addr_space = 0 : i32}
  llvm.mlir.global internal constant @constant_410("constant_410\00") {addr_space = 0 : i32}
  llvm.mlir.global internal constant @constant_409("constant_409\00") {addr_space = 0 : i32}
  llvm.mlir.global internal constant @constant_406("constant_406\00") {addr_space = 0 : i32}
  llvm.mlir.global internal constant @constant_404("constant_404\00") {addr_space = 0 : i32}
  llvm.mlir.global internal constant @constant_403("constant_403\00") {addr_space = 0 : i32}
  llvm.mlir.global internal constant @constant_396("constant_396\00") {addr_space = 0 : i32}
  llvm.mlir.global internal constant @constant_395("constant_395\00") {addr_space = 0 : i32}
  llvm.mlir.global internal constant @constant_392("constant_392\00") {addr_space = 0 : i32}
  llvm.mlir.global internal constant @constant_391("constant_391\00") {addr_space = 0 : i32}
  llvm.mlir.global internal constant @constant_390("constant_390\00") {addr_space = 0 : i32}
  llvm.mlir.global internal constant @constant_389("constant_389\00") {addr_space = 0 : i32}
  llvm.mlir.global internal constant @constant_388("constant_388\00") {addr_space = 0 : i32}
  llvm.mlir.global internal constant @constant_385("constant_385\00") {addr_space = 0 : i32}
  llvm.mlir.global internal constant @constant_384("constant_384\00") {addr_space = 0 : i32}
  llvm.mlir.global internal constant @constant_381("constant_381\00") {addr_space = 0 : i32}
  llvm.mlir.global internal constant @constant_379("constant_379\00") {addr_space = 0 : i32}
  llvm.mlir.global internal constant @constant_378("constant_378\00") {addr_space = 0 : i32}
  llvm.mlir.global internal constant @constant_371("constant_371\00") {addr_space = 0 : i32}
  llvm.mlir.global internal constant @constant_370("constant_370\00") {addr_space = 0 : i32}
  llvm.mlir.global internal constant @constant_367("constant_367\00") {addr_space = 0 : i32}
  llvm.mlir.global internal constant @constant_366("constant_366\00") {addr_space = 0 : i32}
  llvm.mlir.global internal constant @constant_365("constant_365\00") {addr_space = 0 : i32}
  llvm.mlir.global internal constant @constant_364("constant_364\00") {addr_space = 0 : i32}
  llvm.mlir.global internal constant @constant_363("constant_363\00") {addr_space = 0 : i32}
  llvm.mlir.global internal constant @constant_360("constant_360\00") {addr_space = 0 : i32}
  llvm.mlir.global internal constant @constant_359("constant_359\00") {addr_space = 0 : i32}
  llvm.mlir.global internal constant @constant_356("constant_356\00") {addr_space = 0 : i32}
  llvm.mlir.global internal constant @constant_354("constant_354\00") {addr_space = 0 : i32}
  llvm.mlir.global internal constant @constant_353("constant_353\00") {addr_space = 0 : i32}
  llvm.mlir.global internal constant @constant_346("constant_346\00") {addr_space = 0 : i32}
  llvm.mlir.global internal constant @constant_345("constant_345\00") {addr_space = 0 : i32}
  llvm.mlir.global internal constant @constant_342("constant_342\00") {addr_space = 0 : i32}
  llvm.mlir.global internal constant @constant_341("constant_341\00") {addr_space = 0 : i32}
  llvm.mlir.global internal constant @constant_340("constant_340\00") {addr_space = 0 : i32}
  llvm.mlir.global internal constant @constant_339("constant_339\00") {addr_space = 0 : i32}
  llvm.mlir.global internal constant @constant_338("constant_338\00") {addr_space = 0 : i32}
  llvm.mlir.global internal constant @constant_335("constant_335\00") {addr_space = 0 : i32}
  llvm.mlir.global internal constant @constant_334("constant_334\00") {addr_space = 0 : i32}
  llvm.mlir.global internal constant @constant_331("constant_331\00") {addr_space = 0 : i32}
  llvm.mlir.global internal constant @constant_329("constant_329\00") {addr_space = 0 : i32}
  llvm.mlir.global internal constant @constant_328("constant_328\00") {addr_space = 0 : i32}
  llvm.mlir.global internal constant @constant_321("constant_321\00") {addr_space = 0 : i32}
  llvm.mlir.global internal constant @constant_320("constant_320\00") {addr_space = 0 : i32}
  llvm.mlir.global internal constant @constant_317("constant_317\00") {addr_space = 0 : i32}
  llvm.mlir.global internal constant @constant_316("constant_316\00") {addr_space = 0 : i32}
  llvm.mlir.global internal constant @constant_315("constant_315\00") {addr_space = 0 : i32}
  llvm.mlir.global internal constant @constant_314("constant_314\00") {addr_space = 0 : i32}
  llvm.mlir.global internal constant @constant_313("constant_313\00") {addr_space = 0 : i32}
  llvm.mlir.global internal constant @constant_310("constant_310\00") {addr_space = 0 : i32}
  llvm.mlir.global internal constant @constant_309("constant_309\00") {addr_space = 0 : i32}
  llvm.mlir.global internal constant @constant_306("constant_306\00") {addr_space = 0 : i32}
  func.func private @read_tensor_i1(!llvm.ptr<i8>, memref<*xi1>) attributes {llvm.emit_c_interface}
  llvm.mlir.global internal constant @constant_305("constant_305\00") {addr_space = 0 : i32}
  llvm.mlir.global internal constant @constant_303("constant_303\00") {addr_space = 0 : i32}
  llvm.mlir.global internal constant @constant_302("constant_302\00") {addr_space = 0 : i32}
  llvm.mlir.global internal constant @constant_295("constant_295\00") {addr_space = 0 : i32}
  llvm.mlir.global internal constant @constant_294("constant_294\00") {addr_space = 0 : i32}
  llvm.mlir.global internal constant @constant_293("constant_293\00") {addr_space = 0 : i32}
  llvm.mlir.global internal constant @constant_291("constant_291\00") {addr_space = 0 : i32}
  llvm.mlir.global internal constant @constant_290("constant_290\00") {addr_space = 0 : i32}
  llvm.mlir.global internal constant @constant_289("constant_289\00") {addr_space = 0 : i32}
  llvm.mlir.global internal constant @constant_288("constant_288\00") {addr_space = 0 : i32}
  llvm.mlir.global internal constant @constant_287("constant_287\00") {addr_space = 0 : i32}
  llvm.mlir.global internal constant @constant_286("constant_286\00") {addr_space = 0 : i32}
  llvm.mlir.global internal constant @constant_285("constant_285\00") {addr_space = 0 : i32}
  llvm.mlir.global internal constant @constant_284("constant_284\00") {addr_space = 0 : i32}
  llvm.mlir.global internal constant @constant_283("constant_283\00") {addr_space = 0 : i32}
  llvm.mlir.global internal constant @constant_282("constant_282\00") {addr_space = 0 : i32}
  llvm.mlir.global internal constant @constant_281("constant_281\00") {addr_space = 0 : i32}
  llvm.mlir.global internal constant @constant_280("constant_280\00") {addr_space = 0 : i32}
  llvm.mlir.global internal constant @constant_279("constant_279\00") {addr_space = 0 : i32}
  llvm.mlir.global internal constant @constant_278("constant_278\00") {addr_space = 0 : i32}
  llvm.mlir.global internal constant @constant_277("constant_277\00") {addr_space = 0 : i32}
  llvm.mlir.global internal constant @constant_276("constant_276\00") {addr_space = 0 : i32}
  llvm.mlir.global internal constant @constant_275("constant_275\00") {addr_space = 0 : i32}
  llvm.mlir.global internal constant @constant_274("constant_274\00") {addr_space = 0 : i32}
  llvm.mlir.global internal constant @constant_273("constant_273\00") {addr_space = 0 : i32}
  llvm.mlir.global internal constant @constant_272("constant_272\00") {addr_space = 0 : i32}
  llvm.mlir.global internal constant @constant_271("constant_271\00") {addr_space = 0 : i32}
  llvm.mlir.global internal constant @constant_270("constant_270\00") {addr_space = 0 : i32}
  llvm.mlir.global internal constant @constant_269("constant_269\00") {addr_space = 0 : i32}
  llvm.mlir.global internal constant @constant_268("constant_268\00") {addr_space = 0 : i32}
  llvm.mlir.global internal constant @constant_267("constant_267\00") {addr_space = 0 : i32}
  llvm.mlir.global internal constant @constant_266("constant_266\00") {addr_space = 0 : i32}
  llvm.mlir.global internal constant @constant_265("constant_265\00") {addr_space = 0 : i32}
  llvm.mlir.global internal constant @constant_264("constant_264\00") {addr_space = 0 : i32}
  llvm.mlir.global internal constant @constant_263("constant_263\00") {addr_space = 0 : i32}
  llvm.mlir.global internal constant @constant_262("constant_262\00") {addr_space = 0 : i32}
  llvm.mlir.global internal constant @constant_261("constant_261\00") {addr_space = 0 : i32}
  llvm.mlir.global internal constant @constant_260("constant_260\00") {addr_space = 0 : i32}
  llvm.mlir.global internal constant @constant_259("constant_259\00") {addr_space = 0 : i32}
  llvm.mlir.global internal constant @constant_258("constant_258\00") {addr_space = 0 : i32}
  llvm.mlir.global internal constant @constant_257("constant_257\00") {addr_space = 0 : i32}
  llvm.mlir.global internal constant @constant_256("constant_256\00") {addr_space = 0 : i32}
  llvm.mlir.global internal constant @constant_255("constant_255\00") {addr_space = 0 : i32}
  llvm.mlir.global internal constant @constant_254("constant_254\00") {addr_space = 0 : i32}
  llvm.mlir.global internal constant @constant_253("constant_253\00") {addr_space = 0 : i32}
  llvm.mlir.global internal constant @constant_252("constant_252\00") {addr_space = 0 : i32}
  llvm.mlir.global internal constant @constant_251("constant_251\00") {addr_space = 0 : i32}
  llvm.mlir.global internal constant @constant_250("constant_250\00") {addr_space = 0 : i32}
  llvm.mlir.global internal constant @constant_249("constant_249\00") {addr_space = 0 : i32}
  llvm.mlir.global internal constant @constant_248("constant_248\00") {addr_space = 0 : i32}
  llvm.mlir.global internal constant @constant_247("constant_247\00") {addr_space = 0 : i32}
  llvm.mlir.global internal constant @constant_246("constant_246\00") {addr_space = 0 : i32}
  llvm.mlir.global internal constant @constant_245("constant_245\00") {addr_space = 0 : i32}
  llvm.mlir.global internal constant @constant_244("constant_244\00") {addr_space = 0 : i32}
  llvm.mlir.global internal constant @constant_243("constant_243\00") {addr_space = 0 : i32}
  llvm.mlir.global internal constant @constant_242("constant_242\00") {addr_space = 0 : i32}
  llvm.mlir.global internal constant @constant_241("constant_241\00") {addr_space = 0 : i32}
  llvm.mlir.global internal constant @constant_240("constant_240\00") {addr_space = 0 : i32}
  llvm.mlir.global internal constant @constant_239("constant_239\00") {addr_space = 0 : i32}
  llvm.mlir.global internal constant @constant_238("constant_238\00") {addr_space = 0 : i32}
  llvm.mlir.global internal constant @constant_237("constant_237\00") {addr_space = 0 : i32}
  llvm.mlir.global internal constant @constant_236("constant_236\00") {addr_space = 0 : i32}
  llvm.mlir.global internal constant @constant_235("constant_235\00") {addr_space = 0 : i32}
  llvm.mlir.global internal constant @constant_234("constant_234\00") {addr_space = 0 : i32}
  llvm.mlir.global internal constant @constant_233("constant_233\00") {addr_space = 0 : i32}
  llvm.mlir.global internal constant @constant_232("constant_232\00") {addr_space = 0 : i32}
  llvm.mlir.global internal constant @constant_231("constant_231\00") {addr_space = 0 : i32}
  llvm.mlir.global internal constant @constant_230("constant_230\00") {addr_space = 0 : i32}
  llvm.mlir.global internal constant @constant_229("constant_229\00") {addr_space = 0 : i32}
  llvm.mlir.global internal constant @constant_228("constant_228\00") {addr_space = 0 : i32}
  llvm.mlir.global internal constant @constant_227("constant_227\00") {addr_space = 0 : i32}
  llvm.mlir.global internal constant @constant_226("constant_226\00") {addr_space = 0 : i32}
  llvm.mlir.global internal constant @constant_225("constant_225\00") {addr_space = 0 : i32}
  llvm.mlir.global internal constant @constant_224("constant_224\00") {addr_space = 0 : i32}
  llvm.mlir.global internal constant @constant_223("constant_223\00") {addr_space = 0 : i32}
  llvm.mlir.global internal constant @constant_222("constant_222\00") {addr_space = 0 : i32}
  llvm.mlir.global internal constant @constant_221("constant_221\00") {addr_space = 0 : i32}
  llvm.mlir.global internal constant @constant_220("constant_220\00") {addr_space = 0 : i32}
  llvm.mlir.global internal constant @constant_219("constant_219\00") {addr_space = 0 : i32}
  llvm.mlir.global internal constant @constant_218("constant_218\00") {addr_space = 0 : i32}
  llvm.mlir.global internal constant @constant_217("constant_217\00") {addr_space = 0 : i32}
  llvm.mlir.global internal constant @constant_216("constant_216\00") {addr_space = 0 : i32}
  llvm.mlir.global internal constant @constant_215("constant_215\00") {addr_space = 0 : i32}
  llvm.mlir.global internal constant @constant_214("constant_214\00") {addr_space = 0 : i32}
  llvm.mlir.global internal constant @constant_213("constant_213\00") {addr_space = 0 : i32}
  llvm.mlir.global internal constant @constant_212("constant_212\00") {addr_space = 0 : i32}
  llvm.mlir.global internal constant @constant_211("constant_211\00") {addr_space = 0 : i32}
  llvm.mlir.global internal constant @constant_210("constant_210\00") {addr_space = 0 : i32}
  llvm.mlir.global internal constant @constant_209("constant_209\00") {addr_space = 0 : i32}
  llvm.mlir.global internal constant @constant_208("constant_208\00") {addr_space = 0 : i32}
  llvm.mlir.global internal constant @constant_207("constant_207\00") {addr_space = 0 : i32}
  llvm.mlir.global internal constant @constant_206("constant_206\00") {addr_space = 0 : i32}
  llvm.mlir.global internal constant @constant_205("constant_205\00") {addr_space = 0 : i32}
  llvm.mlir.global internal constant @constant_204("constant_204\00") {addr_space = 0 : i32}
  llvm.mlir.global internal constant @constant_203("constant_203\00") {addr_space = 0 : i32}
  llvm.mlir.global internal constant @constant_202("constant_202\00") {addr_space = 0 : i32}
  llvm.mlir.global internal constant @constant_201("constant_201\00") {addr_space = 0 : i32}
  llvm.mlir.global internal constant @constant_200("constant_200\00") {addr_space = 0 : i32}
  llvm.mlir.global internal constant @constant_199("constant_199\00") {addr_space = 0 : i32}
  llvm.mlir.global internal constant @constant_198("constant_198\00") {addr_space = 0 : i32}
  llvm.mlir.global internal constant @constant_197("constant_197\00") {addr_space = 0 : i32}
  llvm.mlir.global internal constant @constant_196("constant_196\00") {addr_space = 0 : i32}
  llvm.mlir.global internal constant @constant_195("constant_195\00") {addr_space = 0 : i32}
  llvm.mlir.global internal constant @constant_194("constant_194\00") {addr_space = 0 : i32}
  llvm.mlir.global internal constant @constant_193("constant_193\00") {addr_space = 0 : i32}
  llvm.mlir.global internal constant @constant_192("constant_192\00") {addr_space = 0 : i32}
  llvm.mlir.global internal constant @constant_191("constant_191\00") {addr_space = 0 : i32}
  llvm.mlir.global internal constant @constant_190("constant_190\00") {addr_space = 0 : i32}
  llvm.mlir.global internal constant @constant_189("constant_189\00") {addr_space = 0 : i32}
  llvm.mlir.global internal constant @constant_188("constant_188\00") {addr_space = 0 : i32}
  llvm.mlir.global internal constant @constant_187("constant_187\00") {addr_space = 0 : i32}
  llvm.mlir.global internal constant @constant_186("constant_186\00") {addr_space = 0 : i32}
  llvm.mlir.global internal constant @constant_185("constant_185\00") {addr_space = 0 : i32}
  llvm.mlir.global internal constant @constant_184("constant_184\00") {addr_space = 0 : i32}
  llvm.mlir.global internal constant @constant_183("constant_183\00") {addr_space = 0 : i32}
  llvm.mlir.global internal constant @constant_182("constant_182\00") {addr_space = 0 : i32}
  llvm.mlir.global internal constant @constant_181("constant_181\00") {addr_space = 0 : i32}
  llvm.mlir.global internal constant @constant_180("constant_180\00") {addr_space = 0 : i32}
  llvm.mlir.global internal constant @constant_179("constant_179\00") {addr_space = 0 : i32}
  llvm.mlir.global internal constant @constant_178("constant_178\00") {addr_space = 0 : i32}
  llvm.mlir.global internal constant @constant_177("constant_177\00") {addr_space = 0 : i32}
  llvm.mlir.global internal constant @constant_176("constant_176\00") {addr_space = 0 : i32}
  llvm.mlir.global internal constant @constant_175("constant_175\00") {addr_space = 0 : i32}
  llvm.mlir.global internal constant @constant_174("constant_174\00") {addr_space = 0 : i32}
  llvm.mlir.global internal constant @constant_173("constant_173\00") {addr_space = 0 : i32}
  llvm.mlir.global internal constant @constant_172("constant_172\00") {addr_space = 0 : i32}
  llvm.mlir.global internal constant @constant_171("constant_171\00") {addr_space = 0 : i32}
  llvm.mlir.global internal constant @constant_170("constant_170\00") {addr_space = 0 : i32}
  llvm.mlir.global internal constant @constant_169("constant_169\00") {addr_space = 0 : i32}
  llvm.mlir.global internal constant @constant_168("constant_168\00") {addr_space = 0 : i32}
  llvm.mlir.global internal constant @constant_167("constant_167\00") {addr_space = 0 : i32}
  llvm.mlir.global internal constant @constant_166("constant_166\00") {addr_space = 0 : i32}
  llvm.mlir.global internal constant @constant_165("constant_165\00") {addr_space = 0 : i32}
  llvm.mlir.global internal constant @constant_164("constant_164\00") {addr_space = 0 : i32}
  llvm.mlir.global internal constant @constant_163("constant_163\00") {addr_space = 0 : i32}
  llvm.mlir.global internal constant @constant_162("constant_162\00") {addr_space = 0 : i32}
  llvm.mlir.global internal constant @constant_161("constant_161\00") {addr_space = 0 : i32}
  llvm.mlir.global internal constant @constant_160("constant_160\00") {addr_space = 0 : i32}
  llvm.mlir.global internal constant @constant_159("constant_159\00") {addr_space = 0 : i32}
  llvm.mlir.global internal constant @constant_158("constant_158\00") {addr_space = 0 : i32}
  llvm.mlir.global internal constant @constant_157("constant_157\00") {addr_space = 0 : i32}
  llvm.mlir.global internal constant @constant_156("constant_156\00") {addr_space = 0 : i32}
  llvm.mlir.global internal constant @constant_155("constant_155\00") {addr_space = 0 : i32}
  llvm.mlir.global internal constant @constant_154("constant_154\00") {addr_space = 0 : i32}
  llvm.mlir.global internal constant @constant_153("constant_153\00") {addr_space = 0 : i32}
  llvm.mlir.global internal constant @constant_152("constant_152\00") {addr_space = 0 : i32}
  llvm.mlir.global internal constant @constant_151("constant_151\00") {addr_space = 0 : i32}
  llvm.mlir.global internal constant @constant_150("constant_150\00") {addr_space = 0 : i32}
  llvm.mlir.global internal constant @constant_149("constant_149\00") {addr_space = 0 : i32}
  llvm.mlir.global internal constant @constant_148("constant_148\00") {addr_space = 0 : i32}
  llvm.mlir.global internal constant @constant_147("constant_147\00") {addr_space = 0 : i32}
  llvm.mlir.global internal constant @constant_146("constant_146\00") {addr_space = 0 : i32}
  llvm.mlir.global internal constant @constant_145("constant_145\00") {addr_space = 0 : i32}
  llvm.mlir.global internal constant @constant_144("constant_144\00") {addr_space = 0 : i32}
  llvm.mlir.global internal constant @constant_143("constant_143\00") {addr_space = 0 : i32}
  llvm.mlir.global internal constant @constant_142("constant_142\00") {addr_space = 0 : i32}
  llvm.mlir.global internal constant @constant_141("constant_141\00") {addr_space = 0 : i32}
  llvm.mlir.global internal constant @constant_140("constant_140\00") {addr_space = 0 : i32}
  llvm.mlir.global internal constant @constant_139("constant_139\00") {addr_space = 0 : i32}
  llvm.mlir.global internal constant @constant_138("constant_138\00") {addr_space = 0 : i32}
  llvm.mlir.global internal constant @constant_137("constant_137\00") {addr_space = 0 : i32}
  llvm.mlir.global internal constant @constant_136("constant_136\00") {addr_space = 0 : i32}
  llvm.mlir.global internal constant @constant_135("constant_135\00") {addr_space = 0 : i32}
  llvm.mlir.global internal constant @constant_134("constant_134\00") {addr_space = 0 : i32}
  llvm.mlir.global internal constant @constant_133("constant_133\00") {addr_space = 0 : i32}
  llvm.mlir.global internal constant @constant_132("constant_132\00") {addr_space = 0 : i32}
  llvm.mlir.global internal constant @constant_131("constant_131\00") {addr_space = 0 : i32}
  llvm.mlir.global internal constant @constant_130("constant_130\00") {addr_space = 0 : i32}
  llvm.mlir.global internal constant @constant_129("constant_129\00") {addr_space = 0 : i32}
  llvm.mlir.global internal constant @constant_128("constant_128\00") {addr_space = 0 : i32}
  llvm.mlir.global internal constant @constant_127("constant_127\00") {addr_space = 0 : i32}
  llvm.mlir.global internal constant @constant_126("constant_126\00") {addr_space = 0 : i32}
  llvm.mlir.global internal constant @constant_125("constant_125\00") {addr_space = 0 : i32}
  llvm.mlir.global internal constant @constant_124("constant_124\00") {addr_space = 0 : i32}
  llvm.mlir.global internal constant @constant_123("constant_123\00") {addr_space = 0 : i32}
  llvm.mlir.global internal constant @constant_122("constant_122\00") {addr_space = 0 : i32}
  llvm.mlir.global internal constant @constant_121("constant_121\00") {addr_space = 0 : i32}
  llvm.mlir.global internal constant @constant_120("constant_120\00") {addr_space = 0 : i32}
  llvm.mlir.global internal constant @constant_119("constant_119\00") {addr_space = 0 : i32}
  llvm.mlir.global internal constant @constant_118("constant_118\00") {addr_space = 0 : i32}
  llvm.mlir.global internal constant @constant_117("constant_117\00") {addr_space = 0 : i32}
  llvm.mlir.global internal constant @constant_116("constant_116\00") {addr_space = 0 : i32}
  llvm.mlir.global internal constant @constant_115("constant_115\00") {addr_space = 0 : i32}
  llvm.mlir.global internal constant @constant_114("constant_114\00") {addr_space = 0 : i32}
  llvm.mlir.global internal constant @constant_113("constant_113\00") {addr_space = 0 : i32}
  llvm.mlir.global internal constant @constant_112("constant_112\00") {addr_space = 0 : i32}
  llvm.mlir.global internal constant @constant_111("constant_111\00") {addr_space = 0 : i32}
  llvm.mlir.global internal constant @constant_110("constant_110\00") {addr_space = 0 : i32}
  llvm.mlir.global internal constant @constant_109("constant_109\00") {addr_space = 0 : i32}
  llvm.mlir.global internal constant @constant_108("constant_108\00") {addr_space = 0 : i32}
  llvm.mlir.global internal constant @constant_107("constant_107\00") {addr_space = 0 : i32}
  llvm.mlir.global internal constant @constant_106("constant_106\00") {addr_space = 0 : i32}
  llvm.mlir.global internal constant @constant_105("constant_105\00") {addr_space = 0 : i32}
  llvm.mlir.global internal constant @constant_104("constant_104\00") {addr_space = 0 : i32}
  llvm.mlir.global internal constant @constant_103("constant_103\00") {addr_space = 0 : i32}
  llvm.mlir.global internal constant @constant_102("constant_102\00") {addr_space = 0 : i32}
  llvm.mlir.global internal constant @constant_101("constant_101\00") {addr_space = 0 : i32}
  llvm.mlir.global internal constant @constant_100("constant_100\00") {addr_space = 0 : i32}
  llvm.mlir.global internal constant @constant_99("constant_99\00") {addr_space = 0 : i32}
  llvm.mlir.global internal constant @constant_98("constant_98\00") {addr_space = 0 : i32}
  llvm.mlir.global internal constant @constant_97("constant_97\00") {addr_space = 0 : i32}
  llvm.mlir.global internal constant @constant_96("constant_96\00") {addr_space = 0 : i32}
  llvm.mlir.global internal constant @constant_95("constant_95\00") {addr_space = 0 : i32}
  llvm.mlir.global internal constant @constant_94("constant_94\00") {addr_space = 0 : i32}
  llvm.mlir.global internal constant @constant_93("constant_93\00") {addr_space = 0 : i32}
  llvm.mlir.global internal constant @constant_92("constant_92\00") {addr_space = 0 : i32}
  llvm.mlir.global internal constant @constant_91("constant_91\00") {addr_space = 0 : i32}
  llvm.mlir.global internal constant @constant_90("constant_90\00") {addr_space = 0 : i32}
  llvm.mlir.global internal constant @constant_89("constant_89\00") {addr_space = 0 : i32}
  llvm.mlir.global internal constant @constant_88("constant_88\00") {addr_space = 0 : i32}
  llvm.mlir.global internal constant @constant_87("constant_87\00") {addr_space = 0 : i32}
  llvm.mlir.global internal constant @constant_86("constant_86\00") {addr_space = 0 : i32}
  llvm.mlir.global internal constant @constant_85("constant_85\00") {addr_space = 0 : i32}
  llvm.mlir.global internal constant @constant_84("constant_84\00") {addr_space = 0 : i32}
  llvm.mlir.global internal constant @constant_83("constant_83\00") {addr_space = 0 : i32}
  llvm.mlir.global internal constant @constant_82("constant_82\00") {addr_space = 0 : i32}
  llvm.mlir.global internal constant @constant_81("constant_81\00") {addr_space = 0 : i32}
  llvm.mlir.global internal constant @constant_80("constant_80\00") {addr_space = 0 : i32}
  llvm.mlir.global internal constant @constant_79("constant_79\00") {addr_space = 0 : i32}
  llvm.mlir.global internal constant @constant_78("constant_78\00") {addr_space = 0 : i32}
  llvm.mlir.global internal constant @constant_77("constant_77\00") {addr_space = 0 : i32}
  llvm.mlir.global internal constant @constant_76("constant_76\00") {addr_space = 0 : i32}
  llvm.mlir.global internal constant @constant_75("constant_75\00") {addr_space = 0 : i32}
  llvm.mlir.global internal constant @constant_74("constant_74\00") {addr_space = 0 : i32}
  llvm.mlir.global internal constant @constant_73("constant_73\00") {addr_space = 0 : i32}
  llvm.mlir.global internal constant @constant_72("constant_72\00") {addr_space = 0 : i32}
  llvm.mlir.global internal constant @constant_71("constant_71\00") {addr_space = 0 : i32}
  llvm.mlir.global internal constant @constant_70("constant_70\00") {addr_space = 0 : i32}
  llvm.mlir.global internal constant @constant_69("constant_69\00") {addr_space = 0 : i32}
  llvm.mlir.global internal constant @constant_68("constant_68\00") {addr_space = 0 : i32}
  llvm.mlir.global internal constant @constant_67("constant_67\00") {addr_space = 0 : i32}
  llvm.mlir.global internal constant @constant_66("constant_66\00") {addr_space = 0 : i32}
  llvm.mlir.global internal constant @constant_65("constant_65\00") {addr_space = 0 : i32}
  llvm.mlir.global internal constant @constant_64("constant_64\00") {addr_space = 0 : i32}
  llvm.mlir.global internal constant @constant_63("constant_63\00") {addr_space = 0 : i32}
  llvm.mlir.global internal constant @constant_62("constant_62\00") {addr_space = 0 : i32}
  llvm.mlir.global internal constant @constant_61("constant_61\00") {addr_space = 0 : i32}
  llvm.mlir.global internal constant @constant_60("constant_60\00") {addr_space = 0 : i32}
  llvm.mlir.global internal constant @constant_59("constant_59\00") {addr_space = 0 : i32}
  llvm.mlir.global internal constant @constant_58("constant_58\00") {addr_space = 0 : i32}
  llvm.mlir.global internal constant @constant_57("constant_57\00") {addr_space = 0 : i32}
  llvm.mlir.global internal constant @constant_56("constant_56\00") {addr_space = 0 : i32}
  llvm.mlir.global internal constant @constant_55("constant_55\00") {addr_space = 0 : i32}
  llvm.mlir.global internal constant @constant_54("constant_54\00") {addr_space = 0 : i32}
  llvm.mlir.global internal constant @constant_53("constant_53\00") {addr_space = 0 : i32}
  llvm.mlir.global internal constant @constant_52("constant_52\00") {addr_space = 0 : i32}
  llvm.mlir.global internal constant @constant_51("constant_51\00") {addr_space = 0 : i32}
  llvm.mlir.global internal constant @constant_50("constant_50\00") {addr_space = 0 : i32}
  llvm.mlir.global internal constant @constant_49("constant_49\00") {addr_space = 0 : i32}
  llvm.mlir.global internal constant @constant_48("constant_48\00") {addr_space = 0 : i32}
  llvm.mlir.global internal constant @constant_47("constant_47\00") {addr_space = 0 : i32}
  llvm.mlir.global internal constant @constant_46("constant_46\00") {addr_space = 0 : i32}
  llvm.mlir.global internal constant @constant_45("constant_45\00") {addr_space = 0 : i32}
  llvm.mlir.global internal constant @constant_44("constant_44\00") {addr_space = 0 : i32}
  llvm.mlir.global internal constant @constant_43("constant_43\00") {addr_space = 0 : i32}
  llvm.mlir.global internal constant @constant_42("constant_42\00") {addr_space = 0 : i32}
  llvm.mlir.global internal constant @constant_41("constant_41\00") {addr_space = 0 : i32}
  llvm.mlir.global internal constant @constant_40("constant_40\00") {addr_space = 0 : i32}
  llvm.mlir.global internal constant @constant_39("constant_39\00") {addr_space = 0 : i32}
  llvm.mlir.global internal constant @constant_38("constant_38\00") {addr_space = 0 : i32}
  llvm.mlir.global internal constant @constant_37("constant_37\00") {addr_space = 0 : i32}
  llvm.mlir.global internal constant @constant_36("constant_36\00") {addr_space = 0 : i32}
  llvm.mlir.global internal constant @constant_35("constant_35\00") {addr_space = 0 : i32}
  llvm.mlir.global internal constant @constant_34("constant_34\00") {addr_space = 0 : i32}
  llvm.mlir.global internal constant @constant_33("constant_33\00") {addr_space = 0 : i32}
  llvm.mlir.global internal constant @constant_32("constant_32\00") {addr_space = 0 : i32}
  llvm.mlir.global internal constant @constant_31("constant_31\00") {addr_space = 0 : i32}
  llvm.mlir.global internal constant @constant_30("constant_30\00") {addr_space = 0 : i32}
  llvm.mlir.global internal constant @constant_29("constant_29\00") {addr_space = 0 : i32}
  llvm.mlir.global internal constant @constant_28("constant_28\00") {addr_space = 0 : i32}
  llvm.mlir.global internal constant @constant_27("constant_27\00") {addr_space = 0 : i32}
  llvm.mlir.global internal constant @constant_26("constant_26\00") {addr_space = 0 : i32}
  llvm.mlir.global internal constant @constant_25("constant_25\00") {addr_space = 0 : i32}
  llvm.mlir.global internal constant @constant_24("constant_24\00") {addr_space = 0 : i32}
  llvm.mlir.global internal constant @constant_23("constant_23\00") {addr_space = 0 : i32}
  llvm.mlir.global internal constant @constant_22("constant_22\00") {addr_space = 0 : i32}
  llvm.mlir.global internal constant @constant_21("constant_21\00") {addr_space = 0 : i32}
  llvm.mlir.global internal constant @constant_20("constant_20\00") {addr_space = 0 : i32}
  llvm.mlir.global internal constant @constant_19("constant_19\00") {addr_space = 0 : i32}
  llvm.mlir.global internal constant @constant_18("constant_18\00") {addr_space = 0 : i32}
  llvm.mlir.global internal constant @constant_17("constant_17\00") {addr_space = 0 : i32}
  llvm.mlir.global internal constant @constant_16("constant_16\00") {addr_space = 0 : i32}
  llvm.mlir.global internal constant @constant_15("constant_15\00") {addr_space = 0 : i32}
  llvm.mlir.global internal constant @constant_14("constant_14\00") {addr_space = 0 : i32}
  llvm.mlir.global internal constant @constant_13("constant_13\00") {addr_space = 0 : i32}
  llvm.mlir.global internal constant @constant_12("constant_12\00") {addr_space = 0 : i32}
  llvm.mlir.global internal constant @constant_11("constant_11\00") {addr_space = 0 : i32}
  llvm.mlir.global internal constant @constant_10("constant_10\00") {addr_space = 0 : i32}
  llvm.mlir.global internal constant @constant_9("constant_9\00") {addr_space = 0 : i32}
  llvm.mlir.global internal constant @constant_8("constant_8\00") {addr_space = 0 : i32}
  llvm.mlir.global internal constant @constant_7("constant_7\00") {addr_space = 0 : i32}
  llvm.mlir.global internal constant @constant_6("constant_6\00") {addr_space = 0 : i32}
  llvm.mlir.global internal constant @constant_5("constant_5\00") {addr_space = 0 : i32}
  llvm.mlir.global internal constant @constant_4("constant_4\00") {addr_space = 0 : i32}
  llvm.mlir.global internal constant @constant_3("constant_3\00") {addr_space = 0 : i32}
  llvm.mlir.global internal constant @constant_2("constant_2\00") {addr_space = 0 : i32}
  llvm.mlir.global internal constant @constant_1("constant_1\00") {addr_space = 0 : i32}
  func.func private @read_tensor_f32(!llvm.ptr<i8>, memref<*xf32>) attributes {llvm.emit_c_interface}
  llvm.mlir.global internal constant @constant_0("constant_0\00") {addr_space = 0 : i32}
  func.func @main_graph(%arg0: memref<64x1xi64>, %arg1: !rmem.rmref<1, memref<64x16x255x64xf32>>, %arg2: !rmem.rmref<1, memref<64x16x255x64xf32>>, %arg3: !rmem.rmref<1, memref<64x16x255x64xf32>>, %arg4: !rmem.rmref<1, memref<64x16x255x64xf32>>, %arg5: !rmem.rmref<1, memref<64x16x255x64xf32>>, %arg6: !rmem.rmref<1, memref<64x16x255x64xf32>>, %arg7: !rmem.rmref<1, memref<64x16x255x64xf32>>, %arg8: !rmem.rmref<1, memref<64x16x255x64xf32>>, %arg9: !rmem.rmref<1, memref<64x16x255x64xf32>>, %arg10: !rmem.rmref<1, memref<64x16x255x64xf32>>, %arg11: !rmem.rmref<1, memref<64x16x255x64xf32>>, %arg12: !rmem.rmref<1, memref<64x16x255x64xf32>>, %arg13: !rmem.rmref<1, memref<64x16x255x64xf32>>, %arg14: !rmem.rmref<1, memref<64x16x255x64xf32>>, %arg15: !rmem.rmref<1, memref<64x16x255x64xf32>>, %arg16: !rmem.rmref<1, memref<64x16x255x64xf32>>, %arg17: !rmem.rmref<1, memref<64x16x255x64xf32>>, %arg18: !rmem.rmref<1, memref<64x16x255x64xf32>>, %arg19: !rmem.rmref<1, memref<64x16x255x64xf32>>, %arg20: !rmem.rmref<1, memref<64x16x255x64xf32>>, %arg21: !rmem.rmref<1, memref<64x16x255x64xf32>>, %arg22: !rmem.rmref<1, memref<64x16x255x64xf32>>, %arg23: !rmem.rmref<1, memref<64x16x255x64xf32>>, %arg24: !rmem.rmref<1, memref<64x16x255x64xf32>>, %arg25: !rmem.rmref<1, memref<64x16x255x64xf32>>, %arg26: !rmem.rmref<1, memref<64x16x255x64xf32>>, %arg27: !rmem.rmref<1, memref<64x16x255x64xf32>>, %arg28: !rmem.rmref<1, memref<64x16x255x64xf32>>, %arg29: !rmem.rmref<1, memref<64x16x255x64xf32>>, %arg30: !rmem.rmref<1, memref<64x16x255x64xf32>>, %arg31: !rmem.rmref<1, memref<64x16x255x64xf32>>, %arg32: !rmem.rmref<1, memref<64x16x255x64xf32>>, %arg33: !rmem.rmref<1, memref<64x16x255x64xf32>>, %arg34: !rmem.rmref<1, memref<64x16x255x64xf32>>, %arg35: !rmem.rmref<1, memref<64x16x255x64xf32>>, %arg36: !rmem.rmref<1, memref<64x16x255x64xf32>>, %arg37: !rmem.rmref<1, memref<64x16x255x64xf32>>, %arg38: !rmem.rmref<1, memref<64x16x255x64xf32>>, %arg39: !rmem.rmref<1, memref<64x16x255x64xf32>>, %arg40: !rmem.rmref<1, memref<64x16x255x64xf32>>, %arg41: !rmem.rmref<1, memref<64x16x255x64xf32>>, %arg42: !rmem.rmref<1, memref<64x16x255x64xf32>>, %arg43: !rmem.rmref<1, memref<64x16x255x64xf32>>, %arg44: !rmem.rmref<1, memref<64x16x255x64xf32>>, %arg45: !rmem.rmref<1, memref<64x16x255x64xf32>>, %arg46: !rmem.rmref<1, memref<64x16x255x64xf32>>, %arg47: !rmem.rmref<1, memref<64x16x255x64xf32>>, %arg48: !rmem.rmref<1, memref<64x16x255x64xf32>>) -> !rmem.rmref<1, memref<64x1x50264xf32>> attributes {access_mem_catcher = [["ref73", 1 : i32], ["ref74", 2 : i32], ["ref75", 3 : i32], ["ref76", 4 : i32], ["ref77", 5 : i32], ["ref78", 6 : i32], ["ref79", 7 : i32], ["ref80", 8 : i32], ["ref81", 9 : i32], ["ref82", 10 : i32], ["ref83", 11 : i32], ["ref84", 12 : i32], ["ref85", 13 : i32], ["ref86", 14 : i32], ["ref87", 15 : i32], ["ref88", 16 : i32], ["ref89", 17 : i32], ["ref90", 18 : i32], ["ref91", 19 : i32], ["ref92", 20 : i32], ["ref93", 21 : i32], ["ref94", 22 : i32], ["ref95", 23 : i32], ["ref96", 24 : i32], ["ref97", 25 : i32], ["ref98", 26 : i32], ["ref99", 27 : i32], ["ref100", 28 : i32], ["ref101", 29 : i32], ["ref102", 30 : i32], ["ref103", 31 : i32], ["ref104", 32 : i32], ["ref105", 33 : i32], ["ref106", 34 : i32], ["ref107", 35 : i32], ["ref108", 36 : i32], ["ref109", 37 : i32], ["ref110", 38 : i32], ["ref111", 39 : i32], ["ref112", 40 : i32], ["ref113", 41 : i32], ["ref114", 42 : i32], ["ref115", 43 : i32], ["ref116", 44 : i32], ["ref117", 45 : i32], ["ref118", 46 : i32], ["ref119", 47 : i32], ["ref120", 48 : i32]], input_names = ["input_ids", "past.0.key", "past.0.value", "past.1.key", "past.1.value", "past.2.key", "past.2.value", "past.3.key", "past.3.value", "past.4.key", "past.4.value", "past.5.key", "past.5.value", "past.6.key", "past.6.value", "past.7.key", "past.7.value", "past.8.key", "past.8.value", "past.9.key", "past.9.value", "past.10.key", "past.10.value", "past.11.key", "past.11.value", "past.12.key", "past.12.value", "past.13.key", "past.13.value", "past.14.key", "past.14.value", "past.15.key", "past.15.value", "past.16.key", "past.16.value", "past.17.key", "past.17.value", "past.18.key", "past.18.value", "past.19.key", "past.19.value", "past.20.key", "past.20.value", "past.21.key", "past.21.value", "past.22.key", "past.22.value", "past.23.key", "past.23.value"], llvm.emit_c_interface, output_names = ["logits"]} {
    %c262144 = arith.constant 262144 : index
    %c261120 = arith.constant 261120 : index
    %c1_i64 = arith.constant 1 : i64
    %c0_i64 = arith.constant 0 : i64
    %c1 = arith.constant 1 : index
    %c2 = arith.constant 2 : index
    %c3 = arith.constant 3 : index
    %c4 = arith.constant 4 : index
    %c5 = arith.constant 5 : index
    %c6 = arith.constant 6 : index
    %c7 = arith.constant 7 : index
    %c0 = arith.constant 0 : index
    %cst = arith.constant 1.024000e+03 : f32
    %cst_0 = arith.constant 0xFF800000 : f32
    %cst_1 = arith.constant 0.000000e+00 : f32
    %c50264 = arith.constant 50264 : index
    %alloc = memref.alloc() {alignment = 16 : i64} : memref<50264x1024xf32>
    %cast = memref.cast %alloc : memref<50264x1024xf32> to memref<*xf32>
    %0 = llvm.mlir.addressof @constant_0 : !llvm.ptr<array<11 x i8>>
    %1 = llvm.getelementptr %0[0, 0] : (!llvm.ptr<array<11 x i8>>) -> !llvm.ptr<i8>
    call @read_tensor_f32(%1, %cast) : (!llvm.ptr<i8>, memref<*xf32>) -> ()
    %alloc_2 = memref.alloc() {alignment = 16 : i64} : memref<1024xf32>
    %cast_3 = memref.cast %alloc_2 : memref<1024xf32> to memref<*xf32>
    %2 = llvm.mlir.addressof @constant_1 : !llvm.ptr<array<11 x i8>>
    %3 = llvm.getelementptr %2[0, 0] : (!llvm.ptr<array<11 x i8>>) -> !llvm.ptr<i8>
    call @read_tensor_f32(%3, %cast_3) : (!llvm.ptr<i8>, memref<*xf32>) -> ()
    %alloc_4 = memref.alloc() {alignment = 16 : i64} : memref<1024xf32>
    %cast_5 = memref.cast %alloc_4 : memref<1024xf32> to memref<*xf32>
    %4 = llvm.mlir.addressof @constant_2 : !llvm.ptr<array<11 x i8>>
    %5 = llvm.getelementptr %4[0, 0] : (!llvm.ptr<array<11 x i8>>) -> !llvm.ptr<i8>
    call @read_tensor_f32(%5, %cast_5) : (!llvm.ptr<i8>, memref<*xf32>) -> ()
    %alloc_6 = memref.alloc() {alignment = 16 : i64} : memref<1024x3072xf32>
    %cast_7 = memref.cast %alloc_6 : memref<1024x3072xf32> to memref<*xf32>
    %6 = llvm.mlir.addressof @constant_3 : !llvm.ptr<array<11 x i8>>
    %7 = llvm.getelementptr %6[0, 0] : (!llvm.ptr<array<11 x i8>>) -> !llvm.ptr<i8>
    call @read_tensor_f32(%7, %cast_7) : (!llvm.ptr<i8>, memref<*xf32>) -> ()
    %alloc_8 = memref.alloc() {alignment = 16 : i64} : memref<3072xf32>
    %cast_9 = memref.cast %alloc_8 : memref<3072xf32> to memref<*xf32>
    %8 = llvm.mlir.addressof @constant_4 : !llvm.ptr<array<11 x i8>>
    %9 = llvm.getelementptr %8[0, 0] : (!llvm.ptr<array<11 x i8>>) -> !llvm.ptr<i8>
    call @read_tensor_f32(%9, %cast_9) : (!llvm.ptr<i8>, memref<*xf32>) -> ()
    %alloc_10 = memref.alloc() {alignment = 16 : i64} : memref<1024x1024xf32>
    %cast_11 = memref.cast %alloc_10 : memref<1024x1024xf32> to memref<*xf32>
    %10 = llvm.mlir.addressof @constant_5 : !llvm.ptr<array<11 x i8>>
    %11 = llvm.getelementptr %10[0, 0] : (!llvm.ptr<array<11 x i8>>) -> !llvm.ptr<i8>
    call @read_tensor_f32(%11, %cast_11) : (!llvm.ptr<i8>, memref<*xf32>) -> ()
    %alloc_12 = memref.alloc() {alignment = 16 : i64} : memref<1024xf32>
    %cast_13 = memref.cast %alloc_12 : memref<1024xf32> to memref<*xf32>
    %12 = llvm.mlir.addressof @constant_6 : !llvm.ptr<array<11 x i8>>
    %13 = llvm.getelementptr %12[0, 0] : (!llvm.ptr<array<11 x i8>>) -> !llvm.ptr<i8>
    call @read_tensor_f32(%13, %cast_13) : (!llvm.ptr<i8>, memref<*xf32>) -> ()
    %alloc_14 = memref.alloc() {alignment = 16 : i64} : memref<1024xf32>
    %cast_15 = memref.cast %alloc_14 : memref<1024xf32> to memref<*xf32>
    %14 = llvm.mlir.addressof @constant_7 : !llvm.ptr<array<11 x i8>>
    %15 = llvm.getelementptr %14[0, 0] : (!llvm.ptr<array<11 x i8>>) -> !llvm.ptr<i8>
    call @read_tensor_f32(%15, %cast_15) : (!llvm.ptr<i8>, memref<*xf32>) -> ()
    %alloc_16 = memref.alloc() {alignment = 16 : i64} : memref<1024xf32>
    %cast_17 = memref.cast %alloc_16 : memref<1024xf32> to memref<*xf32>
    %16 = llvm.mlir.addressof @constant_8 : !llvm.ptr<array<11 x i8>>
    %17 = llvm.getelementptr %16[0, 0] : (!llvm.ptr<array<11 x i8>>) -> !llvm.ptr<i8>
    call @read_tensor_f32(%17, %cast_17) : (!llvm.ptr<i8>, memref<*xf32>) -> ()
    %alloc_18 = memref.alloc() {alignment = 16 : i64} : memref<1024x4096xf32>
    %cast_19 = memref.cast %alloc_18 : memref<1024x4096xf32> to memref<*xf32>
    %18 = llvm.mlir.addressof @constant_9 : !llvm.ptr<array<11 x i8>>
    %19 = llvm.getelementptr %18[0, 0] : (!llvm.ptr<array<11 x i8>>) -> !llvm.ptr<i8>
    call @read_tensor_f32(%19, %cast_19) : (!llvm.ptr<i8>, memref<*xf32>) -> ()
    %alloc_20 = memref.alloc() {alignment = 16 : i64} : memref<4096xf32>
    %cast_21 = memref.cast %alloc_20 : memref<4096xf32> to memref<*xf32>
    %20 = llvm.mlir.addressof @constant_10 : !llvm.ptr<array<12 x i8>>
    %21 = llvm.getelementptr %20[0, 0] : (!llvm.ptr<array<12 x i8>>) -> !llvm.ptr<i8>
    call @read_tensor_f32(%21, %cast_21) : (!llvm.ptr<i8>, memref<*xf32>) -> ()
    %alloc_22 = memref.alloc() {alignment = 16 : i64} : memref<4096x1024xf32>
    %cast_23 = memref.cast %alloc_22 : memref<4096x1024xf32> to memref<*xf32>
    %22 = llvm.mlir.addressof @constant_11 : !llvm.ptr<array<12 x i8>>
    %23 = llvm.getelementptr %22[0, 0] : (!llvm.ptr<array<12 x i8>>) -> !llvm.ptr<i8>
    call @read_tensor_f32(%23, %cast_23) : (!llvm.ptr<i8>, memref<*xf32>) -> ()
    %alloc_24 = memref.alloc() {alignment = 16 : i64} : memref<1024xf32>
    %cast_25 = memref.cast %alloc_24 : memref<1024xf32> to memref<*xf32>
    %24 = llvm.mlir.addressof @constant_12 : !llvm.ptr<array<12 x i8>>
    %25 = llvm.getelementptr %24[0, 0] : (!llvm.ptr<array<12 x i8>>) -> !llvm.ptr<i8>
    call @read_tensor_f32(%25, %cast_25) : (!llvm.ptr<i8>, memref<*xf32>) -> ()
    %alloc_26 = memref.alloc() {alignment = 16 : i64} : memref<1024xf32>
    %cast_27 = memref.cast %alloc_26 : memref<1024xf32> to memref<*xf32>
    %26 = llvm.mlir.addressof @constant_13 : !llvm.ptr<array<12 x i8>>
    %27 = llvm.getelementptr %26[0, 0] : (!llvm.ptr<array<12 x i8>>) -> !llvm.ptr<i8>
    call @read_tensor_f32(%27, %cast_27) : (!llvm.ptr<i8>, memref<*xf32>) -> ()
    %alloc_28 = memref.alloc() {alignment = 16 : i64} : memref<1024xf32>
    %cast_29 = memref.cast %alloc_28 : memref<1024xf32> to memref<*xf32>
    %28 = llvm.mlir.addressof @constant_14 : !llvm.ptr<array<12 x i8>>
    %29 = llvm.getelementptr %28[0, 0] : (!llvm.ptr<array<12 x i8>>) -> !llvm.ptr<i8>
    call @read_tensor_f32(%29, %cast_29) : (!llvm.ptr<i8>, memref<*xf32>) -> ()
    %alloc_30 = memref.alloc() {alignment = 16 : i64} : memref<1024x3072xf32>
    %cast_31 = memref.cast %alloc_30 : memref<1024x3072xf32> to memref<*xf32>
    %30 = llvm.mlir.addressof @constant_15 : !llvm.ptr<array<12 x i8>>
    %31 = llvm.getelementptr %30[0, 0] : (!llvm.ptr<array<12 x i8>>) -> !llvm.ptr<i8>
    call @read_tensor_f32(%31, %cast_31) : (!llvm.ptr<i8>, memref<*xf32>) -> ()
    %alloc_32 = memref.alloc() {alignment = 16 : i64} : memref<3072xf32>
    %cast_33 = memref.cast %alloc_32 : memref<3072xf32> to memref<*xf32>
    %32 = llvm.mlir.addressof @constant_16 : !llvm.ptr<array<12 x i8>>
    %33 = llvm.getelementptr %32[0, 0] : (!llvm.ptr<array<12 x i8>>) -> !llvm.ptr<i8>
    call @read_tensor_f32(%33, %cast_33) : (!llvm.ptr<i8>, memref<*xf32>) -> ()
    %alloc_34 = memref.alloc() {alignment = 16 : i64} : memref<1024x1024xf32>
    %cast_35 = memref.cast %alloc_34 : memref<1024x1024xf32> to memref<*xf32>
    %34 = llvm.mlir.addressof @constant_17 : !llvm.ptr<array<12 x i8>>
    %35 = llvm.getelementptr %34[0, 0] : (!llvm.ptr<array<12 x i8>>) -> !llvm.ptr<i8>
    call @read_tensor_f32(%35, %cast_35) : (!llvm.ptr<i8>, memref<*xf32>) -> ()
    %alloc_36 = memref.alloc() {alignment = 16 : i64} : memref<1024xf32>
    %cast_37 = memref.cast %alloc_36 : memref<1024xf32> to memref<*xf32>
    %36 = llvm.mlir.addressof @constant_18 : !llvm.ptr<array<12 x i8>>
    %37 = llvm.getelementptr %36[0, 0] : (!llvm.ptr<array<12 x i8>>) -> !llvm.ptr<i8>
    call @read_tensor_f32(%37, %cast_37) : (!llvm.ptr<i8>, memref<*xf32>) -> ()
    %alloc_38 = memref.alloc() {alignment = 16 : i64} : memref<1024xf32>
    %cast_39 = memref.cast %alloc_38 : memref<1024xf32> to memref<*xf32>
    %38 = llvm.mlir.addressof @constant_19 : !llvm.ptr<array<12 x i8>>
    %39 = llvm.getelementptr %38[0, 0] : (!llvm.ptr<array<12 x i8>>) -> !llvm.ptr<i8>
    call @read_tensor_f32(%39, %cast_39) : (!llvm.ptr<i8>, memref<*xf32>) -> ()
    %alloc_40 = memref.alloc() {alignment = 16 : i64} : memref<1024xf32>
    %cast_41 = memref.cast %alloc_40 : memref<1024xf32> to memref<*xf32>
    %40 = llvm.mlir.addressof @constant_20 : !llvm.ptr<array<12 x i8>>
    %41 = llvm.getelementptr %40[0, 0] : (!llvm.ptr<array<12 x i8>>) -> !llvm.ptr<i8>
    call @read_tensor_f32(%41, %cast_41) : (!llvm.ptr<i8>, memref<*xf32>) -> ()
    %alloc_42 = memref.alloc() {alignment = 16 : i64} : memref<1024x4096xf32>
    %cast_43 = memref.cast %alloc_42 : memref<1024x4096xf32> to memref<*xf32>
    %42 = llvm.mlir.addressof @constant_21 : !llvm.ptr<array<12 x i8>>
    %43 = llvm.getelementptr %42[0, 0] : (!llvm.ptr<array<12 x i8>>) -> !llvm.ptr<i8>
    call @read_tensor_f32(%43, %cast_43) : (!llvm.ptr<i8>, memref<*xf32>) -> ()
    %alloc_44 = memref.alloc() {alignment = 16 : i64} : memref<4096xf32>
    %cast_45 = memref.cast %alloc_44 : memref<4096xf32> to memref<*xf32>
    %44 = llvm.mlir.addressof @constant_22 : !llvm.ptr<array<12 x i8>>
    %45 = llvm.getelementptr %44[0, 0] : (!llvm.ptr<array<12 x i8>>) -> !llvm.ptr<i8>
    call @read_tensor_f32(%45, %cast_45) : (!llvm.ptr<i8>, memref<*xf32>) -> ()
    %alloc_46 = memref.alloc() {alignment = 16 : i64} : memref<4096x1024xf32>
    %cast_47 = memref.cast %alloc_46 : memref<4096x1024xf32> to memref<*xf32>
    %46 = llvm.mlir.addressof @constant_23 : !llvm.ptr<array<12 x i8>>
    %47 = llvm.getelementptr %46[0, 0] : (!llvm.ptr<array<12 x i8>>) -> !llvm.ptr<i8>
    call @read_tensor_f32(%47, %cast_47) : (!llvm.ptr<i8>, memref<*xf32>) -> ()
    %alloc_48 = memref.alloc() {alignment = 16 : i64} : memref<1024xf32>
    %cast_49 = memref.cast %alloc_48 : memref<1024xf32> to memref<*xf32>
    %48 = llvm.mlir.addressof @constant_24 : !llvm.ptr<array<12 x i8>>
    %49 = llvm.getelementptr %48[0, 0] : (!llvm.ptr<array<12 x i8>>) -> !llvm.ptr<i8>
    call @read_tensor_f32(%49, %cast_49) : (!llvm.ptr<i8>, memref<*xf32>) -> ()
    %alloc_50 = memref.alloc() {alignment = 16 : i64} : memref<1024xf32>
    %cast_51 = memref.cast %alloc_50 : memref<1024xf32> to memref<*xf32>
    %50 = llvm.mlir.addressof @constant_25 : !llvm.ptr<array<12 x i8>>
    %51 = llvm.getelementptr %50[0, 0] : (!llvm.ptr<array<12 x i8>>) -> !llvm.ptr<i8>
    call @read_tensor_f32(%51, %cast_51) : (!llvm.ptr<i8>, memref<*xf32>) -> ()
    %alloc_52 = memref.alloc() {alignment = 16 : i64} : memref<1024xf32>
    %cast_53 = memref.cast %alloc_52 : memref<1024xf32> to memref<*xf32>
    %52 = llvm.mlir.addressof @constant_26 : !llvm.ptr<array<12 x i8>>
    %53 = llvm.getelementptr %52[0, 0] : (!llvm.ptr<array<12 x i8>>) -> !llvm.ptr<i8>
    call @read_tensor_f32(%53, %cast_53) : (!llvm.ptr<i8>, memref<*xf32>) -> ()
    %alloc_54 = memref.alloc() {alignment = 16 : i64} : memref<1024x3072xf32>
    %cast_55 = memref.cast %alloc_54 : memref<1024x3072xf32> to memref<*xf32>
    %54 = llvm.mlir.addressof @constant_27 : !llvm.ptr<array<12 x i8>>
    %55 = llvm.getelementptr %54[0, 0] : (!llvm.ptr<array<12 x i8>>) -> !llvm.ptr<i8>
    call @read_tensor_f32(%55, %cast_55) : (!llvm.ptr<i8>, memref<*xf32>) -> ()
    %alloc_56 = memref.alloc() {alignment = 16 : i64} : memref<3072xf32>
    %cast_57 = memref.cast %alloc_56 : memref<3072xf32> to memref<*xf32>
    %56 = llvm.mlir.addressof @constant_28 : !llvm.ptr<array<12 x i8>>
    %57 = llvm.getelementptr %56[0, 0] : (!llvm.ptr<array<12 x i8>>) -> !llvm.ptr<i8>
    call @read_tensor_f32(%57, %cast_57) : (!llvm.ptr<i8>, memref<*xf32>) -> ()
    %alloc_58 = memref.alloc() {alignment = 16 : i64} : memref<1024x1024xf32>
    %cast_59 = memref.cast %alloc_58 : memref<1024x1024xf32> to memref<*xf32>
    %58 = llvm.mlir.addressof @constant_29 : !llvm.ptr<array<12 x i8>>
    %59 = llvm.getelementptr %58[0, 0] : (!llvm.ptr<array<12 x i8>>) -> !llvm.ptr<i8>
    call @read_tensor_f32(%59, %cast_59) : (!llvm.ptr<i8>, memref<*xf32>) -> ()
    %alloc_60 = memref.alloc() {alignment = 16 : i64} : memref<1024xf32>
    %cast_61 = memref.cast %alloc_60 : memref<1024xf32> to memref<*xf32>
    %60 = llvm.mlir.addressof @constant_30 : !llvm.ptr<array<12 x i8>>
    %61 = llvm.getelementptr %60[0, 0] : (!llvm.ptr<array<12 x i8>>) -> !llvm.ptr<i8>
    call @read_tensor_f32(%61, %cast_61) : (!llvm.ptr<i8>, memref<*xf32>) -> ()
    %alloc_62 = memref.alloc() {alignment = 16 : i64} : memref<1024xf32>
    %cast_63 = memref.cast %alloc_62 : memref<1024xf32> to memref<*xf32>
    %62 = llvm.mlir.addressof @constant_31 : !llvm.ptr<array<12 x i8>>
    %63 = llvm.getelementptr %62[0, 0] : (!llvm.ptr<array<12 x i8>>) -> !llvm.ptr<i8>
    call @read_tensor_f32(%63, %cast_63) : (!llvm.ptr<i8>, memref<*xf32>) -> ()
    %alloc_64 = memref.alloc() {alignment = 16 : i64} : memref<1024xf32>
    %cast_65 = memref.cast %alloc_64 : memref<1024xf32> to memref<*xf32>
    %64 = llvm.mlir.addressof @constant_32 : !llvm.ptr<array<12 x i8>>
    %65 = llvm.getelementptr %64[0, 0] : (!llvm.ptr<array<12 x i8>>) -> !llvm.ptr<i8>
    call @read_tensor_f32(%65, %cast_65) : (!llvm.ptr<i8>, memref<*xf32>) -> ()
    %alloc_66 = memref.alloc() {alignment = 16 : i64} : memref<1024x4096xf32>
    %cast_67 = memref.cast %alloc_66 : memref<1024x4096xf32> to memref<*xf32>
    %66 = llvm.mlir.addressof @constant_33 : !llvm.ptr<array<12 x i8>>
    %67 = llvm.getelementptr %66[0, 0] : (!llvm.ptr<array<12 x i8>>) -> !llvm.ptr<i8>
    call @read_tensor_f32(%67, %cast_67) : (!llvm.ptr<i8>, memref<*xf32>) -> ()
    %alloc_68 = memref.alloc() {alignment = 16 : i64} : memref<4096xf32>
    %cast_69 = memref.cast %alloc_68 : memref<4096xf32> to memref<*xf32>
    %68 = llvm.mlir.addressof @constant_34 : !llvm.ptr<array<12 x i8>>
    %69 = llvm.getelementptr %68[0, 0] : (!llvm.ptr<array<12 x i8>>) -> !llvm.ptr<i8>
    call @read_tensor_f32(%69, %cast_69) : (!llvm.ptr<i8>, memref<*xf32>) -> ()
    %alloc_70 = memref.alloc() {alignment = 16 : i64} : memref<4096x1024xf32>
    %cast_71 = memref.cast %alloc_70 : memref<4096x1024xf32> to memref<*xf32>
    %70 = llvm.mlir.addressof @constant_35 : !llvm.ptr<array<12 x i8>>
    %71 = llvm.getelementptr %70[0, 0] : (!llvm.ptr<array<12 x i8>>) -> !llvm.ptr<i8>
    call @read_tensor_f32(%71, %cast_71) : (!llvm.ptr<i8>, memref<*xf32>) -> ()
    %alloc_72 = memref.alloc() {alignment = 16 : i64} : memref<1024xf32>
    %cast_73 = memref.cast %alloc_72 : memref<1024xf32> to memref<*xf32>
    %72 = llvm.mlir.addressof @constant_36 : !llvm.ptr<array<12 x i8>>
    %73 = llvm.getelementptr %72[0, 0] : (!llvm.ptr<array<12 x i8>>) -> !llvm.ptr<i8>
    call @read_tensor_f32(%73, %cast_73) : (!llvm.ptr<i8>, memref<*xf32>) -> ()
    %alloc_74 = memref.alloc() {alignment = 16 : i64} : memref<1024xf32>
    %cast_75 = memref.cast %alloc_74 : memref<1024xf32> to memref<*xf32>
    %74 = llvm.mlir.addressof @constant_37 : !llvm.ptr<array<12 x i8>>
    %75 = llvm.getelementptr %74[0, 0] : (!llvm.ptr<array<12 x i8>>) -> !llvm.ptr<i8>
    call @read_tensor_f32(%75, %cast_75) : (!llvm.ptr<i8>, memref<*xf32>) -> ()
    %alloc_76 = memref.alloc() {alignment = 16 : i64} : memref<1024xf32>
    %cast_77 = memref.cast %alloc_76 : memref<1024xf32> to memref<*xf32>
    %76 = llvm.mlir.addressof @constant_38 : !llvm.ptr<array<12 x i8>>
    %77 = llvm.getelementptr %76[0, 0] : (!llvm.ptr<array<12 x i8>>) -> !llvm.ptr<i8>
    call @read_tensor_f32(%77, %cast_77) : (!llvm.ptr<i8>, memref<*xf32>) -> ()
    %alloc_78 = memref.alloc() {alignment = 16 : i64} : memref<1024x3072xf32>
    %cast_79 = memref.cast %alloc_78 : memref<1024x3072xf32> to memref<*xf32>
    %78 = llvm.mlir.addressof @constant_39 : !llvm.ptr<array<12 x i8>>
    %79 = llvm.getelementptr %78[0, 0] : (!llvm.ptr<array<12 x i8>>) -> !llvm.ptr<i8>
    call @read_tensor_f32(%79, %cast_79) : (!llvm.ptr<i8>, memref<*xf32>) -> ()
    %alloc_80 = memref.alloc() {alignment = 16 : i64} : memref<3072xf32>
    %cast_81 = memref.cast %alloc_80 : memref<3072xf32> to memref<*xf32>
    %80 = llvm.mlir.addressof @constant_40 : !llvm.ptr<array<12 x i8>>
    %81 = llvm.getelementptr %80[0, 0] : (!llvm.ptr<array<12 x i8>>) -> !llvm.ptr<i8>
    call @read_tensor_f32(%81, %cast_81) : (!llvm.ptr<i8>, memref<*xf32>) -> ()
    %alloc_82 = memref.alloc() {alignment = 16 : i64} : memref<1024x1024xf32>
    %cast_83 = memref.cast %alloc_82 : memref<1024x1024xf32> to memref<*xf32>
    %82 = llvm.mlir.addressof @constant_41 : !llvm.ptr<array<12 x i8>>
    %83 = llvm.getelementptr %82[0, 0] : (!llvm.ptr<array<12 x i8>>) -> !llvm.ptr<i8>
    call @read_tensor_f32(%83, %cast_83) : (!llvm.ptr<i8>, memref<*xf32>) -> ()
    %alloc_84 = memref.alloc() {alignment = 16 : i64} : memref<1024xf32>
    %cast_85 = memref.cast %alloc_84 : memref<1024xf32> to memref<*xf32>
    %84 = llvm.mlir.addressof @constant_42 : !llvm.ptr<array<12 x i8>>
    %85 = llvm.getelementptr %84[0, 0] : (!llvm.ptr<array<12 x i8>>) -> !llvm.ptr<i8>
    call @read_tensor_f32(%85, %cast_85) : (!llvm.ptr<i8>, memref<*xf32>) -> ()
    %alloc_86 = memref.alloc() {alignment = 16 : i64} : memref<1024xf32>
    %cast_87 = memref.cast %alloc_86 : memref<1024xf32> to memref<*xf32>
    %86 = llvm.mlir.addressof @constant_43 : !llvm.ptr<array<12 x i8>>
    %87 = llvm.getelementptr %86[0, 0] : (!llvm.ptr<array<12 x i8>>) -> !llvm.ptr<i8>
    call @read_tensor_f32(%87, %cast_87) : (!llvm.ptr<i8>, memref<*xf32>) -> ()
    %alloc_88 = memref.alloc() {alignment = 16 : i64} : memref<1024xf32>
    %cast_89 = memref.cast %alloc_88 : memref<1024xf32> to memref<*xf32>
    %88 = llvm.mlir.addressof @constant_44 : !llvm.ptr<array<12 x i8>>
    %89 = llvm.getelementptr %88[0, 0] : (!llvm.ptr<array<12 x i8>>) -> !llvm.ptr<i8>
    call @read_tensor_f32(%89, %cast_89) : (!llvm.ptr<i8>, memref<*xf32>) -> ()
    %alloc_90 = memref.alloc() {alignment = 16 : i64} : memref<1024x4096xf32>
    %cast_91 = memref.cast %alloc_90 : memref<1024x4096xf32> to memref<*xf32>
    %90 = llvm.mlir.addressof @constant_45 : !llvm.ptr<array<12 x i8>>
    %91 = llvm.getelementptr %90[0, 0] : (!llvm.ptr<array<12 x i8>>) -> !llvm.ptr<i8>
    call @read_tensor_f32(%91, %cast_91) : (!llvm.ptr<i8>, memref<*xf32>) -> ()
    %alloc_92 = memref.alloc() {alignment = 16 : i64} : memref<4096xf32>
    %cast_93 = memref.cast %alloc_92 : memref<4096xf32> to memref<*xf32>
    %92 = llvm.mlir.addressof @constant_46 : !llvm.ptr<array<12 x i8>>
    %93 = llvm.getelementptr %92[0, 0] : (!llvm.ptr<array<12 x i8>>) -> !llvm.ptr<i8>
    call @read_tensor_f32(%93, %cast_93) : (!llvm.ptr<i8>, memref<*xf32>) -> ()
    %alloc_94 = memref.alloc() {alignment = 16 : i64} : memref<4096x1024xf32>
    %cast_95 = memref.cast %alloc_94 : memref<4096x1024xf32> to memref<*xf32>
    %94 = llvm.mlir.addressof @constant_47 : !llvm.ptr<array<12 x i8>>
    %95 = llvm.getelementptr %94[0, 0] : (!llvm.ptr<array<12 x i8>>) -> !llvm.ptr<i8>
    call @read_tensor_f32(%95, %cast_95) : (!llvm.ptr<i8>, memref<*xf32>) -> ()
    %alloc_96 = memref.alloc() {alignment = 16 : i64} : memref<1024xf32>
    %cast_97 = memref.cast %alloc_96 : memref<1024xf32> to memref<*xf32>
    %96 = llvm.mlir.addressof @constant_48 : !llvm.ptr<array<12 x i8>>
    %97 = llvm.getelementptr %96[0, 0] : (!llvm.ptr<array<12 x i8>>) -> !llvm.ptr<i8>
    call @read_tensor_f32(%97, %cast_97) : (!llvm.ptr<i8>, memref<*xf32>) -> ()
    %alloc_98 = memref.alloc() {alignment = 16 : i64} : memref<1024xf32>
    %cast_99 = memref.cast %alloc_98 : memref<1024xf32> to memref<*xf32>
    %98 = llvm.mlir.addressof @constant_49 : !llvm.ptr<array<12 x i8>>
    %99 = llvm.getelementptr %98[0, 0] : (!llvm.ptr<array<12 x i8>>) -> !llvm.ptr<i8>
    call @read_tensor_f32(%99, %cast_99) : (!llvm.ptr<i8>, memref<*xf32>) -> ()
    %alloc_100 = memref.alloc() {alignment = 16 : i64} : memref<1024xf32>
    %cast_101 = memref.cast %alloc_100 : memref<1024xf32> to memref<*xf32>
    %100 = llvm.mlir.addressof @constant_50 : !llvm.ptr<array<12 x i8>>
    %101 = llvm.getelementptr %100[0, 0] : (!llvm.ptr<array<12 x i8>>) -> !llvm.ptr<i8>
    call @read_tensor_f32(%101, %cast_101) : (!llvm.ptr<i8>, memref<*xf32>) -> ()
    %alloc_102 = memref.alloc() {alignment = 16 : i64} : memref<1024x3072xf32>
    %cast_103 = memref.cast %alloc_102 : memref<1024x3072xf32> to memref<*xf32>
    %102 = llvm.mlir.addressof @constant_51 : !llvm.ptr<array<12 x i8>>
    %103 = llvm.getelementptr %102[0, 0] : (!llvm.ptr<array<12 x i8>>) -> !llvm.ptr<i8>
    call @read_tensor_f32(%103, %cast_103) : (!llvm.ptr<i8>, memref<*xf32>) -> ()
    %alloc_104 = memref.alloc() {alignment = 16 : i64} : memref<3072xf32>
    %cast_105 = memref.cast %alloc_104 : memref<3072xf32> to memref<*xf32>
    %104 = llvm.mlir.addressof @constant_52 : !llvm.ptr<array<12 x i8>>
    %105 = llvm.getelementptr %104[0, 0] : (!llvm.ptr<array<12 x i8>>) -> !llvm.ptr<i8>
    call @read_tensor_f32(%105, %cast_105) : (!llvm.ptr<i8>, memref<*xf32>) -> ()
    %alloc_106 = memref.alloc() {alignment = 16 : i64} : memref<1024x1024xf32>
    %cast_107 = memref.cast %alloc_106 : memref<1024x1024xf32> to memref<*xf32>
    %106 = llvm.mlir.addressof @constant_53 : !llvm.ptr<array<12 x i8>>
    %107 = llvm.getelementptr %106[0, 0] : (!llvm.ptr<array<12 x i8>>) -> !llvm.ptr<i8>
    call @read_tensor_f32(%107, %cast_107) : (!llvm.ptr<i8>, memref<*xf32>) -> ()
    %alloc_108 = memref.alloc() {alignment = 16 : i64} : memref<1024xf32>
    %cast_109 = memref.cast %alloc_108 : memref<1024xf32> to memref<*xf32>
    %108 = llvm.mlir.addressof @constant_54 : !llvm.ptr<array<12 x i8>>
    %109 = llvm.getelementptr %108[0, 0] : (!llvm.ptr<array<12 x i8>>) -> !llvm.ptr<i8>
    call @read_tensor_f32(%109, %cast_109) : (!llvm.ptr<i8>, memref<*xf32>) -> ()
    %alloc_110 = memref.alloc() {alignment = 16 : i64} : memref<1024xf32>
    %cast_111 = memref.cast %alloc_110 : memref<1024xf32> to memref<*xf32>
    %110 = llvm.mlir.addressof @constant_55 : !llvm.ptr<array<12 x i8>>
    %111 = llvm.getelementptr %110[0, 0] : (!llvm.ptr<array<12 x i8>>) -> !llvm.ptr<i8>
    call @read_tensor_f32(%111, %cast_111) : (!llvm.ptr<i8>, memref<*xf32>) -> ()
    %alloc_112 = memref.alloc() {alignment = 16 : i64} : memref<1024xf32>
    %cast_113 = memref.cast %alloc_112 : memref<1024xf32> to memref<*xf32>
    %112 = llvm.mlir.addressof @constant_56 : !llvm.ptr<array<12 x i8>>
    %113 = llvm.getelementptr %112[0, 0] : (!llvm.ptr<array<12 x i8>>) -> !llvm.ptr<i8>
    call @read_tensor_f32(%113, %cast_113) : (!llvm.ptr<i8>, memref<*xf32>) -> ()
    %alloc_114 = memref.alloc() {alignment = 16 : i64} : memref<1024x4096xf32>
    %cast_115 = memref.cast %alloc_114 : memref<1024x4096xf32> to memref<*xf32>
    %114 = llvm.mlir.addressof @constant_57 : !llvm.ptr<array<12 x i8>>
    %115 = llvm.getelementptr %114[0, 0] : (!llvm.ptr<array<12 x i8>>) -> !llvm.ptr<i8>
    call @read_tensor_f32(%115, %cast_115) : (!llvm.ptr<i8>, memref<*xf32>) -> ()
    %alloc_116 = memref.alloc() {alignment = 16 : i64} : memref<4096xf32>
    %cast_117 = memref.cast %alloc_116 : memref<4096xf32> to memref<*xf32>
    %116 = llvm.mlir.addressof @constant_58 : !llvm.ptr<array<12 x i8>>
    %117 = llvm.getelementptr %116[0, 0] : (!llvm.ptr<array<12 x i8>>) -> !llvm.ptr<i8>
    call @read_tensor_f32(%117, %cast_117) : (!llvm.ptr<i8>, memref<*xf32>) -> ()
    %alloc_118 = memref.alloc() {alignment = 16 : i64} : memref<4096x1024xf32>
    %cast_119 = memref.cast %alloc_118 : memref<4096x1024xf32> to memref<*xf32>
    %118 = llvm.mlir.addressof @constant_59 : !llvm.ptr<array<12 x i8>>
    %119 = llvm.getelementptr %118[0, 0] : (!llvm.ptr<array<12 x i8>>) -> !llvm.ptr<i8>
    call @read_tensor_f32(%119, %cast_119) : (!llvm.ptr<i8>, memref<*xf32>) -> ()
    %alloc_120 = memref.alloc() {alignment = 16 : i64} : memref<1024xf32>
    %cast_121 = memref.cast %alloc_120 : memref<1024xf32> to memref<*xf32>
    %120 = llvm.mlir.addressof @constant_60 : !llvm.ptr<array<12 x i8>>
    %121 = llvm.getelementptr %120[0, 0] : (!llvm.ptr<array<12 x i8>>) -> !llvm.ptr<i8>
    call @read_tensor_f32(%121, %cast_121) : (!llvm.ptr<i8>, memref<*xf32>) -> ()
    %alloc_122 = memref.alloc() {alignment = 16 : i64} : memref<1024xf32>
    %cast_123 = memref.cast %alloc_122 : memref<1024xf32> to memref<*xf32>
    %122 = llvm.mlir.addressof @constant_61 : !llvm.ptr<array<12 x i8>>
    %123 = llvm.getelementptr %122[0, 0] : (!llvm.ptr<array<12 x i8>>) -> !llvm.ptr<i8>
    call @read_tensor_f32(%123, %cast_123) : (!llvm.ptr<i8>, memref<*xf32>) -> ()
    %alloc_124 = memref.alloc() {alignment = 16 : i64} : memref<1024xf32>
    %cast_125 = memref.cast %alloc_124 : memref<1024xf32> to memref<*xf32>
    %124 = llvm.mlir.addressof @constant_62 : !llvm.ptr<array<12 x i8>>
    %125 = llvm.getelementptr %124[0, 0] : (!llvm.ptr<array<12 x i8>>) -> !llvm.ptr<i8>
    call @read_tensor_f32(%125, %cast_125) : (!llvm.ptr<i8>, memref<*xf32>) -> ()
    %alloc_126 = memref.alloc() {alignment = 16 : i64} : memref<1024x3072xf32>
    %cast_127 = memref.cast %alloc_126 : memref<1024x3072xf32> to memref<*xf32>
    %126 = llvm.mlir.addressof @constant_63 : !llvm.ptr<array<12 x i8>>
    %127 = llvm.getelementptr %126[0, 0] : (!llvm.ptr<array<12 x i8>>) -> !llvm.ptr<i8>
    call @read_tensor_f32(%127, %cast_127) : (!llvm.ptr<i8>, memref<*xf32>) -> ()
    %alloc_128 = memref.alloc() {alignment = 16 : i64} : memref<3072xf32>
    %cast_129 = memref.cast %alloc_128 : memref<3072xf32> to memref<*xf32>
    %128 = llvm.mlir.addressof @constant_64 : !llvm.ptr<array<12 x i8>>
    %129 = llvm.getelementptr %128[0, 0] : (!llvm.ptr<array<12 x i8>>) -> !llvm.ptr<i8>
    call @read_tensor_f32(%129, %cast_129) : (!llvm.ptr<i8>, memref<*xf32>) -> ()
    %alloc_130 = memref.alloc() {alignment = 16 : i64} : memref<1024x1024xf32>
    %cast_131 = memref.cast %alloc_130 : memref<1024x1024xf32> to memref<*xf32>
    %130 = llvm.mlir.addressof @constant_65 : !llvm.ptr<array<12 x i8>>
    %131 = llvm.getelementptr %130[0, 0] : (!llvm.ptr<array<12 x i8>>) -> !llvm.ptr<i8>
    call @read_tensor_f32(%131, %cast_131) : (!llvm.ptr<i8>, memref<*xf32>) -> ()
    %alloc_132 = memref.alloc() {alignment = 16 : i64} : memref<1024xf32>
    %cast_133 = memref.cast %alloc_132 : memref<1024xf32> to memref<*xf32>
    %132 = llvm.mlir.addressof @constant_66 : !llvm.ptr<array<12 x i8>>
    %133 = llvm.getelementptr %132[0, 0] : (!llvm.ptr<array<12 x i8>>) -> !llvm.ptr<i8>
    call @read_tensor_f32(%133, %cast_133) : (!llvm.ptr<i8>, memref<*xf32>) -> ()
    %alloc_134 = memref.alloc() {alignment = 16 : i64} : memref<1024xf32>
    %cast_135 = memref.cast %alloc_134 : memref<1024xf32> to memref<*xf32>
    %134 = llvm.mlir.addressof @constant_67 : !llvm.ptr<array<12 x i8>>
    %135 = llvm.getelementptr %134[0, 0] : (!llvm.ptr<array<12 x i8>>) -> !llvm.ptr<i8>
    call @read_tensor_f32(%135, %cast_135) : (!llvm.ptr<i8>, memref<*xf32>) -> ()
    %alloc_136 = memref.alloc() {alignment = 16 : i64} : memref<1024xf32>
    %cast_137 = memref.cast %alloc_136 : memref<1024xf32> to memref<*xf32>
    %136 = llvm.mlir.addressof @constant_68 : !llvm.ptr<array<12 x i8>>
    %137 = llvm.getelementptr %136[0, 0] : (!llvm.ptr<array<12 x i8>>) -> !llvm.ptr<i8>
    call @read_tensor_f32(%137, %cast_137) : (!llvm.ptr<i8>, memref<*xf32>) -> ()
    %alloc_138 = memref.alloc() {alignment = 16 : i64} : memref<1024x4096xf32>
    %cast_139 = memref.cast %alloc_138 : memref<1024x4096xf32> to memref<*xf32>
    %138 = llvm.mlir.addressof @constant_69 : !llvm.ptr<array<12 x i8>>
    %139 = llvm.getelementptr %138[0, 0] : (!llvm.ptr<array<12 x i8>>) -> !llvm.ptr<i8>
    call @read_tensor_f32(%139, %cast_139) : (!llvm.ptr<i8>, memref<*xf32>) -> ()
    %alloc_140 = memref.alloc() {alignment = 16 : i64} : memref<4096xf32>
    %cast_141 = memref.cast %alloc_140 : memref<4096xf32> to memref<*xf32>
    %140 = llvm.mlir.addressof @constant_70 : !llvm.ptr<array<12 x i8>>
    %141 = llvm.getelementptr %140[0, 0] : (!llvm.ptr<array<12 x i8>>) -> !llvm.ptr<i8>
    call @read_tensor_f32(%141, %cast_141) : (!llvm.ptr<i8>, memref<*xf32>) -> ()
    %alloc_142 = memref.alloc() {alignment = 16 : i64} : memref<4096x1024xf32>
    %cast_143 = memref.cast %alloc_142 : memref<4096x1024xf32> to memref<*xf32>
    %142 = llvm.mlir.addressof @constant_71 : !llvm.ptr<array<12 x i8>>
    %143 = llvm.getelementptr %142[0, 0] : (!llvm.ptr<array<12 x i8>>) -> !llvm.ptr<i8>
    call @read_tensor_f32(%143, %cast_143) : (!llvm.ptr<i8>, memref<*xf32>) -> ()
    %alloc_144 = memref.alloc() {alignment = 16 : i64} : memref<1024xf32>
    %cast_145 = memref.cast %alloc_144 : memref<1024xf32> to memref<*xf32>
    %144 = llvm.mlir.addressof @constant_72 : !llvm.ptr<array<12 x i8>>
    %145 = llvm.getelementptr %144[0, 0] : (!llvm.ptr<array<12 x i8>>) -> !llvm.ptr<i8>
    call @read_tensor_f32(%145, %cast_145) : (!llvm.ptr<i8>, memref<*xf32>) -> ()
    %alloc_146 = memref.alloc() {alignment = 16 : i64} : memref<1024xf32>
    %cast_147 = memref.cast %alloc_146 : memref<1024xf32> to memref<*xf32>
    %146 = llvm.mlir.addressof @constant_73 : !llvm.ptr<array<12 x i8>>
    %147 = llvm.getelementptr %146[0, 0] : (!llvm.ptr<array<12 x i8>>) -> !llvm.ptr<i8>
    call @read_tensor_f32(%147, %cast_147) : (!llvm.ptr<i8>, memref<*xf32>) -> ()
    %alloc_148 = memref.alloc() {alignment = 16 : i64} : memref<1024xf32>
    %cast_149 = memref.cast %alloc_148 : memref<1024xf32> to memref<*xf32>
    %148 = llvm.mlir.addressof @constant_74 : !llvm.ptr<array<12 x i8>>
    %149 = llvm.getelementptr %148[0, 0] : (!llvm.ptr<array<12 x i8>>) -> !llvm.ptr<i8>
    call @read_tensor_f32(%149, %cast_149) : (!llvm.ptr<i8>, memref<*xf32>) -> ()
    %alloc_150 = memref.alloc() {alignment = 16 : i64} : memref<1024x3072xf32>
    %cast_151 = memref.cast %alloc_150 : memref<1024x3072xf32> to memref<*xf32>
    %150 = llvm.mlir.addressof @constant_75 : !llvm.ptr<array<12 x i8>>
    %151 = llvm.getelementptr %150[0, 0] : (!llvm.ptr<array<12 x i8>>) -> !llvm.ptr<i8>
    call @read_tensor_f32(%151, %cast_151) : (!llvm.ptr<i8>, memref<*xf32>) -> ()
    %alloc_152 = memref.alloc() {alignment = 16 : i64} : memref<3072xf32>
    %cast_153 = memref.cast %alloc_152 : memref<3072xf32> to memref<*xf32>
    %152 = llvm.mlir.addressof @constant_76 : !llvm.ptr<array<12 x i8>>
    %153 = llvm.getelementptr %152[0, 0] : (!llvm.ptr<array<12 x i8>>) -> !llvm.ptr<i8>
    call @read_tensor_f32(%153, %cast_153) : (!llvm.ptr<i8>, memref<*xf32>) -> ()
    %alloc_154 = memref.alloc() {alignment = 16 : i64} : memref<1024x1024xf32>
    %cast_155 = memref.cast %alloc_154 : memref<1024x1024xf32> to memref<*xf32>
    %154 = llvm.mlir.addressof @constant_77 : !llvm.ptr<array<12 x i8>>
    %155 = llvm.getelementptr %154[0, 0] : (!llvm.ptr<array<12 x i8>>) -> !llvm.ptr<i8>
    call @read_tensor_f32(%155, %cast_155) : (!llvm.ptr<i8>, memref<*xf32>) -> ()
    %alloc_156 = memref.alloc() {alignment = 16 : i64} : memref<1024xf32>
    %cast_157 = memref.cast %alloc_156 : memref<1024xf32> to memref<*xf32>
    %156 = llvm.mlir.addressof @constant_78 : !llvm.ptr<array<12 x i8>>
    %157 = llvm.getelementptr %156[0, 0] : (!llvm.ptr<array<12 x i8>>) -> !llvm.ptr<i8>
    call @read_tensor_f32(%157, %cast_157) : (!llvm.ptr<i8>, memref<*xf32>) -> ()
    %alloc_158 = memref.alloc() {alignment = 16 : i64} : memref<1024xf32>
    %cast_159 = memref.cast %alloc_158 : memref<1024xf32> to memref<*xf32>
    %158 = llvm.mlir.addressof @constant_79 : !llvm.ptr<array<12 x i8>>
    %159 = llvm.getelementptr %158[0, 0] : (!llvm.ptr<array<12 x i8>>) -> !llvm.ptr<i8>
    call @read_tensor_f32(%159, %cast_159) : (!llvm.ptr<i8>, memref<*xf32>) -> ()
    %alloc_160 = memref.alloc() {alignment = 16 : i64} : memref<1024xf32>
    %cast_161 = memref.cast %alloc_160 : memref<1024xf32> to memref<*xf32>
    %160 = llvm.mlir.addressof @constant_80 : !llvm.ptr<array<12 x i8>>
    %161 = llvm.getelementptr %160[0, 0] : (!llvm.ptr<array<12 x i8>>) -> !llvm.ptr<i8>
    call @read_tensor_f32(%161, %cast_161) : (!llvm.ptr<i8>, memref<*xf32>) -> ()
    %alloc_162 = memref.alloc() {alignment = 16 : i64} : memref<1024x4096xf32>
    %cast_163 = memref.cast %alloc_162 : memref<1024x4096xf32> to memref<*xf32>
    %162 = llvm.mlir.addressof @constant_81 : !llvm.ptr<array<12 x i8>>
    %163 = llvm.getelementptr %162[0, 0] : (!llvm.ptr<array<12 x i8>>) -> !llvm.ptr<i8>
    call @read_tensor_f32(%163, %cast_163) : (!llvm.ptr<i8>, memref<*xf32>) -> ()
    %alloc_164 = memref.alloc() {alignment = 16 : i64} : memref<4096xf32>
    %cast_165 = memref.cast %alloc_164 : memref<4096xf32> to memref<*xf32>
    %164 = llvm.mlir.addressof @constant_82 : !llvm.ptr<array<12 x i8>>
    %165 = llvm.getelementptr %164[0, 0] : (!llvm.ptr<array<12 x i8>>) -> !llvm.ptr<i8>
    call @read_tensor_f32(%165, %cast_165) : (!llvm.ptr<i8>, memref<*xf32>) -> ()
    %alloc_166 = memref.alloc() {alignment = 16 : i64} : memref<4096x1024xf32>
    %cast_167 = memref.cast %alloc_166 : memref<4096x1024xf32> to memref<*xf32>
    %166 = llvm.mlir.addressof @constant_83 : !llvm.ptr<array<12 x i8>>
    %167 = llvm.getelementptr %166[0, 0] : (!llvm.ptr<array<12 x i8>>) -> !llvm.ptr<i8>
    call @read_tensor_f32(%167, %cast_167) : (!llvm.ptr<i8>, memref<*xf32>) -> ()
    %alloc_168 = memref.alloc() {alignment = 16 : i64} : memref<1024xf32>
    %cast_169 = memref.cast %alloc_168 : memref<1024xf32> to memref<*xf32>
    %168 = llvm.mlir.addressof @constant_84 : !llvm.ptr<array<12 x i8>>
    %169 = llvm.getelementptr %168[0, 0] : (!llvm.ptr<array<12 x i8>>) -> !llvm.ptr<i8>
    call @read_tensor_f32(%169, %cast_169) : (!llvm.ptr<i8>, memref<*xf32>) -> ()
    %alloc_170 = memref.alloc() {alignment = 16 : i64} : memref<1024xf32>
    %cast_171 = memref.cast %alloc_170 : memref<1024xf32> to memref<*xf32>
    %170 = llvm.mlir.addressof @constant_85 : !llvm.ptr<array<12 x i8>>
    %171 = llvm.getelementptr %170[0, 0] : (!llvm.ptr<array<12 x i8>>) -> !llvm.ptr<i8>
    call @read_tensor_f32(%171, %cast_171) : (!llvm.ptr<i8>, memref<*xf32>) -> ()
    %alloc_172 = memref.alloc() {alignment = 16 : i64} : memref<1024xf32>
    %cast_173 = memref.cast %alloc_172 : memref<1024xf32> to memref<*xf32>
    %172 = llvm.mlir.addressof @constant_86 : !llvm.ptr<array<12 x i8>>
    %173 = llvm.getelementptr %172[0, 0] : (!llvm.ptr<array<12 x i8>>) -> !llvm.ptr<i8>
    call @read_tensor_f32(%173, %cast_173) : (!llvm.ptr<i8>, memref<*xf32>) -> ()
    %alloc_174 = memref.alloc() {alignment = 16 : i64} : memref<1024x3072xf32>
    %cast_175 = memref.cast %alloc_174 : memref<1024x3072xf32> to memref<*xf32>
    %174 = llvm.mlir.addressof @constant_87 : !llvm.ptr<array<12 x i8>>
    %175 = llvm.getelementptr %174[0, 0] : (!llvm.ptr<array<12 x i8>>) -> !llvm.ptr<i8>
    call @read_tensor_f32(%175, %cast_175) : (!llvm.ptr<i8>, memref<*xf32>) -> ()
    %alloc_176 = memref.alloc() {alignment = 16 : i64} : memref<3072xf32>
    %cast_177 = memref.cast %alloc_176 : memref<3072xf32> to memref<*xf32>
    %176 = llvm.mlir.addressof @constant_88 : !llvm.ptr<array<12 x i8>>
    %177 = llvm.getelementptr %176[0, 0] : (!llvm.ptr<array<12 x i8>>) -> !llvm.ptr<i8>
    call @read_tensor_f32(%177, %cast_177) : (!llvm.ptr<i8>, memref<*xf32>) -> ()
    %alloc_178 = memref.alloc() {alignment = 16 : i64} : memref<1024x1024xf32>
    %cast_179 = memref.cast %alloc_178 : memref<1024x1024xf32> to memref<*xf32>
    %178 = llvm.mlir.addressof @constant_89 : !llvm.ptr<array<12 x i8>>
    %179 = llvm.getelementptr %178[0, 0] : (!llvm.ptr<array<12 x i8>>) -> !llvm.ptr<i8>
    call @read_tensor_f32(%179, %cast_179) : (!llvm.ptr<i8>, memref<*xf32>) -> ()
    %alloc_180 = memref.alloc() {alignment = 16 : i64} : memref<1024xf32>
    %cast_181 = memref.cast %alloc_180 : memref<1024xf32> to memref<*xf32>
    %180 = llvm.mlir.addressof @constant_90 : !llvm.ptr<array<12 x i8>>
    %181 = llvm.getelementptr %180[0, 0] : (!llvm.ptr<array<12 x i8>>) -> !llvm.ptr<i8>
    call @read_tensor_f32(%181, %cast_181) : (!llvm.ptr<i8>, memref<*xf32>) -> ()
    %alloc_182 = memref.alloc() {alignment = 16 : i64} : memref<1024xf32>
    %cast_183 = memref.cast %alloc_182 : memref<1024xf32> to memref<*xf32>
    %182 = llvm.mlir.addressof @constant_91 : !llvm.ptr<array<12 x i8>>
    %183 = llvm.getelementptr %182[0, 0] : (!llvm.ptr<array<12 x i8>>) -> !llvm.ptr<i8>
    call @read_tensor_f32(%183, %cast_183) : (!llvm.ptr<i8>, memref<*xf32>) -> ()
    %alloc_184 = memref.alloc() {alignment = 16 : i64} : memref<1024xf32>
    %cast_185 = memref.cast %alloc_184 : memref<1024xf32> to memref<*xf32>
    %184 = llvm.mlir.addressof @constant_92 : !llvm.ptr<array<12 x i8>>
    %185 = llvm.getelementptr %184[0, 0] : (!llvm.ptr<array<12 x i8>>) -> !llvm.ptr<i8>
    call @read_tensor_f32(%185, %cast_185) : (!llvm.ptr<i8>, memref<*xf32>) -> ()
    %alloc_186 = memref.alloc() {alignment = 16 : i64} : memref<1024x4096xf32>
    %cast_187 = memref.cast %alloc_186 : memref<1024x4096xf32> to memref<*xf32>
    %186 = llvm.mlir.addressof @constant_93 : !llvm.ptr<array<12 x i8>>
    %187 = llvm.getelementptr %186[0, 0] : (!llvm.ptr<array<12 x i8>>) -> !llvm.ptr<i8>
    call @read_tensor_f32(%187, %cast_187) : (!llvm.ptr<i8>, memref<*xf32>) -> ()
    %alloc_188 = memref.alloc() {alignment = 16 : i64} : memref<4096xf32>
    %cast_189 = memref.cast %alloc_188 : memref<4096xf32> to memref<*xf32>
    %188 = llvm.mlir.addressof @constant_94 : !llvm.ptr<array<12 x i8>>
    %189 = llvm.getelementptr %188[0, 0] : (!llvm.ptr<array<12 x i8>>) -> !llvm.ptr<i8>
    call @read_tensor_f32(%189, %cast_189) : (!llvm.ptr<i8>, memref<*xf32>) -> ()
    %alloc_190 = memref.alloc() {alignment = 16 : i64} : memref<4096x1024xf32>
    %cast_191 = memref.cast %alloc_190 : memref<4096x1024xf32> to memref<*xf32>
    %190 = llvm.mlir.addressof @constant_95 : !llvm.ptr<array<12 x i8>>
    %191 = llvm.getelementptr %190[0, 0] : (!llvm.ptr<array<12 x i8>>) -> !llvm.ptr<i8>
    call @read_tensor_f32(%191, %cast_191) : (!llvm.ptr<i8>, memref<*xf32>) -> ()
    %alloc_192 = memref.alloc() {alignment = 16 : i64} : memref<1024xf32>
    %cast_193 = memref.cast %alloc_192 : memref<1024xf32> to memref<*xf32>
    %192 = llvm.mlir.addressof @constant_96 : !llvm.ptr<array<12 x i8>>
    %193 = llvm.getelementptr %192[0, 0] : (!llvm.ptr<array<12 x i8>>) -> !llvm.ptr<i8>
    call @read_tensor_f32(%193, %cast_193) : (!llvm.ptr<i8>, memref<*xf32>) -> ()
    %alloc_194 = memref.alloc() {alignment = 16 : i64} : memref<1024xf32>
    %cast_195 = memref.cast %alloc_194 : memref<1024xf32> to memref<*xf32>
    %194 = llvm.mlir.addressof @constant_97 : !llvm.ptr<array<12 x i8>>
    %195 = llvm.getelementptr %194[0, 0] : (!llvm.ptr<array<12 x i8>>) -> !llvm.ptr<i8>
    call @read_tensor_f32(%195, %cast_195) : (!llvm.ptr<i8>, memref<*xf32>) -> ()
    %alloc_196 = memref.alloc() {alignment = 16 : i64} : memref<1024xf32>
    %cast_197 = memref.cast %alloc_196 : memref<1024xf32> to memref<*xf32>
    %196 = llvm.mlir.addressof @constant_98 : !llvm.ptr<array<12 x i8>>
    %197 = llvm.getelementptr %196[0, 0] : (!llvm.ptr<array<12 x i8>>) -> !llvm.ptr<i8>
    call @read_tensor_f32(%197, %cast_197) : (!llvm.ptr<i8>, memref<*xf32>) -> ()
    %alloc_198 = memref.alloc() {alignment = 16 : i64} : memref<1024x3072xf32>
    %cast_199 = memref.cast %alloc_198 : memref<1024x3072xf32> to memref<*xf32>
    %198 = llvm.mlir.addressof @constant_99 : !llvm.ptr<array<12 x i8>>
    %199 = llvm.getelementptr %198[0, 0] : (!llvm.ptr<array<12 x i8>>) -> !llvm.ptr<i8>
    call @read_tensor_f32(%199, %cast_199) : (!llvm.ptr<i8>, memref<*xf32>) -> ()
    %alloc_200 = memref.alloc() {alignment = 16 : i64} : memref<3072xf32>
    %cast_201 = memref.cast %alloc_200 : memref<3072xf32> to memref<*xf32>
    %200 = llvm.mlir.addressof @constant_100 : !llvm.ptr<array<13 x i8>>
    %201 = llvm.getelementptr %200[0, 0] : (!llvm.ptr<array<13 x i8>>) -> !llvm.ptr<i8>
    call @read_tensor_f32(%201, %cast_201) : (!llvm.ptr<i8>, memref<*xf32>) -> ()
    %alloc_202 = memref.alloc() {alignment = 16 : i64} : memref<1024x1024xf32>
    %cast_203 = memref.cast %alloc_202 : memref<1024x1024xf32> to memref<*xf32>
    %202 = llvm.mlir.addressof @constant_101 : !llvm.ptr<array<13 x i8>>
    %203 = llvm.getelementptr %202[0, 0] : (!llvm.ptr<array<13 x i8>>) -> !llvm.ptr<i8>
    call @read_tensor_f32(%203, %cast_203) : (!llvm.ptr<i8>, memref<*xf32>) -> ()
    %alloc_204 = memref.alloc() {alignment = 16 : i64} : memref<1024xf32>
    %cast_205 = memref.cast %alloc_204 : memref<1024xf32> to memref<*xf32>
    %204 = llvm.mlir.addressof @constant_102 : !llvm.ptr<array<13 x i8>>
    %205 = llvm.getelementptr %204[0, 0] : (!llvm.ptr<array<13 x i8>>) -> !llvm.ptr<i8>
    call @read_tensor_f32(%205, %cast_205) : (!llvm.ptr<i8>, memref<*xf32>) -> ()
    %alloc_206 = memref.alloc() {alignment = 16 : i64} : memref<1024xf32>
    %cast_207 = memref.cast %alloc_206 : memref<1024xf32> to memref<*xf32>
    %206 = llvm.mlir.addressof @constant_103 : !llvm.ptr<array<13 x i8>>
    %207 = llvm.getelementptr %206[0, 0] : (!llvm.ptr<array<13 x i8>>) -> !llvm.ptr<i8>
    call @read_tensor_f32(%207, %cast_207) : (!llvm.ptr<i8>, memref<*xf32>) -> ()
    %alloc_208 = memref.alloc() {alignment = 16 : i64} : memref<1024xf32>
    %cast_209 = memref.cast %alloc_208 : memref<1024xf32> to memref<*xf32>
    %208 = llvm.mlir.addressof @constant_104 : !llvm.ptr<array<13 x i8>>
    %209 = llvm.getelementptr %208[0, 0] : (!llvm.ptr<array<13 x i8>>) -> !llvm.ptr<i8>
    call @read_tensor_f32(%209, %cast_209) : (!llvm.ptr<i8>, memref<*xf32>) -> ()
    %alloc_210 = memref.alloc() {alignment = 16 : i64} : memref<1024x4096xf32>
    %cast_211 = memref.cast %alloc_210 : memref<1024x4096xf32> to memref<*xf32>
    %210 = llvm.mlir.addressof @constant_105 : !llvm.ptr<array<13 x i8>>
    %211 = llvm.getelementptr %210[0, 0] : (!llvm.ptr<array<13 x i8>>) -> !llvm.ptr<i8>
    call @read_tensor_f32(%211, %cast_211) : (!llvm.ptr<i8>, memref<*xf32>) -> ()
    %alloc_212 = memref.alloc() {alignment = 16 : i64} : memref<4096xf32>
    %cast_213 = memref.cast %alloc_212 : memref<4096xf32> to memref<*xf32>
    %212 = llvm.mlir.addressof @constant_106 : !llvm.ptr<array<13 x i8>>
    %213 = llvm.getelementptr %212[0, 0] : (!llvm.ptr<array<13 x i8>>) -> !llvm.ptr<i8>
    call @read_tensor_f32(%213, %cast_213) : (!llvm.ptr<i8>, memref<*xf32>) -> ()
    %alloc_214 = memref.alloc() {alignment = 16 : i64} : memref<4096x1024xf32>
    %cast_215 = memref.cast %alloc_214 : memref<4096x1024xf32> to memref<*xf32>
    %214 = llvm.mlir.addressof @constant_107 : !llvm.ptr<array<13 x i8>>
    %215 = llvm.getelementptr %214[0, 0] : (!llvm.ptr<array<13 x i8>>) -> !llvm.ptr<i8>
    call @read_tensor_f32(%215, %cast_215) : (!llvm.ptr<i8>, memref<*xf32>) -> ()
    %alloc_216 = memref.alloc() {alignment = 16 : i64} : memref<1024xf32>
    %cast_217 = memref.cast %alloc_216 : memref<1024xf32> to memref<*xf32>
    %216 = llvm.mlir.addressof @constant_108 : !llvm.ptr<array<13 x i8>>
    %217 = llvm.getelementptr %216[0, 0] : (!llvm.ptr<array<13 x i8>>) -> !llvm.ptr<i8>
    call @read_tensor_f32(%217, %cast_217) : (!llvm.ptr<i8>, memref<*xf32>) -> ()
    %alloc_218 = memref.alloc() {alignment = 16 : i64} : memref<1024xf32>
    %cast_219 = memref.cast %alloc_218 : memref<1024xf32> to memref<*xf32>
    %218 = llvm.mlir.addressof @constant_109 : !llvm.ptr<array<13 x i8>>
    %219 = llvm.getelementptr %218[0, 0] : (!llvm.ptr<array<13 x i8>>) -> !llvm.ptr<i8>
    call @read_tensor_f32(%219, %cast_219) : (!llvm.ptr<i8>, memref<*xf32>) -> ()
    %alloc_220 = memref.alloc() {alignment = 16 : i64} : memref<1024xf32>
    %cast_221 = memref.cast %alloc_220 : memref<1024xf32> to memref<*xf32>
    %220 = llvm.mlir.addressof @constant_110 : !llvm.ptr<array<13 x i8>>
    %221 = llvm.getelementptr %220[0, 0] : (!llvm.ptr<array<13 x i8>>) -> !llvm.ptr<i8>
    call @read_tensor_f32(%221, %cast_221) : (!llvm.ptr<i8>, memref<*xf32>) -> ()
    %alloc_222 = memref.alloc() {alignment = 16 : i64} : memref<1024x3072xf32>
    %cast_223 = memref.cast %alloc_222 : memref<1024x3072xf32> to memref<*xf32>
    %222 = llvm.mlir.addressof @constant_111 : !llvm.ptr<array<13 x i8>>
    %223 = llvm.getelementptr %222[0, 0] : (!llvm.ptr<array<13 x i8>>) -> !llvm.ptr<i8>
    call @read_tensor_f32(%223, %cast_223) : (!llvm.ptr<i8>, memref<*xf32>) -> ()
    %alloc_224 = memref.alloc() {alignment = 16 : i64} : memref<3072xf32>
    %cast_225 = memref.cast %alloc_224 : memref<3072xf32> to memref<*xf32>
    %224 = llvm.mlir.addressof @constant_112 : !llvm.ptr<array<13 x i8>>
    %225 = llvm.getelementptr %224[0, 0] : (!llvm.ptr<array<13 x i8>>) -> !llvm.ptr<i8>
    call @read_tensor_f32(%225, %cast_225) : (!llvm.ptr<i8>, memref<*xf32>) -> ()
    %alloc_226 = memref.alloc() {alignment = 16 : i64} : memref<1024x1024xf32>
    %cast_227 = memref.cast %alloc_226 : memref<1024x1024xf32> to memref<*xf32>
    %226 = llvm.mlir.addressof @constant_113 : !llvm.ptr<array<13 x i8>>
    %227 = llvm.getelementptr %226[0, 0] : (!llvm.ptr<array<13 x i8>>) -> !llvm.ptr<i8>
    call @read_tensor_f32(%227, %cast_227) : (!llvm.ptr<i8>, memref<*xf32>) -> ()
    %alloc_228 = memref.alloc() {alignment = 16 : i64} : memref<1024xf32>
    %cast_229 = memref.cast %alloc_228 : memref<1024xf32> to memref<*xf32>
    %228 = llvm.mlir.addressof @constant_114 : !llvm.ptr<array<13 x i8>>
    %229 = llvm.getelementptr %228[0, 0] : (!llvm.ptr<array<13 x i8>>) -> !llvm.ptr<i8>
    call @read_tensor_f32(%229, %cast_229) : (!llvm.ptr<i8>, memref<*xf32>) -> ()
    %alloc_230 = memref.alloc() {alignment = 16 : i64} : memref<1024xf32>
    %cast_231 = memref.cast %alloc_230 : memref<1024xf32> to memref<*xf32>
    %230 = llvm.mlir.addressof @constant_115 : !llvm.ptr<array<13 x i8>>
    %231 = llvm.getelementptr %230[0, 0] : (!llvm.ptr<array<13 x i8>>) -> !llvm.ptr<i8>
    call @read_tensor_f32(%231, %cast_231) : (!llvm.ptr<i8>, memref<*xf32>) -> ()
    %alloc_232 = memref.alloc() {alignment = 16 : i64} : memref<1024xf32>
    %cast_233 = memref.cast %alloc_232 : memref<1024xf32> to memref<*xf32>
    %232 = llvm.mlir.addressof @constant_116 : !llvm.ptr<array<13 x i8>>
    %233 = llvm.getelementptr %232[0, 0] : (!llvm.ptr<array<13 x i8>>) -> !llvm.ptr<i8>
    call @read_tensor_f32(%233, %cast_233) : (!llvm.ptr<i8>, memref<*xf32>) -> ()
    %alloc_234 = memref.alloc() {alignment = 16 : i64} : memref<1024x4096xf32>
    %cast_235 = memref.cast %alloc_234 : memref<1024x4096xf32> to memref<*xf32>
    %234 = llvm.mlir.addressof @constant_117 : !llvm.ptr<array<13 x i8>>
    %235 = llvm.getelementptr %234[0, 0] : (!llvm.ptr<array<13 x i8>>) -> !llvm.ptr<i8>
    call @read_tensor_f32(%235, %cast_235) : (!llvm.ptr<i8>, memref<*xf32>) -> ()
    %alloc_236 = memref.alloc() {alignment = 16 : i64} : memref<4096xf32>
    %cast_237 = memref.cast %alloc_236 : memref<4096xf32> to memref<*xf32>
    %236 = llvm.mlir.addressof @constant_118 : !llvm.ptr<array<13 x i8>>
    %237 = llvm.getelementptr %236[0, 0] : (!llvm.ptr<array<13 x i8>>) -> !llvm.ptr<i8>
    call @read_tensor_f32(%237, %cast_237) : (!llvm.ptr<i8>, memref<*xf32>) -> ()
    %alloc_238 = memref.alloc() {alignment = 16 : i64} : memref<4096x1024xf32>
    %cast_239 = memref.cast %alloc_238 : memref<4096x1024xf32> to memref<*xf32>
    %238 = llvm.mlir.addressof @constant_119 : !llvm.ptr<array<13 x i8>>
    %239 = llvm.getelementptr %238[0, 0] : (!llvm.ptr<array<13 x i8>>) -> !llvm.ptr<i8>
    call @read_tensor_f32(%239, %cast_239) : (!llvm.ptr<i8>, memref<*xf32>) -> ()
    %alloc_240 = memref.alloc() {alignment = 16 : i64} : memref<1024xf32>
    %cast_241 = memref.cast %alloc_240 : memref<1024xf32> to memref<*xf32>
    %240 = llvm.mlir.addressof @constant_120 : !llvm.ptr<array<13 x i8>>
    %241 = llvm.getelementptr %240[0, 0] : (!llvm.ptr<array<13 x i8>>) -> !llvm.ptr<i8>
    call @read_tensor_f32(%241, %cast_241) : (!llvm.ptr<i8>, memref<*xf32>) -> ()
    %alloc_242 = memref.alloc() {alignment = 16 : i64} : memref<1024xf32>
    %cast_243 = memref.cast %alloc_242 : memref<1024xf32> to memref<*xf32>
    %242 = llvm.mlir.addressof @constant_121 : !llvm.ptr<array<13 x i8>>
    %243 = llvm.getelementptr %242[0, 0] : (!llvm.ptr<array<13 x i8>>) -> !llvm.ptr<i8>
    call @read_tensor_f32(%243, %cast_243) : (!llvm.ptr<i8>, memref<*xf32>) -> ()
    %alloc_244 = memref.alloc() {alignment = 16 : i64} : memref<1024xf32>
    %cast_245 = memref.cast %alloc_244 : memref<1024xf32> to memref<*xf32>
    %244 = llvm.mlir.addressof @constant_122 : !llvm.ptr<array<13 x i8>>
    %245 = llvm.getelementptr %244[0, 0] : (!llvm.ptr<array<13 x i8>>) -> !llvm.ptr<i8>
    call @read_tensor_f32(%245, %cast_245) : (!llvm.ptr<i8>, memref<*xf32>) -> ()
    %alloc_246 = memref.alloc() {alignment = 16 : i64} : memref<1024x3072xf32>
    %cast_247 = memref.cast %alloc_246 : memref<1024x3072xf32> to memref<*xf32>
    %246 = llvm.mlir.addressof @constant_123 : !llvm.ptr<array<13 x i8>>
    %247 = llvm.getelementptr %246[0, 0] : (!llvm.ptr<array<13 x i8>>) -> !llvm.ptr<i8>
    call @read_tensor_f32(%247, %cast_247) : (!llvm.ptr<i8>, memref<*xf32>) -> ()
    %alloc_248 = memref.alloc() {alignment = 16 : i64} : memref<3072xf32>
    %cast_249 = memref.cast %alloc_248 : memref<3072xf32> to memref<*xf32>
    %248 = llvm.mlir.addressof @constant_124 : !llvm.ptr<array<13 x i8>>
    %249 = llvm.getelementptr %248[0, 0] : (!llvm.ptr<array<13 x i8>>) -> !llvm.ptr<i8>
    call @read_tensor_f32(%249, %cast_249) : (!llvm.ptr<i8>, memref<*xf32>) -> ()
    %alloc_250 = memref.alloc() {alignment = 16 : i64} : memref<1024x1024xf32>
    %cast_251 = memref.cast %alloc_250 : memref<1024x1024xf32> to memref<*xf32>
    %250 = llvm.mlir.addressof @constant_125 : !llvm.ptr<array<13 x i8>>
    %251 = llvm.getelementptr %250[0, 0] : (!llvm.ptr<array<13 x i8>>) -> !llvm.ptr<i8>
    call @read_tensor_f32(%251, %cast_251) : (!llvm.ptr<i8>, memref<*xf32>) -> ()
    %alloc_252 = memref.alloc() {alignment = 16 : i64} : memref<1024xf32>
    %cast_253 = memref.cast %alloc_252 : memref<1024xf32> to memref<*xf32>
    %252 = llvm.mlir.addressof @constant_126 : !llvm.ptr<array<13 x i8>>
    %253 = llvm.getelementptr %252[0, 0] : (!llvm.ptr<array<13 x i8>>) -> !llvm.ptr<i8>
    call @read_tensor_f32(%253, %cast_253) : (!llvm.ptr<i8>, memref<*xf32>) -> ()
    %alloc_254 = memref.alloc() {alignment = 16 : i64} : memref<1024xf32>
    %cast_255 = memref.cast %alloc_254 : memref<1024xf32> to memref<*xf32>
    %254 = llvm.mlir.addressof @constant_127 : !llvm.ptr<array<13 x i8>>
    %255 = llvm.getelementptr %254[0, 0] : (!llvm.ptr<array<13 x i8>>) -> !llvm.ptr<i8>
    call @read_tensor_f32(%255, %cast_255) : (!llvm.ptr<i8>, memref<*xf32>) -> ()
    %alloc_256 = memref.alloc() {alignment = 16 : i64} : memref<1024xf32>
    %cast_257 = memref.cast %alloc_256 : memref<1024xf32> to memref<*xf32>
    %256 = llvm.mlir.addressof @constant_128 : !llvm.ptr<array<13 x i8>>
    %257 = llvm.getelementptr %256[0, 0] : (!llvm.ptr<array<13 x i8>>) -> !llvm.ptr<i8>
    call @read_tensor_f32(%257, %cast_257) : (!llvm.ptr<i8>, memref<*xf32>) -> ()
    %alloc_258 = memref.alloc() {alignment = 16 : i64} : memref<1024x4096xf32>
    %cast_259 = memref.cast %alloc_258 : memref<1024x4096xf32> to memref<*xf32>
    %258 = llvm.mlir.addressof @constant_129 : !llvm.ptr<array<13 x i8>>
    %259 = llvm.getelementptr %258[0, 0] : (!llvm.ptr<array<13 x i8>>) -> !llvm.ptr<i8>
    call @read_tensor_f32(%259, %cast_259) : (!llvm.ptr<i8>, memref<*xf32>) -> ()
    %alloc_260 = memref.alloc() {alignment = 16 : i64} : memref<4096xf32>
    %cast_261 = memref.cast %alloc_260 : memref<4096xf32> to memref<*xf32>
    %260 = llvm.mlir.addressof @constant_130 : !llvm.ptr<array<13 x i8>>
    %261 = llvm.getelementptr %260[0, 0] : (!llvm.ptr<array<13 x i8>>) -> !llvm.ptr<i8>
    call @read_tensor_f32(%261, %cast_261) : (!llvm.ptr<i8>, memref<*xf32>) -> ()
    %alloc_262 = memref.alloc() {alignment = 16 : i64} : memref<4096x1024xf32>
    %cast_263 = memref.cast %alloc_262 : memref<4096x1024xf32> to memref<*xf32>
    %262 = llvm.mlir.addressof @constant_131 : !llvm.ptr<array<13 x i8>>
    %263 = llvm.getelementptr %262[0, 0] : (!llvm.ptr<array<13 x i8>>) -> !llvm.ptr<i8>
    call @read_tensor_f32(%263, %cast_263) : (!llvm.ptr<i8>, memref<*xf32>) -> ()
    %alloc_264 = memref.alloc() {alignment = 16 : i64} : memref<1024xf32>
    %cast_265 = memref.cast %alloc_264 : memref<1024xf32> to memref<*xf32>
    %264 = llvm.mlir.addressof @constant_132 : !llvm.ptr<array<13 x i8>>
    %265 = llvm.getelementptr %264[0, 0] : (!llvm.ptr<array<13 x i8>>) -> !llvm.ptr<i8>
    call @read_tensor_f32(%265, %cast_265) : (!llvm.ptr<i8>, memref<*xf32>) -> ()
    %alloc_266 = memref.alloc() {alignment = 16 : i64} : memref<1024xf32>
    %cast_267 = memref.cast %alloc_266 : memref<1024xf32> to memref<*xf32>
    %266 = llvm.mlir.addressof @constant_133 : !llvm.ptr<array<13 x i8>>
    %267 = llvm.getelementptr %266[0, 0] : (!llvm.ptr<array<13 x i8>>) -> !llvm.ptr<i8>
    call @read_tensor_f32(%267, %cast_267) : (!llvm.ptr<i8>, memref<*xf32>) -> ()
    %alloc_268 = memref.alloc() {alignment = 16 : i64} : memref<1024xf32>
    %cast_269 = memref.cast %alloc_268 : memref<1024xf32> to memref<*xf32>
    %268 = llvm.mlir.addressof @constant_134 : !llvm.ptr<array<13 x i8>>
    %269 = llvm.getelementptr %268[0, 0] : (!llvm.ptr<array<13 x i8>>) -> !llvm.ptr<i8>
    call @read_tensor_f32(%269, %cast_269) : (!llvm.ptr<i8>, memref<*xf32>) -> ()
    %alloc_270 = memref.alloc() {alignment = 16 : i64} : memref<1024x3072xf32>
    %cast_271 = memref.cast %alloc_270 : memref<1024x3072xf32> to memref<*xf32>
    %270 = llvm.mlir.addressof @constant_135 : !llvm.ptr<array<13 x i8>>
    %271 = llvm.getelementptr %270[0, 0] : (!llvm.ptr<array<13 x i8>>) -> !llvm.ptr<i8>
    call @read_tensor_f32(%271, %cast_271) : (!llvm.ptr<i8>, memref<*xf32>) -> ()
    %alloc_272 = memref.alloc() {alignment = 16 : i64} : memref<3072xf32>
    %cast_273 = memref.cast %alloc_272 : memref<3072xf32> to memref<*xf32>
    %272 = llvm.mlir.addressof @constant_136 : !llvm.ptr<array<13 x i8>>
    %273 = llvm.getelementptr %272[0, 0] : (!llvm.ptr<array<13 x i8>>) -> !llvm.ptr<i8>
    call @read_tensor_f32(%273, %cast_273) : (!llvm.ptr<i8>, memref<*xf32>) -> ()
    %alloc_274 = memref.alloc() {alignment = 16 : i64} : memref<1024x1024xf32>
    %cast_275 = memref.cast %alloc_274 : memref<1024x1024xf32> to memref<*xf32>
    %274 = llvm.mlir.addressof @constant_137 : !llvm.ptr<array<13 x i8>>
    %275 = llvm.getelementptr %274[0, 0] : (!llvm.ptr<array<13 x i8>>) -> !llvm.ptr<i8>
    call @read_tensor_f32(%275, %cast_275) : (!llvm.ptr<i8>, memref<*xf32>) -> ()
    %alloc_276 = memref.alloc() {alignment = 16 : i64} : memref<1024xf32>
    %cast_277 = memref.cast %alloc_276 : memref<1024xf32> to memref<*xf32>
    %276 = llvm.mlir.addressof @constant_138 : !llvm.ptr<array<13 x i8>>
    %277 = llvm.getelementptr %276[0, 0] : (!llvm.ptr<array<13 x i8>>) -> !llvm.ptr<i8>
    call @read_tensor_f32(%277, %cast_277) : (!llvm.ptr<i8>, memref<*xf32>) -> ()
    %alloc_278 = memref.alloc() {alignment = 16 : i64} : memref<1024xf32>
    %cast_279 = memref.cast %alloc_278 : memref<1024xf32> to memref<*xf32>
    %278 = llvm.mlir.addressof @constant_139 : !llvm.ptr<array<13 x i8>>
    %279 = llvm.getelementptr %278[0, 0] : (!llvm.ptr<array<13 x i8>>) -> !llvm.ptr<i8>
    call @read_tensor_f32(%279, %cast_279) : (!llvm.ptr<i8>, memref<*xf32>) -> ()
    %alloc_280 = memref.alloc() {alignment = 16 : i64} : memref<1024xf32>
    %cast_281 = memref.cast %alloc_280 : memref<1024xf32> to memref<*xf32>
    %280 = llvm.mlir.addressof @constant_140 : !llvm.ptr<array<13 x i8>>
    %281 = llvm.getelementptr %280[0, 0] : (!llvm.ptr<array<13 x i8>>) -> !llvm.ptr<i8>
    call @read_tensor_f32(%281, %cast_281) : (!llvm.ptr<i8>, memref<*xf32>) -> ()
    %alloc_282 = memref.alloc() {alignment = 16 : i64} : memref<1024x4096xf32>
    %cast_283 = memref.cast %alloc_282 : memref<1024x4096xf32> to memref<*xf32>
    %282 = llvm.mlir.addressof @constant_141 : !llvm.ptr<array<13 x i8>>
    %283 = llvm.getelementptr %282[0, 0] : (!llvm.ptr<array<13 x i8>>) -> !llvm.ptr<i8>
    call @read_tensor_f32(%283, %cast_283) : (!llvm.ptr<i8>, memref<*xf32>) -> ()
    %alloc_284 = memref.alloc() {alignment = 16 : i64} : memref<4096xf32>
    %cast_285 = memref.cast %alloc_284 : memref<4096xf32> to memref<*xf32>
    %284 = llvm.mlir.addressof @constant_142 : !llvm.ptr<array<13 x i8>>
    %285 = llvm.getelementptr %284[0, 0] : (!llvm.ptr<array<13 x i8>>) -> !llvm.ptr<i8>
    call @read_tensor_f32(%285, %cast_285) : (!llvm.ptr<i8>, memref<*xf32>) -> ()
    %alloc_286 = memref.alloc() {alignment = 16 : i64} : memref<4096x1024xf32>
    %cast_287 = memref.cast %alloc_286 : memref<4096x1024xf32> to memref<*xf32>
    %286 = llvm.mlir.addressof @constant_143 : !llvm.ptr<array<13 x i8>>
    %287 = llvm.getelementptr %286[0, 0] : (!llvm.ptr<array<13 x i8>>) -> !llvm.ptr<i8>
    call @read_tensor_f32(%287, %cast_287) : (!llvm.ptr<i8>, memref<*xf32>) -> ()
    %alloc_288 = memref.alloc() {alignment = 16 : i64} : memref<1024xf32>
    %cast_289 = memref.cast %alloc_288 : memref<1024xf32> to memref<*xf32>
    %288 = llvm.mlir.addressof @constant_144 : !llvm.ptr<array<13 x i8>>
    %289 = llvm.getelementptr %288[0, 0] : (!llvm.ptr<array<13 x i8>>) -> !llvm.ptr<i8>
    call @read_tensor_f32(%289, %cast_289) : (!llvm.ptr<i8>, memref<*xf32>) -> ()
    %alloc_290 = memref.alloc() {alignment = 16 : i64} : memref<1024xf32>
    %cast_291 = memref.cast %alloc_290 : memref<1024xf32> to memref<*xf32>
    %290 = llvm.mlir.addressof @constant_145 : !llvm.ptr<array<13 x i8>>
    %291 = llvm.getelementptr %290[0, 0] : (!llvm.ptr<array<13 x i8>>) -> !llvm.ptr<i8>
    call @read_tensor_f32(%291, %cast_291) : (!llvm.ptr<i8>, memref<*xf32>) -> ()
    %alloc_292 = memref.alloc() {alignment = 16 : i64} : memref<1024xf32>
    %cast_293 = memref.cast %alloc_292 : memref<1024xf32> to memref<*xf32>
    %292 = llvm.mlir.addressof @constant_146 : !llvm.ptr<array<13 x i8>>
    %293 = llvm.getelementptr %292[0, 0] : (!llvm.ptr<array<13 x i8>>) -> !llvm.ptr<i8>
    call @read_tensor_f32(%293, %cast_293) : (!llvm.ptr<i8>, memref<*xf32>) -> ()
    %alloc_294 = memref.alloc() {alignment = 16 : i64} : memref<1024x3072xf32>
    %cast_295 = memref.cast %alloc_294 : memref<1024x3072xf32> to memref<*xf32>
    %294 = llvm.mlir.addressof @constant_147 : !llvm.ptr<array<13 x i8>>
    %295 = llvm.getelementptr %294[0, 0] : (!llvm.ptr<array<13 x i8>>) -> !llvm.ptr<i8>
    call @read_tensor_f32(%295, %cast_295) : (!llvm.ptr<i8>, memref<*xf32>) -> ()
    %alloc_296 = memref.alloc() {alignment = 16 : i64} : memref<3072xf32>
    %cast_297 = memref.cast %alloc_296 : memref<3072xf32> to memref<*xf32>
    %296 = llvm.mlir.addressof @constant_148 : !llvm.ptr<array<13 x i8>>
    %297 = llvm.getelementptr %296[0, 0] : (!llvm.ptr<array<13 x i8>>) -> !llvm.ptr<i8>
    call @read_tensor_f32(%297, %cast_297) : (!llvm.ptr<i8>, memref<*xf32>) -> ()
    %alloc_298 = memref.alloc() {alignment = 16 : i64} : memref<1024x1024xf32>
    %cast_299 = memref.cast %alloc_298 : memref<1024x1024xf32> to memref<*xf32>
    %298 = llvm.mlir.addressof @constant_149 : !llvm.ptr<array<13 x i8>>
    %299 = llvm.getelementptr %298[0, 0] : (!llvm.ptr<array<13 x i8>>) -> !llvm.ptr<i8>
    call @read_tensor_f32(%299, %cast_299) : (!llvm.ptr<i8>, memref<*xf32>) -> ()
    %alloc_300 = memref.alloc() {alignment = 16 : i64} : memref<1024xf32>
    %cast_301 = memref.cast %alloc_300 : memref<1024xf32> to memref<*xf32>
    %300 = llvm.mlir.addressof @constant_150 : !llvm.ptr<array<13 x i8>>
    %301 = llvm.getelementptr %300[0, 0] : (!llvm.ptr<array<13 x i8>>) -> !llvm.ptr<i8>
    call @read_tensor_f32(%301, %cast_301) : (!llvm.ptr<i8>, memref<*xf32>) -> ()
    %alloc_302 = memref.alloc() {alignment = 16 : i64} : memref<1024xf32>
    %cast_303 = memref.cast %alloc_302 : memref<1024xf32> to memref<*xf32>
    %302 = llvm.mlir.addressof @constant_151 : !llvm.ptr<array<13 x i8>>
    %303 = llvm.getelementptr %302[0, 0] : (!llvm.ptr<array<13 x i8>>) -> !llvm.ptr<i8>
    call @read_tensor_f32(%303, %cast_303) : (!llvm.ptr<i8>, memref<*xf32>) -> ()
    %alloc_304 = memref.alloc() {alignment = 16 : i64} : memref<1024xf32>
    %cast_305 = memref.cast %alloc_304 : memref<1024xf32> to memref<*xf32>
    %304 = llvm.mlir.addressof @constant_152 : !llvm.ptr<array<13 x i8>>
    %305 = llvm.getelementptr %304[0, 0] : (!llvm.ptr<array<13 x i8>>) -> !llvm.ptr<i8>
    call @read_tensor_f32(%305, %cast_305) : (!llvm.ptr<i8>, memref<*xf32>) -> ()
    %alloc_306 = memref.alloc() {alignment = 16 : i64} : memref<1024x4096xf32>
    %cast_307 = memref.cast %alloc_306 : memref<1024x4096xf32> to memref<*xf32>
    %306 = llvm.mlir.addressof @constant_153 : !llvm.ptr<array<13 x i8>>
    %307 = llvm.getelementptr %306[0, 0] : (!llvm.ptr<array<13 x i8>>) -> !llvm.ptr<i8>
    call @read_tensor_f32(%307, %cast_307) : (!llvm.ptr<i8>, memref<*xf32>) -> ()
    %alloc_308 = memref.alloc() {alignment = 16 : i64} : memref<4096xf32>
    %cast_309 = memref.cast %alloc_308 : memref<4096xf32> to memref<*xf32>
    %308 = llvm.mlir.addressof @constant_154 : !llvm.ptr<array<13 x i8>>
    %309 = llvm.getelementptr %308[0, 0] : (!llvm.ptr<array<13 x i8>>) -> !llvm.ptr<i8>
    call @read_tensor_f32(%309, %cast_309) : (!llvm.ptr<i8>, memref<*xf32>) -> ()
    %alloc_310 = memref.alloc() {alignment = 16 : i64} : memref<4096x1024xf32>
    %cast_311 = memref.cast %alloc_310 : memref<4096x1024xf32> to memref<*xf32>
    %310 = llvm.mlir.addressof @constant_155 : !llvm.ptr<array<13 x i8>>
    %311 = llvm.getelementptr %310[0, 0] : (!llvm.ptr<array<13 x i8>>) -> !llvm.ptr<i8>
    call @read_tensor_f32(%311, %cast_311) : (!llvm.ptr<i8>, memref<*xf32>) -> ()
    %alloc_312 = memref.alloc() {alignment = 16 : i64} : memref<1024xf32>
    %cast_313 = memref.cast %alloc_312 : memref<1024xf32> to memref<*xf32>
    %312 = llvm.mlir.addressof @constant_156 : !llvm.ptr<array<13 x i8>>
    %313 = llvm.getelementptr %312[0, 0] : (!llvm.ptr<array<13 x i8>>) -> !llvm.ptr<i8>
    call @read_tensor_f32(%313, %cast_313) : (!llvm.ptr<i8>, memref<*xf32>) -> ()
    %alloc_314 = memref.alloc() {alignment = 16 : i64} : memref<1024xf32>
    %cast_315 = memref.cast %alloc_314 : memref<1024xf32> to memref<*xf32>
    %314 = llvm.mlir.addressof @constant_157 : !llvm.ptr<array<13 x i8>>
    %315 = llvm.getelementptr %314[0, 0] : (!llvm.ptr<array<13 x i8>>) -> !llvm.ptr<i8>
    call @read_tensor_f32(%315, %cast_315) : (!llvm.ptr<i8>, memref<*xf32>) -> ()
    %alloc_316 = memref.alloc() {alignment = 16 : i64} : memref<1024xf32>
    %cast_317 = memref.cast %alloc_316 : memref<1024xf32> to memref<*xf32>
    %316 = llvm.mlir.addressof @constant_158 : !llvm.ptr<array<13 x i8>>
    %317 = llvm.getelementptr %316[0, 0] : (!llvm.ptr<array<13 x i8>>) -> !llvm.ptr<i8>
    call @read_tensor_f32(%317, %cast_317) : (!llvm.ptr<i8>, memref<*xf32>) -> ()
    %alloc_318 = memref.alloc() {alignment = 16 : i64} : memref<1024x3072xf32>
    %cast_319 = memref.cast %alloc_318 : memref<1024x3072xf32> to memref<*xf32>
    %318 = llvm.mlir.addressof @constant_159 : !llvm.ptr<array<13 x i8>>
    %319 = llvm.getelementptr %318[0, 0] : (!llvm.ptr<array<13 x i8>>) -> !llvm.ptr<i8>
    call @read_tensor_f32(%319, %cast_319) : (!llvm.ptr<i8>, memref<*xf32>) -> ()
    %alloc_320 = memref.alloc() {alignment = 16 : i64} : memref<3072xf32>
    %cast_321 = memref.cast %alloc_320 : memref<3072xf32> to memref<*xf32>
    %320 = llvm.mlir.addressof @constant_160 : !llvm.ptr<array<13 x i8>>
    %321 = llvm.getelementptr %320[0, 0] : (!llvm.ptr<array<13 x i8>>) -> !llvm.ptr<i8>
    call @read_tensor_f32(%321, %cast_321) : (!llvm.ptr<i8>, memref<*xf32>) -> ()
    %alloc_322 = memref.alloc() {alignment = 16 : i64} : memref<1024x1024xf32>
    %cast_323 = memref.cast %alloc_322 : memref<1024x1024xf32> to memref<*xf32>
    %322 = llvm.mlir.addressof @constant_161 : !llvm.ptr<array<13 x i8>>
    %323 = llvm.getelementptr %322[0, 0] : (!llvm.ptr<array<13 x i8>>) -> !llvm.ptr<i8>
    call @read_tensor_f32(%323, %cast_323) : (!llvm.ptr<i8>, memref<*xf32>) -> ()
    %alloc_324 = memref.alloc() {alignment = 16 : i64} : memref<1024xf32>
    %cast_325 = memref.cast %alloc_324 : memref<1024xf32> to memref<*xf32>
    %324 = llvm.mlir.addressof @constant_162 : !llvm.ptr<array<13 x i8>>
    %325 = llvm.getelementptr %324[0, 0] : (!llvm.ptr<array<13 x i8>>) -> !llvm.ptr<i8>
    call @read_tensor_f32(%325, %cast_325) : (!llvm.ptr<i8>, memref<*xf32>) -> ()
    %alloc_326 = memref.alloc() {alignment = 16 : i64} : memref<1024xf32>
    %cast_327 = memref.cast %alloc_326 : memref<1024xf32> to memref<*xf32>
    %326 = llvm.mlir.addressof @constant_163 : !llvm.ptr<array<13 x i8>>
    %327 = llvm.getelementptr %326[0, 0] : (!llvm.ptr<array<13 x i8>>) -> !llvm.ptr<i8>
    call @read_tensor_f32(%327, %cast_327) : (!llvm.ptr<i8>, memref<*xf32>) -> ()
    %alloc_328 = memref.alloc() {alignment = 16 : i64} : memref<1024xf32>
    %cast_329 = memref.cast %alloc_328 : memref<1024xf32> to memref<*xf32>
    %328 = llvm.mlir.addressof @constant_164 : !llvm.ptr<array<13 x i8>>
    %329 = llvm.getelementptr %328[0, 0] : (!llvm.ptr<array<13 x i8>>) -> !llvm.ptr<i8>
    call @read_tensor_f32(%329, %cast_329) : (!llvm.ptr<i8>, memref<*xf32>) -> ()
    %alloc_330 = memref.alloc() {alignment = 16 : i64} : memref<1024x4096xf32>
    %cast_331 = memref.cast %alloc_330 : memref<1024x4096xf32> to memref<*xf32>
    %330 = llvm.mlir.addressof @constant_165 : !llvm.ptr<array<13 x i8>>
    %331 = llvm.getelementptr %330[0, 0] : (!llvm.ptr<array<13 x i8>>) -> !llvm.ptr<i8>
    call @read_tensor_f32(%331, %cast_331) : (!llvm.ptr<i8>, memref<*xf32>) -> ()
    %alloc_332 = memref.alloc() {alignment = 16 : i64} : memref<4096xf32>
    %cast_333 = memref.cast %alloc_332 : memref<4096xf32> to memref<*xf32>
    %332 = llvm.mlir.addressof @constant_166 : !llvm.ptr<array<13 x i8>>
    %333 = llvm.getelementptr %332[0, 0] : (!llvm.ptr<array<13 x i8>>) -> !llvm.ptr<i8>
    call @read_tensor_f32(%333, %cast_333) : (!llvm.ptr<i8>, memref<*xf32>) -> ()
    %alloc_334 = memref.alloc() {alignment = 16 : i64} : memref<4096x1024xf32>
    %cast_335 = memref.cast %alloc_334 : memref<4096x1024xf32> to memref<*xf32>
    %334 = llvm.mlir.addressof @constant_167 : !llvm.ptr<array<13 x i8>>
    %335 = llvm.getelementptr %334[0, 0] : (!llvm.ptr<array<13 x i8>>) -> !llvm.ptr<i8>
    call @read_tensor_f32(%335, %cast_335) : (!llvm.ptr<i8>, memref<*xf32>) -> ()
    %alloc_336 = memref.alloc() {alignment = 16 : i64} : memref<1024xf32>
    %cast_337 = memref.cast %alloc_336 : memref<1024xf32> to memref<*xf32>
    %336 = llvm.mlir.addressof @constant_168 : !llvm.ptr<array<13 x i8>>
    %337 = llvm.getelementptr %336[0, 0] : (!llvm.ptr<array<13 x i8>>) -> !llvm.ptr<i8>
    call @read_tensor_f32(%337, %cast_337) : (!llvm.ptr<i8>, memref<*xf32>) -> ()
    %alloc_338 = memref.alloc() {alignment = 16 : i64} : memref<1024xf32>
    %cast_339 = memref.cast %alloc_338 : memref<1024xf32> to memref<*xf32>
    %338 = llvm.mlir.addressof @constant_169 : !llvm.ptr<array<13 x i8>>
    %339 = llvm.getelementptr %338[0, 0] : (!llvm.ptr<array<13 x i8>>) -> !llvm.ptr<i8>
    call @read_tensor_f32(%339, %cast_339) : (!llvm.ptr<i8>, memref<*xf32>) -> ()
    %alloc_340 = memref.alloc() {alignment = 16 : i64} : memref<1024xf32>
    %cast_341 = memref.cast %alloc_340 : memref<1024xf32> to memref<*xf32>
    %340 = llvm.mlir.addressof @constant_170 : !llvm.ptr<array<13 x i8>>
    %341 = llvm.getelementptr %340[0, 0] : (!llvm.ptr<array<13 x i8>>) -> !llvm.ptr<i8>
    call @read_tensor_f32(%341, %cast_341) : (!llvm.ptr<i8>, memref<*xf32>) -> ()
    %alloc_342 = memref.alloc() {alignment = 16 : i64} : memref<1024x3072xf32>
    %cast_343 = memref.cast %alloc_342 : memref<1024x3072xf32> to memref<*xf32>
    %342 = llvm.mlir.addressof @constant_171 : !llvm.ptr<array<13 x i8>>
    %343 = llvm.getelementptr %342[0, 0] : (!llvm.ptr<array<13 x i8>>) -> !llvm.ptr<i8>
    call @read_tensor_f32(%343, %cast_343) : (!llvm.ptr<i8>, memref<*xf32>) -> ()
    %alloc_344 = memref.alloc() {alignment = 16 : i64} : memref<3072xf32>
    %cast_345 = memref.cast %alloc_344 : memref<3072xf32> to memref<*xf32>
    %344 = llvm.mlir.addressof @constant_172 : !llvm.ptr<array<13 x i8>>
    %345 = llvm.getelementptr %344[0, 0] : (!llvm.ptr<array<13 x i8>>) -> !llvm.ptr<i8>
    call @read_tensor_f32(%345, %cast_345) : (!llvm.ptr<i8>, memref<*xf32>) -> ()
    %alloc_346 = memref.alloc() {alignment = 16 : i64} : memref<1024x1024xf32>
    %cast_347 = memref.cast %alloc_346 : memref<1024x1024xf32> to memref<*xf32>
    %346 = llvm.mlir.addressof @constant_173 : !llvm.ptr<array<13 x i8>>
    %347 = llvm.getelementptr %346[0, 0] : (!llvm.ptr<array<13 x i8>>) -> !llvm.ptr<i8>
    call @read_tensor_f32(%347, %cast_347) : (!llvm.ptr<i8>, memref<*xf32>) -> ()
    %alloc_348 = memref.alloc() {alignment = 16 : i64} : memref<1024xf32>
    %cast_349 = memref.cast %alloc_348 : memref<1024xf32> to memref<*xf32>
    %348 = llvm.mlir.addressof @constant_174 : !llvm.ptr<array<13 x i8>>
    %349 = llvm.getelementptr %348[0, 0] : (!llvm.ptr<array<13 x i8>>) -> !llvm.ptr<i8>
    call @read_tensor_f32(%349, %cast_349) : (!llvm.ptr<i8>, memref<*xf32>) -> ()
    %alloc_350 = memref.alloc() {alignment = 16 : i64} : memref<1024xf32>
    %cast_351 = memref.cast %alloc_350 : memref<1024xf32> to memref<*xf32>
    %350 = llvm.mlir.addressof @constant_175 : !llvm.ptr<array<13 x i8>>
    %351 = llvm.getelementptr %350[0, 0] : (!llvm.ptr<array<13 x i8>>) -> !llvm.ptr<i8>
    call @read_tensor_f32(%351, %cast_351) : (!llvm.ptr<i8>, memref<*xf32>) -> ()
    %alloc_352 = memref.alloc() {alignment = 16 : i64} : memref<1024xf32>
    %cast_353 = memref.cast %alloc_352 : memref<1024xf32> to memref<*xf32>
    %352 = llvm.mlir.addressof @constant_176 : !llvm.ptr<array<13 x i8>>
    %353 = llvm.getelementptr %352[0, 0] : (!llvm.ptr<array<13 x i8>>) -> !llvm.ptr<i8>
    call @read_tensor_f32(%353, %cast_353) : (!llvm.ptr<i8>, memref<*xf32>) -> ()
    %alloc_354 = memref.alloc() {alignment = 16 : i64} : memref<1024x4096xf32>
    %cast_355 = memref.cast %alloc_354 : memref<1024x4096xf32> to memref<*xf32>
    %354 = llvm.mlir.addressof @constant_177 : !llvm.ptr<array<13 x i8>>
    %355 = llvm.getelementptr %354[0, 0] : (!llvm.ptr<array<13 x i8>>) -> !llvm.ptr<i8>
    call @read_tensor_f32(%355, %cast_355) : (!llvm.ptr<i8>, memref<*xf32>) -> ()
    %alloc_356 = memref.alloc() {alignment = 16 : i64} : memref<4096xf32>
    %cast_357 = memref.cast %alloc_356 : memref<4096xf32> to memref<*xf32>
    %356 = llvm.mlir.addressof @constant_178 : !llvm.ptr<array<13 x i8>>
    %357 = llvm.getelementptr %356[0, 0] : (!llvm.ptr<array<13 x i8>>) -> !llvm.ptr<i8>
    call @read_tensor_f32(%357, %cast_357) : (!llvm.ptr<i8>, memref<*xf32>) -> ()
    %alloc_358 = memref.alloc() {alignment = 16 : i64} : memref<4096x1024xf32>
    %cast_359 = memref.cast %alloc_358 : memref<4096x1024xf32> to memref<*xf32>
    %358 = llvm.mlir.addressof @constant_179 : !llvm.ptr<array<13 x i8>>
    %359 = llvm.getelementptr %358[0, 0] : (!llvm.ptr<array<13 x i8>>) -> !llvm.ptr<i8>
    call @read_tensor_f32(%359, %cast_359) : (!llvm.ptr<i8>, memref<*xf32>) -> ()
    %alloc_360 = memref.alloc() {alignment = 16 : i64} : memref<1024xf32>
    %cast_361 = memref.cast %alloc_360 : memref<1024xf32> to memref<*xf32>
    %360 = llvm.mlir.addressof @constant_180 : !llvm.ptr<array<13 x i8>>
    %361 = llvm.getelementptr %360[0, 0] : (!llvm.ptr<array<13 x i8>>) -> !llvm.ptr<i8>
    call @read_tensor_f32(%361, %cast_361) : (!llvm.ptr<i8>, memref<*xf32>) -> ()
    %alloc_362 = memref.alloc() {alignment = 16 : i64} : memref<1024xf32>
    %cast_363 = memref.cast %alloc_362 : memref<1024xf32> to memref<*xf32>
    %362 = llvm.mlir.addressof @constant_181 : !llvm.ptr<array<13 x i8>>
    %363 = llvm.getelementptr %362[0, 0] : (!llvm.ptr<array<13 x i8>>) -> !llvm.ptr<i8>
    call @read_tensor_f32(%363, %cast_363) : (!llvm.ptr<i8>, memref<*xf32>) -> ()
    %alloc_364 = memref.alloc() {alignment = 16 : i64} : memref<1024xf32>
    %cast_365 = memref.cast %alloc_364 : memref<1024xf32> to memref<*xf32>
    %364 = llvm.mlir.addressof @constant_182 : !llvm.ptr<array<13 x i8>>
    %365 = llvm.getelementptr %364[0, 0] : (!llvm.ptr<array<13 x i8>>) -> !llvm.ptr<i8>
    call @read_tensor_f32(%365, %cast_365) : (!llvm.ptr<i8>, memref<*xf32>) -> ()
    %alloc_366 = memref.alloc() {alignment = 16 : i64} : memref<1024x3072xf32>
    %cast_367 = memref.cast %alloc_366 : memref<1024x3072xf32> to memref<*xf32>
    %366 = llvm.mlir.addressof @constant_183 : !llvm.ptr<array<13 x i8>>
    %367 = llvm.getelementptr %366[0, 0] : (!llvm.ptr<array<13 x i8>>) -> !llvm.ptr<i8>
    call @read_tensor_f32(%367, %cast_367) : (!llvm.ptr<i8>, memref<*xf32>) -> ()
    %alloc_368 = memref.alloc() {alignment = 16 : i64} : memref<3072xf32>
    %cast_369 = memref.cast %alloc_368 : memref<3072xf32> to memref<*xf32>
    %368 = llvm.mlir.addressof @constant_184 : !llvm.ptr<array<13 x i8>>
    %369 = llvm.getelementptr %368[0, 0] : (!llvm.ptr<array<13 x i8>>) -> !llvm.ptr<i8>
    call @read_tensor_f32(%369, %cast_369) : (!llvm.ptr<i8>, memref<*xf32>) -> ()
    %alloc_370 = memref.alloc() {alignment = 16 : i64} : memref<1024x1024xf32>
    %cast_371 = memref.cast %alloc_370 : memref<1024x1024xf32> to memref<*xf32>
    %370 = llvm.mlir.addressof @constant_185 : !llvm.ptr<array<13 x i8>>
    %371 = llvm.getelementptr %370[0, 0] : (!llvm.ptr<array<13 x i8>>) -> !llvm.ptr<i8>
    call @read_tensor_f32(%371, %cast_371) : (!llvm.ptr<i8>, memref<*xf32>) -> ()
    %alloc_372 = memref.alloc() {alignment = 16 : i64} : memref<1024xf32>
    %cast_373 = memref.cast %alloc_372 : memref<1024xf32> to memref<*xf32>
    %372 = llvm.mlir.addressof @constant_186 : !llvm.ptr<array<13 x i8>>
    %373 = llvm.getelementptr %372[0, 0] : (!llvm.ptr<array<13 x i8>>) -> !llvm.ptr<i8>
    call @read_tensor_f32(%373, %cast_373) : (!llvm.ptr<i8>, memref<*xf32>) -> ()
    %alloc_374 = memref.alloc() {alignment = 16 : i64} : memref<1024xf32>
    %cast_375 = memref.cast %alloc_374 : memref<1024xf32> to memref<*xf32>
    %374 = llvm.mlir.addressof @constant_187 : !llvm.ptr<array<13 x i8>>
    %375 = llvm.getelementptr %374[0, 0] : (!llvm.ptr<array<13 x i8>>) -> !llvm.ptr<i8>
    call @read_tensor_f32(%375, %cast_375) : (!llvm.ptr<i8>, memref<*xf32>) -> ()
    %alloc_376 = memref.alloc() {alignment = 16 : i64} : memref<1024xf32>
    %cast_377 = memref.cast %alloc_376 : memref<1024xf32> to memref<*xf32>
    %376 = llvm.mlir.addressof @constant_188 : !llvm.ptr<array<13 x i8>>
    %377 = llvm.getelementptr %376[0, 0] : (!llvm.ptr<array<13 x i8>>) -> !llvm.ptr<i8>
    call @read_tensor_f32(%377, %cast_377) : (!llvm.ptr<i8>, memref<*xf32>) -> ()
    %alloc_378 = memref.alloc() {alignment = 16 : i64} : memref<1024x4096xf32>
    %cast_379 = memref.cast %alloc_378 : memref<1024x4096xf32> to memref<*xf32>
    %378 = llvm.mlir.addressof @constant_189 : !llvm.ptr<array<13 x i8>>
    %379 = llvm.getelementptr %378[0, 0] : (!llvm.ptr<array<13 x i8>>) -> !llvm.ptr<i8>
    call @read_tensor_f32(%379, %cast_379) : (!llvm.ptr<i8>, memref<*xf32>) -> ()
    %alloc_380 = memref.alloc() {alignment = 16 : i64} : memref<4096xf32>
    %cast_381 = memref.cast %alloc_380 : memref<4096xf32> to memref<*xf32>
    %380 = llvm.mlir.addressof @constant_190 : !llvm.ptr<array<13 x i8>>
    %381 = llvm.getelementptr %380[0, 0] : (!llvm.ptr<array<13 x i8>>) -> !llvm.ptr<i8>
    call @read_tensor_f32(%381, %cast_381) : (!llvm.ptr<i8>, memref<*xf32>) -> ()
    %alloc_382 = memref.alloc() {alignment = 16 : i64} : memref<4096x1024xf32>
    %cast_383 = memref.cast %alloc_382 : memref<4096x1024xf32> to memref<*xf32>
    %382 = llvm.mlir.addressof @constant_191 : !llvm.ptr<array<13 x i8>>
    %383 = llvm.getelementptr %382[0, 0] : (!llvm.ptr<array<13 x i8>>) -> !llvm.ptr<i8>
    call @read_tensor_f32(%383, %cast_383) : (!llvm.ptr<i8>, memref<*xf32>) -> ()
    %alloc_384 = memref.alloc() {alignment = 16 : i64} : memref<1024xf32>
    %cast_385 = memref.cast %alloc_384 : memref<1024xf32> to memref<*xf32>
    %384 = llvm.mlir.addressof @constant_192 : !llvm.ptr<array<13 x i8>>
    %385 = llvm.getelementptr %384[0, 0] : (!llvm.ptr<array<13 x i8>>) -> !llvm.ptr<i8>
    call @read_tensor_f32(%385, %cast_385) : (!llvm.ptr<i8>, memref<*xf32>) -> ()
    %alloc_386 = memref.alloc() {alignment = 16 : i64} : memref<1024xf32>
    %cast_387 = memref.cast %alloc_386 : memref<1024xf32> to memref<*xf32>
    %386 = llvm.mlir.addressof @constant_193 : !llvm.ptr<array<13 x i8>>
    %387 = llvm.getelementptr %386[0, 0] : (!llvm.ptr<array<13 x i8>>) -> !llvm.ptr<i8>
    call @read_tensor_f32(%387, %cast_387) : (!llvm.ptr<i8>, memref<*xf32>) -> ()
    %alloc_388 = memref.alloc() {alignment = 16 : i64} : memref<1024xf32>
    %cast_389 = memref.cast %alloc_388 : memref<1024xf32> to memref<*xf32>
    %388 = llvm.mlir.addressof @constant_194 : !llvm.ptr<array<13 x i8>>
    %389 = llvm.getelementptr %388[0, 0] : (!llvm.ptr<array<13 x i8>>) -> !llvm.ptr<i8>
    call @read_tensor_f32(%389, %cast_389) : (!llvm.ptr<i8>, memref<*xf32>) -> ()
    %alloc_390 = memref.alloc() {alignment = 16 : i64} : memref<1024x3072xf32>
    %cast_391 = memref.cast %alloc_390 : memref<1024x3072xf32> to memref<*xf32>
    %390 = llvm.mlir.addressof @constant_195 : !llvm.ptr<array<13 x i8>>
    %391 = llvm.getelementptr %390[0, 0] : (!llvm.ptr<array<13 x i8>>) -> !llvm.ptr<i8>
    call @read_tensor_f32(%391, %cast_391) : (!llvm.ptr<i8>, memref<*xf32>) -> ()
    %alloc_392 = memref.alloc() {alignment = 16 : i64} : memref<3072xf32>
    %cast_393 = memref.cast %alloc_392 : memref<3072xf32> to memref<*xf32>
    %392 = llvm.mlir.addressof @constant_196 : !llvm.ptr<array<13 x i8>>
    %393 = llvm.getelementptr %392[0, 0] : (!llvm.ptr<array<13 x i8>>) -> !llvm.ptr<i8>
    call @read_tensor_f32(%393, %cast_393) : (!llvm.ptr<i8>, memref<*xf32>) -> ()
    %alloc_394 = memref.alloc() {alignment = 16 : i64} : memref<1024x1024xf32>
    %cast_395 = memref.cast %alloc_394 : memref<1024x1024xf32> to memref<*xf32>
    %394 = llvm.mlir.addressof @constant_197 : !llvm.ptr<array<13 x i8>>
    %395 = llvm.getelementptr %394[0, 0] : (!llvm.ptr<array<13 x i8>>) -> !llvm.ptr<i8>
    call @read_tensor_f32(%395, %cast_395) : (!llvm.ptr<i8>, memref<*xf32>) -> ()
    %alloc_396 = memref.alloc() {alignment = 16 : i64} : memref<1024xf32>
    %cast_397 = memref.cast %alloc_396 : memref<1024xf32> to memref<*xf32>
    %396 = llvm.mlir.addressof @constant_198 : !llvm.ptr<array<13 x i8>>
    %397 = llvm.getelementptr %396[0, 0] : (!llvm.ptr<array<13 x i8>>) -> !llvm.ptr<i8>
    call @read_tensor_f32(%397, %cast_397) : (!llvm.ptr<i8>, memref<*xf32>) -> ()
    %alloc_398 = memref.alloc() {alignment = 16 : i64} : memref<1024xf32>
    %cast_399 = memref.cast %alloc_398 : memref<1024xf32> to memref<*xf32>
    %398 = llvm.mlir.addressof @constant_199 : !llvm.ptr<array<13 x i8>>
    %399 = llvm.getelementptr %398[0, 0] : (!llvm.ptr<array<13 x i8>>) -> !llvm.ptr<i8>
    call @read_tensor_f32(%399, %cast_399) : (!llvm.ptr<i8>, memref<*xf32>) -> ()
    %alloc_400 = memref.alloc() {alignment = 16 : i64} : memref<1024xf32>
    %cast_401 = memref.cast %alloc_400 : memref<1024xf32> to memref<*xf32>
    %400 = llvm.mlir.addressof @constant_200 : !llvm.ptr<array<13 x i8>>
    %401 = llvm.getelementptr %400[0, 0] : (!llvm.ptr<array<13 x i8>>) -> !llvm.ptr<i8>
    call @read_tensor_f32(%401, %cast_401) : (!llvm.ptr<i8>, memref<*xf32>) -> ()
    %alloc_402 = memref.alloc() {alignment = 16 : i64} : memref<1024x4096xf32>
    %cast_403 = memref.cast %alloc_402 : memref<1024x4096xf32> to memref<*xf32>
    %402 = llvm.mlir.addressof @constant_201 : !llvm.ptr<array<13 x i8>>
    %403 = llvm.getelementptr %402[0, 0] : (!llvm.ptr<array<13 x i8>>) -> !llvm.ptr<i8>
    call @read_tensor_f32(%403, %cast_403) : (!llvm.ptr<i8>, memref<*xf32>) -> ()
    %alloc_404 = memref.alloc() {alignment = 16 : i64} : memref<4096xf32>
    %cast_405 = memref.cast %alloc_404 : memref<4096xf32> to memref<*xf32>
    %404 = llvm.mlir.addressof @constant_202 : !llvm.ptr<array<13 x i8>>
    %405 = llvm.getelementptr %404[0, 0] : (!llvm.ptr<array<13 x i8>>) -> !llvm.ptr<i8>
    call @read_tensor_f32(%405, %cast_405) : (!llvm.ptr<i8>, memref<*xf32>) -> ()
    %alloc_406 = memref.alloc() {alignment = 16 : i64} : memref<4096x1024xf32>
    %cast_407 = memref.cast %alloc_406 : memref<4096x1024xf32> to memref<*xf32>
    %406 = llvm.mlir.addressof @constant_203 : !llvm.ptr<array<13 x i8>>
    %407 = llvm.getelementptr %406[0, 0] : (!llvm.ptr<array<13 x i8>>) -> !llvm.ptr<i8>
    call @read_tensor_f32(%407, %cast_407) : (!llvm.ptr<i8>, memref<*xf32>) -> ()
    %alloc_408 = memref.alloc() {alignment = 16 : i64} : memref<1024xf32>
    %cast_409 = memref.cast %alloc_408 : memref<1024xf32> to memref<*xf32>
    %408 = llvm.mlir.addressof @constant_204 : !llvm.ptr<array<13 x i8>>
    %409 = llvm.getelementptr %408[0, 0] : (!llvm.ptr<array<13 x i8>>) -> !llvm.ptr<i8>
    call @read_tensor_f32(%409, %cast_409) : (!llvm.ptr<i8>, memref<*xf32>) -> ()
    %alloc_410 = memref.alloc() {alignment = 16 : i64} : memref<1024xf32>
    %cast_411 = memref.cast %alloc_410 : memref<1024xf32> to memref<*xf32>
    %410 = llvm.mlir.addressof @constant_205 : !llvm.ptr<array<13 x i8>>
    %411 = llvm.getelementptr %410[0, 0] : (!llvm.ptr<array<13 x i8>>) -> !llvm.ptr<i8>
    call @read_tensor_f32(%411, %cast_411) : (!llvm.ptr<i8>, memref<*xf32>) -> ()
…
          %2258 = affine.load %alloc_2707[%arg49, %arg50, %arg51] : memref<64x1x1xf32>
          %2259 = arith.divf %2258, %cst : f32
          affine.store %2259, %alloc_2707[%arg49, %arg50, %arg51] : memref<64x1x1xf32>
        }
      }
    }
    %alloc_2708 = memref.alloc() {alignment = 16 : i64} : memref<64x1x1024xf32>
    affine.for %arg49 = 0 to 64 {
      affine.for %arg50 = 0 to 1 {
        affine.for %arg51 = 0 to 1024 {
          %2258 = affine.load %alloc_2706[%arg49, %arg50, %arg51] : memref<64x1x1024xf32>
          %2259 = affine.load %alloc_2707[%arg49, %arg50, 0] : memref<64x1x1xf32>
          %2260 = arith.subf %2258, %2259 : f32
          affine.store %2260, %alloc_2708[%arg49, %arg50, %arg51] : memref<64x1x1024xf32>
        }
      }
    }
    %alloc_2709 = memref.alloc() : memref<f32>
    %cast_2710 = memref.cast %alloc_2709 : memref<f32> to memref<*xf32>
    %2230 = llvm.mlir.addressof @constant_884 : !llvm.ptr<array<13 x i8>>
    %2231 = llvm.getelementptr %2230[0, 0] : (!llvm.ptr<array<13 x i8>>) -> !llvm.ptr<i8>
    call @read_tensor_f32(%2231, %cast_2710) : (!llvm.ptr<i8>, memref<*xf32>) -> ()
    %alloc_2711 = memref.alloc() {alignment = 16 : i64} : memref<64x1x1024xf32>
    affine.for %arg49 = 0 to 64 {
      affine.for %arg50 = 0 to 1 {
        affine.for %arg51 = 0 to 1024 {
          %2258 = affine.load %alloc_2708[%arg49, %arg50, %arg51] : memref<64x1x1024xf32>
          %2259 = affine.load %alloc_2709[] : memref<f32>
          %2260 = math.powf %2258, %2259 : f32
          affine.store %2260, %alloc_2711[%arg49, %arg50, %arg51] : memref<64x1x1024xf32>
        }
      }
    }
    %alloc_2712 = memref.alloc() {alignment = 16 : i64} : memref<64x1x1xf32>
    affine.for %arg49 = 0 to 64 {
      affine.for %arg50 = 0 to 1 {
        affine.for %arg51 = 0 to 1 {
          affine.store %cst_1, %alloc_2712[%arg49, %arg50, %arg51] : memref<64x1x1xf32>
        }
      }
    }
    affine.for %arg49 = 0 to 64 {
      affine.for %arg50 = 0 to 1 {
        affine.for %arg51 = 0 to 1024 {
          %2258 = affine.load %alloc_2711[%arg49, %arg50, %arg51] : memref<64x1x1024xf32>
          %2259 = affine.load %alloc_2712[%arg49, %arg50, 0] : memref<64x1x1xf32>
          %2260 = arith.addf %2259, %2258 : f32
          affine.store %2260, %alloc_2712[%arg49, %arg50, 0] : memref<64x1x1xf32>
        }
      }
    }
    affine.for %arg49 = 0 to 64 {
      affine.for %arg50 = 0 to 1 {
        affine.for %arg51 = 0 to 1 {
          %2258 = affine.load %alloc_2712[%arg49, %arg50, %arg51] : memref<64x1x1xf32>
          %2259 = arith.divf %2258, %cst : f32
          affine.store %2259, %alloc_2712[%arg49, %arg50, %arg51] : memref<64x1x1xf32>
        }
      }
    }
    %alloc_2713 = memref.alloc() : memref<f32>
    %cast_2714 = memref.cast %alloc_2713 : memref<f32> to memref<*xf32>
    %2232 = llvm.mlir.addressof @constant_885 : !llvm.ptr<array<13 x i8>>
    %2233 = llvm.getelementptr %2232[0, 0] : (!llvm.ptr<array<13 x i8>>) -> !llvm.ptr<i8>
    call @read_tensor_f32(%2233, %cast_2714) : (!llvm.ptr<i8>, memref<*xf32>) -> ()
    %alloc_2715 = memref.alloc() {alignment = 16 : i64} : memref<64x1x1xf32>
    affine.for %arg49 = 0 to 64 {
      affine.for %arg50 = 0 to 1 {
        affine.for %arg51 = 0 to 1 {
          %2258 = affine.load %alloc_2712[%arg49, %arg50, %arg51] : memref<64x1x1xf32>
          %2259 = affine.load %alloc_2713[] : memref<f32>
          %2260 = arith.addf %2258, %2259 : f32
          affine.store %2260, %alloc_2715[%arg49, %arg50, %arg51] : memref<64x1x1xf32>
        }
      }
    }
    %alloc_2716 = memref.alloc() {alignment = 16 : i64} : memref<64x1x1xf32>
    affine.for %arg49 = 0 to 64 {
      affine.for %arg50 = 0 to 1 {
        affine.for %arg51 = 0 to 1 {
          %2258 = affine.load %alloc_2715[%arg49, %arg50, %arg51] : memref<64x1x1xf32>
          %2259 = math.sqrt %2258 : f32
          affine.store %2259, %alloc_2716[%arg49, %arg50, %arg51] : memref<64x1x1xf32>
        }
      }
    }
    %alloc_2717 = memref.alloc() {alignment = 16 : i64} : memref<64x1x1024xf32>
    affine.for %arg49 = 0 to 64 {
      affine.for %arg50 = 0 to 1 {
        affine.for %arg51 = 0 to 1024 {
          %2258 = affine.load %alloc_2708[%arg49, %arg50, %arg51] : memref<64x1x1024xf32>
          %2259 = affine.load %alloc_2716[%arg49, %arg50, 0] : memref<64x1x1xf32>
          %2260 = arith.divf %2258, %2259 : f32
          affine.store %2260, %alloc_2717[%arg49, %arg50, %arg51] : memref<64x1x1024xf32>
        }
      }
    }
    %alloc_2718 = memref.alloc() {alignment = 16 : i64} : memref<64x1x1024xf32>
    affine.for %arg49 = 0 to 64 {
      affine.for %arg50 = 0 to 1 {
        affine.for %arg51 = 0 to 1024 {
          %2258 = affine.load %alloc_2717[%arg49, %arg50, %arg51] : memref<64x1x1024xf32>
          %2259 = affine.load %alloc_566[%arg51] : memref<1024xf32>
          %2260 = arith.mulf %2258, %2259 : f32
          affine.store %2260, %alloc_2718[%arg49, %arg50, %arg51] : memref<64x1x1024xf32>
        }
      }
    }
    %alloc_2719 = memref.alloc() {alignment = 16 : i64} : memref<64x1x1024xf32>
    affine.for %arg49 = 0 to 64 {
      affine.for %arg50 = 0 to 1 {
        affine.for %arg51 = 0 to 1024 {
          %2258 = affine.load %alloc_2718[%arg49, %arg50, %arg51] : memref<64x1x1024xf32>
          %2259 = affine.load %alloc_568[%arg51] : memref<1024xf32>
          %2260 = arith.addf %2258, %2259 : f32
          affine.store %2260, %alloc_2719[%arg49, %arg50, %arg51] : memref<64x1x1024xf32>
        }
      }
    }
    %reinterpret_cast_2720 = memref.reinterpret_cast %alloc_2719 to offset: [0], sizes: [64, 1024], strides: [1024, 1] : memref<64x1x1024xf32> to memref<64x1024xf32>
    %alloc_2721 = memref.alloc() {alignment = 128 : i64} : memref<64x4096xf32>
    affine.for %arg49 = 0 to 64 {
      affine.for %arg50 = 0 to 4096 {
        affine.store %cst_1, %alloc_2721[%arg49, %arg50] : memref<64x4096xf32>
      }
    }
    %alloc_2722 = memref.alloc() {alignment = 128 : i64} : memref<32x256xf32>
    %alloc_2723 = memref.alloc() {alignment = 128 : i64} : memref<256x64xf32>
    affine.for %arg49 = 0 to 4096 step 64 {
      affine.for %arg50 = 0 to 1024 step 256 {
        affine.for %arg51 = 0 to 256 {
          affine.for %arg52 = 0 to 64 {
            %2258 = affine.load %alloc_570[%arg50 + %arg51, %arg49 + %arg52] : memref<1024x4096xf32>
            affine.store %2258, %alloc_2723[%arg51, %arg52] : memref<256x64xf32>
          }
        }
        affine.for %arg51 = 0 to 64 step 32 {
          affine.for %arg52 = 0 to 32 {
            affine.for %arg53 = 0 to 256 {
              %2258 = affine.load %reinterpret_cast_2720[%arg51 + %arg52, %arg50 + %arg53] : memref<64x1024xf32>
              affine.store %2258, %alloc_2722[%arg52, %arg53] : memref<32x256xf32>
            }
          }
          affine.for %arg52 = #map(%arg49) to #map1(%arg49) step 16 {
            affine.for %arg53 = #map(%arg51) to #map2(%arg51) step 4 {
              %2258 = affine.apply #map3(%arg51, %arg53)
              %2259 = affine.apply #map3(%arg49, %arg52)
              %alloca = memref.alloca() {alignment = 64 : i64} : memref<4xvector<16xf32>>
              %2260 = vector.load %alloc_2721[%arg53, %arg52] : memref<64x4096xf32>, vector<16xf32>
              affine.store %2260, %alloca[0] : memref<4xvector<16xf32>>
              %2261 = arith.addi %arg53, %c1 : index
              %2262 = vector.load %alloc_2721[%2261, %arg52] : memref<64x4096xf32>, vector<16xf32>
              affine.store %2262, %alloca[1] : memref<4xvector<16xf32>>
              %2263 = arith.addi %arg53, %c2 : index
              %2264 = vector.load %alloc_2721[%2263, %arg52] : memref<64x4096xf32>, vector<16xf32>
              affine.store %2264, %alloca[2] : memref<4xvector<16xf32>>
              %2265 = arith.addi %arg53, %c3 : index
              %2266 = vector.load %alloc_2721[%2265, %arg52] : memref<64x4096xf32>, vector<16xf32>
              affine.store %2266, %alloca[3] : memref<4xvector<16xf32>>
              affine.for %arg54 = 0 to 256 step 4 {
                %2271 = memref.load %alloc_2722[%2258, %arg54] : memref<32x256xf32>
                %2272 = vector.broadcast %2271 : f32 to vector<16xf32>
                %2273 = vector.load %alloc_2723[%arg54, %2259] : memref<256x64xf32>, vector<16xf32>
                %2274 = affine.load %alloca[0] : memref<4xvector<16xf32>>
                %2275 = vector.fma %2272, %2273, %2274 : vector<16xf32>
                affine.store %2275, %alloca[0] : memref<4xvector<16xf32>>
                %2276 = affine.apply #map4(%arg54)
                %2277 = memref.load %alloc_2722[%2258, %2276] : memref<32x256xf32>
                %2278 = vector.broadcast %2277 : f32 to vector<16xf32>
                %2279 = vector.load %alloc_2723[%2276, %2259] : memref<256x64xf32>, vector<16xf32>
                %2280 = affine.load %alloca[0] : memref<4xvector<16xf32>>
                %2281 = vector.fma %2278, %2279, %2280 : vector<16xf32>
                affine.store %2281, %alloca[0] : memref<4xvector<16xf32>>
                %2282 = affine.apply #map5(%arg54)
                %2283 = memref.load %alloc_2722[%2258, %2282] : memref<32x256xf32>
                %2284 = vector.broadcast %2283 : f32 to vector<16xf32>
                %2285 = vector.load %alloc_2723[%2282, %2259] : memref<256x64xf32>, vector<16xf32>
                %2286 = affine.load %alloca[0] : memref<4xvector<16xf32>>
                %2287 = vector.fma %2284, %2285, %2286 : vector<16xf32>
                affine.store %2287, %alloca[0] : memref<4xvector<16xf32>>
                %2288 = affine.apply #map6(%arg54)
                %2289 = memref.load %alloc_2722[%2258, %2288] : memref<32x256xf32>
                %2290 = vector.broadcast %2289 : f32 to vector<16xf32>
                %2291 = vector.load %alloc_2723[%2288, %2259] : memref<256x64xf32>, vector<16xf32>
                %2292 = affine.load %alloca[0] : memref<4xvector<16xf32>>
                %2293 = vector.fma %2290, %2291, %2292 : vector<16xf32>
                affine.store %2293, %alloca[0] : memref<4xvector<16xf32>>
                %2294 = arith.addi %2258, %c1 : index
                %2295 = memref.load %alloc_2722[%2294, %arg54] : memref<32x256xf32>
                %2296 = vector.broadcast %2295 : f32 to vector<16xf32>
                %2297 = vector.load %alloc_2723[%arg54, %2259] : memref<256x64xf32>, vector<16xf32>
                %2298 = affine.load %alloca[1] : memref<4xvector<16xf32>>
                %2299 = vector.fma %2296, %2297, %2298 : vector<16xf32>
                affine.store %2299, %alloca[1] : memref<4xvector<16xf32>>
                %2300 = memref.load %alloc_2722[%2294, %2276] : memref<32x256xf32>
                %2301 = vector.broadcast %2300 : f32 to vector<16xf32>
                %2302 = vector.load %alloc_2723[%2276, %2259] : memref<256x64xf32>, vector<16xf32>
                %2303 = affine.load %alloca[1] : memref<4xvector<16xf32>>
                %2304 = vector.fma %2301, %2302, %2303 : vector<16xf32>
                affine.store %2304, %alloca[1] : memref<4xvector<16xf32>>
                %2305 = memref.load %alloc_2722[%2294, %2282] : memref<32x256xf32>
                %2306 = vector.broadcast %2305 : f32 to vector<16xf32>
                %2307 = vector.load %alloc_2723[%2282, %2259] : memref<256x64xf32>, vector<16xf32>
                %2308 = affine.load %alloca[1] : memref<4xvector<16xf32>>
                %2309 = vector.fma %2306, %2307, %2308 : vector<16xf32>
                affine.store %2309, %alloca[1] : memref<4xvector<16xf32>>
                %2310 = memref.load %alloc_2722[%2294, %2288] : memref<32x256xf32>
                %2311 = vector.broadcast %2310 : f32 to vector<16xf32>
                %2312 = vector.load %alloc_2723[%2288, %2259] : memref<256x64xf32>, vector<16xf32>
                %2313 = affine.load %alloca[1] : memref<4xvector<16xf32>>
                %2314 = vector.fma %2311, %2312, %2313 : vector<16xf32>
                affine.store %2314, %alloca[1] : memref<4xvector<16xf32>>
                %2315 = arith.addi %2258, %c2 : index
                %2316 = memref.load %alloc_2722[%2315, %arg54] : memref<32x256xf32>
                %2317 = vector.broadcast %2316 : f32 to vector<16xf32>
                %2318 = vector.load %alloc_2723[%arg54, %2259] : memref<256x64xf32>, vector<16xf32>
                %2319 = affine.load %alloca[2] : memref<4xvector<16xf32>>
                %2320 = vector.fma %2317, %2318, %2319 : vector<16xf32>
                affine.store %2320, %alloca[2] : memref<4xvector<16xf32>>
                %2321 = memref.load %alloc_2722[%2315, %2276] : memref<32x256xf32>
                %2322 = vector.broadcast %2321 : f32 to vector<16xf32>
                %2323 = vector.load %alloc_2723[%2276, %2259] : memref<256x64xf32>, vector<16xf32>
                %2324 = affine.load %alloca[2] : memref<4xvector<16xf32>>
                %2325 = vector.fma %2322, %2323, %2324 : vector<16xf32>
                affine.store %2325, %alloca[2] : memref<4xvector<16xf32>>
                %2326 = memref.load %alloc_2722[%2315, %2282] : memref<32x256xf32>
                %2327 = vector.broadcast %2326 : f32 to vector<16xf32>
                %2328 = vector.load %alloc_2723[%2282, %2259] : memref<256x64xf32>, vector<16xf32>
                %2329 = affine.load %alloca[2] : memref<4xvector<16xf32>>
                %2330 = vector.fma %2327, %2328, %2329 : vector<16xf32>
                affine.store %2330, %alloca[2] : memref<4xvector<16xf32>>
                %2331 = memref.load %alloc_2722[%2315, %2288] : memref<32x256xf32>
                %2332 = vector.broadcast %2331 : f32 to vector<16xf32>
                %2333 = vector.load %alloc_2723[%2288, %2259] : memref<256x64xf32>, vector<16xf32>
                %2334 = affine.load %alloca[2] : memref<4xvector<16xf32>>
                %2335 = vector.fma %2332, %2333, %2334 : vector<16xf32>
                affine.store %2335, %alloca[2] : memref<4xvector<16xf32>>
                %2336 = arith.addi %2258, %c3 : index
                %2337 = memref.load %alloc_2722[%2336, %arg54] : memref<32x256xf32>
                %2338 = vector.broadcast %2337 : f32 to vector<16xf32>
                %2339 = vector.load %alloc_2723[%arg54, %2259] : memref<256x64xf32>, vector<16xf32>
                %2340 = affine.load %alloca[3] : memref<4xvector<16xf32>>
                %2341 = vector.fma %2338, %2339, %2340 : vector<16xf32>
                affine.store %2341, %alloca[3] : memref<4xvector<16xf32>>
                %2342 = memref.load %alloc_2722[%2336, %2276] : memref<32x256xf32>
                %2343 = vector.broadcast %2342 : f32 to vector<16xf32>
                %2344 = vector.load %alloc_2723[%2276, %2259] : memref<256x64xf32>, vector<16xf32>
                %2345 = affine.load %alloca[3] : memref<4xvector<16xf32>>
                %2346 = vector.fma %2343, %2344, %2345 : vector<16xf32>
                affine.store %2346, %alloca[3] : memref<4xvector<16xf32>>
                %2347 = memref.load %alloc_2722[%2336, %2282] : memref<32x256xf32>
                %2348 = vector.broadcast %2347 : f32 to vector<16xf32>
                %2349 = vector.load %alloc_2723[%2282, %2259] : memref<256x64xf32>, vector<16xf32>
                %2350 = affine.load %alloca[3] : memref<4xvector<16xf32>>
                %2351 = vector.fma %2348, %2349, %2350 : vector<16xf32>
                affine.store %2351, %alloca[3] : memref<4xvector<16xf32>>
                %2352 = memref.load %alloc_2722[%2336, %2288] : memref<32x256xf32>
                %2353 = vector.broadcast %2352 : f32 to vector<16xf32>
                %2354 = vector.load %alloc_2723[%2288, %2259] : memref<256x64xf32>, vector<16xf32>
                %2355 = affine.load %alloca[3] : memref<4xvector<16xf32>>
                %2356 = vector.fma %2353, %2354, %2355 : vector<16xf32>
                affine.store %2356, %alloca[3] : memref<4xvector<16xf32>>
              }
              %2267 = affine.load %alloca[0] : memref<4xvector<16xf32>>
              vector.store %2267, %alloc_2721[%arg53, %arg52] : memref<64x4096xf32>, vector<16xf32>
              %2268 = affine.load %alloca[1] : memref<4xvector<16xf32>>
              vector.store %2268, %alloc_2721[%2261, %arg52] : memref<64x4096xf32>, vector<16xf32>
              %2269 = affine.load %alloca[2] : memref<4xvector<16xf32>>
              vector.store %2269, %alloc_2721[%2263, %arg52] : memref<64x4096xf32>, vector<16xf32>
              %2270 = affine.load %alloca[3] : memref<4xvector<16xf32>>
              vector.store %2270, %alloc_2721[%2265, %arg52] : memref<64x4096xf32>, vector<16xf32>
            }
          }
        }
      }
    }
    affine.for %arg49 = 0 to 64 {
      affine.for %arg50 = 0 to 4096 {
        %2258 = affine.load %alloc_2721[%arg49, %arg50] : memref<64x4096xf32>
        %2259 = affine.load %alloc_572[%arg50] : memref<4096xf32>
        %2260 = arith.addf %2258, %2259 : f32
        affine.store %2260, %alloc_2721[%arg49, %arg50] : memref<64x4096xf32>
      }
    }
    %reinterpret_cast_2724 = memref.reinterpret_cast %alloc_2721 to offset: [0], sizes: [64, 1, 4096], strides: [4096, 4096, 1] : memref<64x4096xf32> to memref<64x1x4096xf32>
    %alloc_2725 = memref.alloc() : memref<f32>
    %cast_2726 = memref.cast %alloc_2725 : memref<f32> to memref<*xf32>
    %2234 = llvm.mlir.addressof @constant_888 : !llvm.ptr<array<13 x i8>>
    %2235 = llvm.getelementptr %2234[0, 0] : (!llvm.ptr<array<13 x i8>>) -> !llvm.ptr<i8>
    call @read_tensor_f32(%2235, %cast_2726) : (!llvm.ptr<i8>, memref<*xf32>) -> ()
    %alloc_2727 = memref.alloc() : memref<f32>
    %cast_2728 = memref.cast %alloc_2727 : memref<f32> to memref<*xf32>
    %2236 = llvm.mlir.addressof @constant_889 : !llvm.ptr<array<13 x i8>>
    %2237 = llvm.getelementptr %2236[0, 0] : (!llvm.ptr<array<13 x i8>>) -> !llvm.ptr<i8>
    call @read_tensor_f32(%2237, %cast_2728) : (!llvm.ptr<i8>, memref<*xf32>) -> ()
    %alloc_2729 = memref.alloc() {alignment = 16 : i64} : memref<64x1x4096xf32>
    affine.for %arg49 = 0 to 64 {
      affine.for %arg50 = 0 to 1 {
        affine.for %arg51 = 0 to 4096 {
          %2258 = affine.load %reinterpret_cast_2724[%arg49, %arg50, %arg51] : memref<64x1x4096xf32>
          %2259 = affine.load %alloc_2727[] : memref<f32>
          %2260 = math.powf %2258, %2259 : f32
          affine.store %2260, %alloc_2729[%arg49, %arg50, %arg51] : memref<64x1x4096xf32>
        }
      }
    }
    %alloc_2730 = memref.alloc() : memref<f32>
    %cast_2731 = memref.cast %alloc_2730 : memref<f32> to memref<*xf32>
    %2238 = llvm.mlir.addressof @constant_890 : !llvm.ptr<array<13 x i8>>
    %2239 = llvm.getelementptr %2238[0, 0] : (!llvm.ptr<array<13 x i8>>) -> !llvm.ptr<i8>
    call @read_tensor_f32(%2239, %cast_2731) : (!llvm.ptr<i8>, memref<*xf32>) -> ()
    %alloc_2732 = memref.alloc() {alignment = 16 : i64} : memref<64x1x4096xf32>
    affine.for %arg49 = 0 to 64 {
      affine.for %arg50 = 0 to 1 {
        affine.for %arg51 = 0 to 4096 {
          %2258 = affine.load %alloc_2729[%arg49, %arg50, %arg51] : memref<64x1x4096xf32>
          %2259 = affine.load %alloc_2730[] : memref<f32>
          %2260 = arith.mulf %2258, %2259 : f32
          affine.store %2260, %alloc_2732[%arg49, %arg50, %arg51] : memref<64x1x4096xf32>
        }
      }
    }
    %alloc_2733 = memref.alloc() {alignment = 16 : i64} : memref<64x1x4096xf32>
    affine.for %arg49 = 0 to 64 {
      affine.for %arg50 = 0 to 1 {
        affine.for %arg51 = 0 to 4096 {
          %2258 = affine.load %reinterpret_cast_2724[%arg49, %arg50, %arg51] : memref<64x1x4096xf32>
          %2259 = affine.load %alloc_2732[%arg49, %arg50, %arg51] : memref<64x1x4096xf32>
          %2260 = arith.addf %2258, %2259 : f32
          affine.store %2260, %alloc_2733[%arg49, %arg50, %arg51] : memref<64x1x4096xf32>
        }
      }
    }
    %alloc_2734 = memref.alloc() : memref<f32>
    %cast_2735 = memref.cast %alloc_2734 : memref<f32> to memref<*xf32>
    %2240 = llvm.mlir.addressof @constant_891 : !llvm.ptr<array<13 x i8>>
    %2241 = llvm.getelementptr %2240[0, 0] : (!llvm.ptr<array<13 x i8>>) -> !llvm.ptr<i8>
    call @read_tensor_f32(%2241, %cast_2735) : (!llvm.ptr<i8>, memref<*xf32>) -> ()
    %alloc_2736 = memref.alloc() {alignment = 16 : i64} : memref<64x1x4096xf32>
    affine.for %arg49 = 0 to 64 {
      affine.for %arg50 = 0 to 1 {
        affine.for %arg51 = 0 to 4096 {
          %2258 = affine.load %alloc_2733[%arg49, %arg50, %arg51] : memref<64x1x4096xf32>
          %2259 = affine.load %alloc_2734[] : memref<f32>
          %2260 = arith.mulf %2258, %2259 : f32
          affine.store %2260, %alloc_2736[%arg49, %arg50, %arg51] : memref<64x1x4096xf32>
        }
      }
    }
    %alloc_2737 = memref.alloc() {alignment = 16 : i64} : memref<64x1x4096xf32>
    affine.for %arg49 = 0 to 64 {
      affine.for %arg50 = 0 to 1 {
        affine.for %arg51 = 0 to 4096 {
          %2258 = affine.load %alloc_2736[%arg49, %arg50, %arg51] : memref<64x1x4096xf32>
          %2259 = math.tanh %2258 : f32
          affine.store %2259, %alloc_2737[%arg49, %arg50, %arg51] : memref<64x1x4096xf32>
        }
      }
    }
    %alloc_2738 = memref.alloc() : memref<f32>
    %cast_2739 = memref.cast %alloc_2738 : memref<f32> to memref<*xf32>
    %2242 = llvm.mlir.addressof @constant_892 : !llvm.ptr<array<13 x i8>>
    %2243 = llvm.getelementptr %2242[0, 0] : (!llvm.ptr<array<13 x i8>>) -> !llvm.ptr<i8>
    call @read_tensor_f32(%2243, %cast_2739) : (!llvm.ptr<i8>, memref<*xf32>) -> ()
    %alloc_2740 = memref.alloc() {alignment = 16 : i64} : memref<64x1x4096xf32>
    affine.for %arg49 = 0 to 64 {
      affine.for %arg50 = 0 to 1 {
        affine.for %arg51 = 0 to 4096 {
          %2258 = affine.load %alloc_2737[%arg49, %arg50, %arg51] : memref<64x1x4096xf32>
          %2259 = affine.load %alloc_2738[] : memref<f32>
          %2260 = arith.addf %2258, %2259 : f32
          affine.store %2260, %alloc_2740[%arg49, %arg50, %arg51] : memref<64x1x4096xf32>
        }
      }
    }
    %alloc_2741 = memref.alloc() {alignment = 16 : i64} : memref<64x1x4096xf32>
    affine.for %arg49 = 0 to 64 {
      affine.for %arg50 = 0 to 1 {
        affine.for %arg51 = 0 to 4096 {
          %2258 = affine.load %reinterpret_cast_2724[%arg49, %arg50, %arg51] : memref<64x1x4096xf32>
          %2259 = affine.load %alloc_2740[%arg49, %arg50, %arg51] : memref<64x1x4096xf32>
          %2260 = arith.mulf %2258, %2259 : f32
          affine.store %2260, %alloc_2741[%arg49, %arg50, %arg51] : memref<64x1x4096xf32>
        }
      }
    }
    %alloc_2742 = memref.alloc() {alignment = 16 : i64} : memref<64x1x4096xf32>
    affine.for %arg49 = 0 to 64 {
      affine.for %arg50 = 0 to 1 {
        affine.for %arg51 = 0 to 4096 {
          %2258 = affine.load %alloc_2741[%arg49, %arg50, %arg51] : memref<64x1x4096xf32>
          %2259 = affine.load %alloc_2725[] : memref<f32>
          %2260 = arith.mulf %2258, %2259 : f32
          affine.store %2260, %alloc_2742[%arg49, %arg50, %arg51] : memref<64x1x4096xf32>
        }
      }
    }
    %reinterpret_cast_2743 = memref.reinterpret_cast %alloc_2742 to offset: [0], sizes: [64, 4096], strides: [4096, 1] : memref<64x1x4096xf32> to memref<64x4096xf32>
    %alloc_2744 = memref.alloc() {alignment = 128 : i64} : memref<64x1024xf32>
    affine.for %arg49 = 0 to 64 {
      affine.for %arg50 = 0 to 1024 {
        affine.store %cst_1, %alloc_2744[%arg49, %arg50] : memref<64x1024xf32>
      }
    }
    %alloc_2745 = memref.alloc() {alignment = 128 : i64} : memref<32x256xf32>
    %alloc_2746 = memref.alloc() {alignment = 128 : i64} : memref<256x64xf32>
    affine.for %arg49 = 0 to 1024 step 64 {
      affine.for %arg50 = 0 to 4096 step 256 {
        affine.for %arg51 = 0 to 256 {
          affine.for %arg52 = 0 to 64 {
            %2258 = affine.load %alloc_574[%arg50 + %arg51, %arg49 + %arg52] : memref<4096x1024xf32>
            affine.store %2258, %alloc_2746[%arg51, %arg52] : memref<256x64xf32>
          }
        }
        affine.for %arg51 = 0 to 64 step 32 {
          affine.for %arg52 = 0 to 32 {
            affine.for %arg53 = 0 to 256 {
              %2258 = affine.load %reinterpret_cast_2743[%arg51 + %arg52, %arg50 + %arg53] : memref<64x4096xf32>
              affine.store %2258, %alloc_2745[%arg52, %arg53] : memref<32x256xf32>
            }
          }
          affine.for %arg52 = #map(%arg49) to #map1(%arg49) step 16 {
            affine.for %arg53 = #map(%arg51) to #map2(%arg51) step 4 {
              %2258 = affine.apply #map3(%arg51, %arg53)
              %2259 = affine.apply #map3(%arg49, %arg52)
              %alloca = memref.alloca() {alignment = 64 : i64} : memref<4xvector<16xf32>>
              %2260 = vector.load %alloc_2744[%arg53, %arg52] : memref<64x1024xf32>, vector<16xf32>
              affine.store %2260, %alloca[0] : memref<4xvector<16xf32>>
              %2261 = arith.addi %arg53, %c1 : index
              %2262 = vector.load %alloc_2744[%2261, %arg52] : memref<64x1024xf32>, vector<16xf32>
              affine.store %2262, %alloca[1] : memref<4xvector<16xf32>>
              %2263 = arith.addi %arg53, %c2 : index
              %2264 = vector.load %alloc_2744[%2263, %arg52] : memref<64x1024xf32>, vector<16xf32>
              affine.store %2264, %alloca[2] : memref<4xvector<16xf32>>
              %2265 = arith.addi %arg53, %c3 : index
              %2266 = vector.load %alloc_2744[%2265, %arg52] : memref<64x1024xf32>, vector<16xf32>
              affine.store %2266, %alloca[3] : memref<4xvector<16xf32>>
              affine.for %arg54 = 0 to 256 step 4 {
                %2271 = memref.load %alloc_2745[%2258, %arg54] : memref<32x256xf32>
                %2272 = vector.broadcast %2271 : f32 to vector<16xf32>
                %2273 = vector.load %alloc_2746[%arg54, %2259] : memref<256x64xf32>, vector<16xf32>
                %2274 = affine.load %alloca[0] : memref<4xvector<16xf32>>
                %2275 = vector.fma %2272, %2273, %2274 : vector<16xf32>
                affine.store %2275, %alloca[0] : memref<4xvector<16xf32>>
                %2276 = affine.apply #map4(%arg54)
                %2277 = memref.load %alloc_2745[%2258, %2276] : memref<32x256xf32>
                %2278 = vector.broadcast %2277 : f32 to vector<16xf32>
                %2279 = vector.load %alloc_2746[%2276, %2259] : memref<256x64xf32>, vector<16xf32>
                %2280 = affine.load %alloca[0] : memref<4xvector<16xf32>>
                %2281 = vector.fma %2278, %2279, %2280 : vector<16xf32>
                affine.store %2281, %alloca[0] : memref<4xvector<16xf32>>
                %2282 = affine.apply #map5(%arg54)
                %2283 = memref.load %alloc_2745[%2258, %2282] : memref<32x256xf32>
                %2284 = vector.broadcast %2283 : f32 to vector<16xf32>
                %2285 = vector.load %alloc_2746[%2282, %2259] : memref<256x64xf32>, vector<16xf32>
                %2286 = affine.load %alloca[0] : memref<4xvector<16xf32>>
                %2287 = vector.fma %2284, %2285, %2286 : vector<16xf32>
                affine.store %2287, %alloca[0] : memref<4xvector<16xf32>>
                %2288 = affine.apply #map6(%arg54)
                %2289 = memref.load %alloc_2745[%2258, %2288] : memref<32x256xf32>
                %2290 = vector.broadcast %2289 : f32 to vector<16xf32>
                %2291 = vector.load %alloc_2746[%2288, %2259] : memref<256x64xf32>, vector<16xf32>
                %2292 = affine.load %alloca[0] : memref<4xvector<16xf32>>
                %2293 = vector.fma %2290, %2291, %2292 : vector<16xf32>
                affine.store %2293, %alloca[0] : memref<4xvector<16xf32>>
                %2294 = arith.addi %2258, %c1 : index
                %2295 = memref.load %alloc_2745[%2294, %arg54] : memref<32x256xf32>
                %2296 = vector.broadcast %2295 : f32 to vector<16xf32>
                %2297 = vector.load %alloc_2746[%arg54, %2259] : memref<256x64xf32>, vector<16xf32>
                %2298 = affine.load %alloca[1] : memref<4xvector<16xf32>>
                %2299 = vector.fma %2296, %2297, %2298 : vector<16xf32>
                affine.store %2299, %alloca[1] : memref<4xvector<16xf32>>
                %2300 = memref.load %alloc_2745[%2294, %2276] : memref<32x256xf32>
                %2301 = vector.broadcast %2300 : f32 to vector<16xf32>
                %2302 = vector.load %alloc_2746[%2276, %2259] : memref<256x64xf32>, vector<16xf32>
                %2303 = affine.load %alloca[1] : memref<4xvector<16xf32>>
                %2304 = vector.fma %2301, %2302, %2303 : vector<16xf32>
                affine.store %2304, %alloca[1] : memref<4xvector<16xf32>>
                %2305 = memref.load %alloc_2745[%2294, %2282] : memref<32x256xf32>
                %2306 = vector.broadcast %2305 : f32 to vector<16xf32>
                %2307 = vector.load %alloc_2746[%2282, %2259] : memref<256x64xf32>, vector<16xf32>
                %2308 = affine.load %alloca[1] : memref<4xvector<16xf32>>
                %2309 = vector.fma %2306, %2307, %2308 : vector<16xf32>
                affine.store %2309, %alloca[1] : memref<4xvector<16xf32>>
                %2310 = memref.load %alloc_2745[%2294, %2288] : memref<32x256xf32>
                %2311 = vector.broadcast %2310 : f32 to vector<16xf32>
                %2312 = vector.load %alloc_2746[%2288, %2259] : memref<256x64xf32>, vector<16xf32>
                %2313 = affine.load %alloca[1] : memref<4xvector<16xf32>>
                %2314 = vector.fma %2311, %2312, %2313 : vector<16xf32>
                affine.store %2314, %alloca[1] : memref<4xvector<16xf32>>
                %2315 = arith.addi %2258, %c2 : index
                %2316 = memref.load %alloc_2745[%2315, %arg54] : memref<32x256xf32>
                %2317 = vector.broadcast %2316 : f32 to vector<16xf32>
                %2318 = vector.load %alloc_2746[%arg54, %2259] : memref<256x64xf32>, vector<16xf32>
                %2319 = affine.load %alloca[2] : memref<4xvector<16xf32>>
                %2320 = vector.fma %2317, %2318, %2319 : vector<16xf32>
                affine.store %2320, %alloca[2] : memref<4xvector<16xf32>>
                %2321 = memref.load %alloc_2745[%2315, %2276] : memref<32x256xf32>
                %2322 = vector.broadcast %2321 : f32 to vector<16xf32>
                %2323 = vector.load %alloc_2746[%2276, %2259] : memref<256x64xf32>, vector<16xf32>
                %2324 = affine.load %alloca[2] : memref<4xvector<16xf32>>
                %2325 = vector.fma %2322, %2323, %2324 : vector<16xf32>
                affine.store %2325, %alloca[2] : memref<4xvector<16xf32>>
                %2326 = memref.load %alloc_2745[%2315, %2282] : memref<32x256xf32>
                %2327 = vector.broadcast %2326 : f32 to vector<16xf32>
                %2328 = vector.load %alloc_2746[%2282, %2259] : memref<256x64xf32>, vector<16xf32>
                %2329 = affine.load %alloca[2] : memref<4xvector<16xf32>>
                %2330 = vector.fma %2327, %2328, %2329 : vector<16xf32>
                affine.store %2330, %alloca[2] : memref<4xvector<16xf32>>
                %2331 = memref.load %alloc_2745[%2315, %2288] : memref<32x256xf32>
                %2332 = vector.broadcast %2331 : f32 to vector<16xf32>
                %2333 = vector.load %alloc_2746[%2288, %2259] : memref<256x64xf32>, vector<16xf32>
                %2334 = affine.load %alloca[2] : memref<4xvector<16xf32>>
                %2335 = vector.fma %2332, %2333, %2334 : vector<16xf32>
                affine.store %2335, %alloca[2] : memref<4xvector<16xf32>>
                %2336 = arith.addi %2258, %c3 : index
                %2337 = memref.load %alloc_2745[%2336, %arg54] : memref<32x256xf32>
                %2338 = vector.broadcast %2337 : f32 to vector<16xf32>
                %2339 = vector.load %alloc_2746[%arg54, %2259] : memref<256x64xf32>, vector<16xf32>
                %2340 = affine.load %alloca[3] : memref<4xvector<16xf32>>
                %2341 = vector.fma %2338, %2339, %2340 : vector<16xf32>
                affine.store %2341, %alloca[3] : memref<4xvector<16xf32>>
                %2342 = memref.load %alloc_2745[%2336, %2276] : memref<32x256xf32>
                %2343 = vector.broadcast %2342 : f32 to vector<16xf32>
                %2344 = vector.load %alloc_2746[%2276, %2259] : memref<256x64xf32>, vector<16xf32>
                %2345 = affine.load %alloca[3] : memref<4xvector<16xf32>>
                %2346 = vector.fma %2343, %2344, %2345 : vector<16xf32>
                affine.store %2346, %alloca[3] : memref<4xvector<16xf32>>
                %2347 = memref.load %alloc_2745[%2336, %2282] : memref<32x256xf32>
                %2348 = vector.broadcast %2347 : f32 to vector<16xf32>
                %2349 = vector.load %alloc_2746[%2282, %2259] : memref<256x64xf32>, vector<16xf32>
                %2350 = affine.load %alloca[3] : memref<4xvector<16xf32>>
                %2351 = vector.fma %2348, %2349, %2350 : vector<16xf32>
                affine.store %2351, %alloca[3] : memref<4xvector<16xf32>>
                %2352 = memref.load %alloc_2745[%2336, %2288] : memref<32x256xf32>
                %2353 = vector.broadcast %2352 : f32 to vector<16xf32>
                %2354 = vector.load %alloc_2746[%2288, %2259] : memref<256x64xf32>, vector<16xf32>
                %2355 = affine.load %alloca[3] : memref<4xvector<16xf32>>
                %2356 = vector.fma %2353, %2354, %2355 : vector<16xf32>
                affine.store %2356, %alloca[3] : memref<4xvector<16xf32>>
              }
              %2267 = affine.load %alloca[0] : memref<4xvector<16xf32>>
              vector.store %2267, %alloc_2744[%arg53, %arg52] : memref<64x1024xf32>, vector<16xf32>
              %2268 = affine.load %alloca[1] : memref<4xvector<16xf32>>
              vector.store %2268, %alloc_2744[%2261, %arg52] : memref<64x1024xf32>, vector<16xf32>
              %2269 = affine.load %alloca[2] : memref<4xvector<16xf32>>
              vector.store %2269, %alloc_2744[%2263, %arg52] : memref<64x1024xf32>, vector<16xf32>
              %2270 = affine.load %alloca[3] : memref<4xvector<16xf32>>
              vector.store %2270, %alloc_2744[%2265, %arg52] : memref<64x1024xf32>, vector<16xf32>
            }
          }
        }
      }
    }
    affine.for %arg49 = 0 to 64 {
      affine.for %arg50 = 0 to 1024 {
        %2258 = affine.load %alloc_2744[%arg49, %arg50] : memref<64x1024xf32>
        %2259 = affine.load %alloc_576[%arg50] : memref<1024xf32>
        %2260 = arith.addf %2258, %2259 : f32
        affine.store %2260, %alloc_2744[%arg49, %arg50] : memref<64x1024xf32>
      }
    }
    %reinterpret_cast_2747 = memref.reinterpret_cast %alloc_2744 to offset: [0], sizes: [64, 1, 1024], strides: [1024, 1024, 1] : memref<64x1024xf32> to memref<64x1x1024xf32>
    %alloc_2748 = memref.alloc() {alignment = 16 : i64} : memref<64x1x1024xf32>
    affine.for %arg49 = 0 to 64 {
      affine.for %arg50 = 0 to 1 {
        affine.for %arg51 = 0 to 1024 {
          %2258 = affine.load %alloc_2705[%arg49, %arg50, %arg51] : memref<64x1x1024xf32>
          %2259 = affine.load %reinterpret_cast_2747[%arg49, %arg50, %arg51] : memref<64x1x1024xf32>
          %2260 = arith.addf %2258, %2259 : f32
          affine.store %2260, %alloc_2748[%arg49, %arg50, %arg51] : memref<64x1x1024xf32>
        }
      }
    }
    %alloc_2749 = memref.alloc() {alignment = 16 : i64} : memref<64x1x1024xf32>
    affine.for %arg49 = 0 to 64 {
      affine.for %arg50 = 0 to 1 {
        affine.for %arg51 = 0 to 1024 {
          %2258 = affine.load %alloc_2748[%arg49, %arg50, %arg51] : memref<64x1x1024xf32>
          %2259 = affine.load %alloc_585[0, %arg50, %arg51] : memref<1x1x1024xf32>
          %2260 = arith.addf %2258, %2259 : f32
          affine.store %2260, %alloc_2749[%arg49, %arg50, %arg51] : memref<64x1x1024xf32>
        }
      }
    }
    %alloc_2750 = memref.alloc() {alignment = 16 : i64} : memref<64x1x1xf32>
    affine.for %arg49 = 0 to 64 {
      affine.for %arg50 = 0 to 1 {
        affine.for %arg51 = 0 to 1 {
          affine.store %cst_1, %alloc_2750[%arg49, %arg50, %arg51] : memref<64x1x1xf32>
        }
      }
    }
    affine.for %arg49 = 0 to 64 {
      affine.for %arg50 = 0 to 1 {
        affine.for %arg51 = 0 to 1024 {
          %2258 = affine.load %alloc_2749[%arg49, %arg50, %arg51] : memref<64x1x1024xf32>
          %2259 = affine.load %alloc_2750[%arg49, %arg50, 0] : memref<64x1x1xf32>
          %2260 = arith.addf %2259, %2258 : f32
          affine.store %2260, %alloc_2750[%arg49, %arg50, 0] : memref<64x1x1xf32>
        }
      }
    }
    affine.for %arg49 = 0 to 64 {
      affine.for %arg50 = 0 to 1 {
        affine.for %arg51 = 0 to 1 {
          %2258 = affine.load %alloc_2750[%arg49, %arg50, %arg51] : memref<64x1x1xf32>
          %2259 = arith.divf %2258, %cst : f32
          affine.store %2259, %alloc_2750[%arg49, %arg50, %arg51] : memref<64x1x1xf32>
        }
      }
    }
    %alloc_2751 = memref.alloc() {alignment = 16 : i64} : memref<64x1x1024xf32>
    affine.for %arg49 = 0 to 64 {
      affine.for %arg50 = 0 to 1 {
        affine.for %arg51 = 0 to 1024 {
          %2258 = affine.load %alloc_2749[%arg49, %arg50, %arg51] : memref<64x1x1024xf32>
          %2259 = affine.load %alloc_2750[%arg49, %arg50, 0] : memref<64x1x1xf32>
          %2260 = arith.subf %2258, %2259 : f32
          affine.store %2260, %alloc_2751[%arg49, %arg50, %arg51] : memref<64x1x1024xf32>
        }
      }
    }
    %alloc_2752 = memref.alloc() : memref<f32>
    %cast_2753 = memref.cast %alloc_2752 : memref<f32> to memref<*xf32>
    %2244 = llvm.mlir.addressof @constant_895 : !llvm.ptr<array<13 x i8>>
    %2245 = llvm.getelementptr %2244[0, 0] : (!llvm.ptr<array<13 x i8>>) -> !llvm.ptr<i8>
    call @read_tensor_f32(%2245, %cast_2753) : (!llvm.ptr<i8>, memref<*xf32>) -> ()
    %alloc_2754 = memref.alloc() {alignment = 16 : i64} : memref<64x1x1024xf32>
    affine.for %arg49 = 0 to 64 {
      affine.for %arg50 = 0 to 1 {
        affine.for %arg51 = 0 to 1024 {
          %2258 = affine.load %alloc_2751[%arg49, %arg50, %arg51] : memref<64x1x1024xf32>
          %2259 = affine.load %alloc_2752[] : memref<f32>
          %2260 = math.powf %2258, %2259 : f32
          affine.store %2260, %alloc_2754[%arg49, %arg50, %arg51] : memref<64x1x1024xf32>
        }
      }
    }
    %alloc_2755 = memref.alloc() {alignment = 16 : i64} : memref<64x1x1xf32>
    affine.for %arg49 = 0 to 64 {
      affine.for %arg50 = 0 to 1 {
        affine.for %arg51 = 0 to 1 {
          affine.store %cst_1, %alloc_2755[%arg49, %arg50, %arg51] : memref<64x1x1xf32>
        }
      }
    }
    affine.for %arg49 = 0 to 64 {
      affine.for %arg50 = 0 to 1 {
        affine.for %arg51 = 0 to 1024 {
          %2258 = affine.load %alloc_2754[%arg49, %arg50, %arg51] : memref<64x1x1024xf32>
          %2259 = affine.load %alloc_2755[%arg49, %arg50, 0] : memref<64x1x1xf32>
          %2260 = arith.addf %2259, %2258 : f32
          affine.store %2260, %alloc_2755[%arg49, %arg50, 0] : memref<64x1x1xf32>
        }
      }
    }
    affine.for %arg49 = 0 to 64 {
      affine.for %arg50 = 0 to 1 {
        affine.for %arg51 = 0 to 1 {
          %2258 = affine.load %alloc_2755[%arg49, %arg50, %arg51] : memref<64x1x1xf32>
          %2259 = arith.divf %2258, %cst : f32
          affine.store %2259, %alloc_2755[%arg49, %arg50, %arg51] : memref<64x1x1xf32>
        }
      }
    }
    %alloc_2756 = memref.alloc() : memref<f32>
    %cast_2757 = memref.cast %alloc_2756 : memref<f32> to memref<*xf32>
    %2246 = llvm.mlir.addressof @constant_896 : !llvm.ptr<array<13 x i8>>
    %2247 = llvm.getelementptr %2246[0, 0] : (!llvm.ptr<array<13 x i8>>) -> !llvm.ptr<i8>
    call @read_tensor_f32(%2247, %cast_2757) : (!llvm.ptr<i8>, memref<*xf32>) -> ()
    %alloc_2758 = memref.alloc() {alignment = 16 : i64} : memref<64x1x1xf32>
    affine.for %arg49 = 0 to 64 {
      affine.for %arg50 = 0 to 1 {
        affine.for %arg51 = 0 to 1 {
          %2258 = affine.load %alloc_2755[%arg49, %arg50, %arg51] : memref<64x1x1xf32>
          %2259 = affine.load %alloc_2756[] : memref<f32>
          %2260 = arith.addf %2258, %2259 : f32
          affine.store %2260, %alloc_2758[%arg49, %arg50, %arg51] : memref<64x1x1xf32>
        }
      }
    }
    %alloc_2759 = memref.alloc() {alignment = 16 : i64} : memref<64x1x1xf32>
    affine.for %arg49 = 0 to 64 {
      affine.for %arg50 = 0 to 1 {
        affine.for %arg51 = 0 to 1 {
          %2258 = affine.load %alloc_2758[%arg49, %arg50, %arg51] : memref<64x1x1xf32>
          %2259 = math.sqrt %2258 : f32
          affine.store %2259, %alloc_2759[%arg49, %arg50, %arg51] : memref<64x1x1xf32>
        }
      }
    }
    %alloc_2760 = memref.alloc() {alignment = 16 : i64} : memref<64x1x1024xf32>
    affine.for %arg49 = 0 to 64 {
      affine.for %arg50 = 0 to 1 {
        affine.for %arg51 = 0 to 1024 {
          %2258 = affine.load %alloc_2751[%arg49, %arg50, %arg51] : memref<64x1x1024xf32>
          %2259 = affine.load %alloc_2759[%arg49, %arg50, 0] : memref<64x1x1xf32>
          %2260 = arith.divf %2258, %2259 : f32
          affine.store %2260, %alloc_2760[%arg49, %arg50, %arg51] : memref<64x1x1024xf32>
        }
      }
    }
    %alloc_2761 = memref.alloc() {alignment = 16 : i64} : memref<64x1x1024xf32>
    affine.for %arg49 = 0 to 64 {
      affine.for %arg50 = 0 to 1 {
        affine.for %arg51 = 0 to 1024 {
          %2258 = affine.load %alloc_2760[%arg49, %arg50, %arg51] : memref<64x1x1024xf32>
          %2259 = affine.load %alloc_578[%arg51] : memref<1024xf32>
          %2260 = arith.mulf %2258, %2259 : f32
          affine.store %2260, %alloc_2761[%arg49, %arg50, %arg51] : memref<64x1x1024xf32>
        }
      }
    }
    %alloc_2762 = memref.alloc() {alignment = 16 : i64} : memref<64x1x1024xf32>
    affine.for %arg49 = 0 to 64 {
      affine.for %arg50 = 0 to 1 {
        affine.for %arg51 = 0 to 1024 {
          %2258 = affine.load %alloc_2761[%arg49, %arg50, %arg51] : memref<64x1x1024xf32>
          %2259 = affine.load %alloc_580[%arg51] : memref<1024xf32>
          %2260 = arith.addf %2258, %2259 : f32
          affine.store %2260, %alloc_2762[%arg49, %arg50, %arg51] : memref<64x1x1024xf32>
        }
      }
    }
    %2248 = rmem.alloc_memref(2, ) {access_mem_catcher = [["ref72", 0 : i32]], alignment = 16 : i64} : <1, memref<64x1x50264xf32>>
    %2249 = llvm.alloca %c1_i64 x i64 : (i64) -> !llvm.ptr<i64>
    llvm.store %c0_i64, %2249 : !llvm.ptr<i64>
    %2250 = llvm.alloca %c1_i64 x i64 : (i64) -> !llvm.ptr<i64>
    llvm.store %c0_i64, %2250 : !llvm.ptr<i64>
    %2251 = rmem.slot %c0 {mem = "t72"} : (index) -> memref<1x50264xf32>
    %2252:3 = affine.for %arg49 = 0 to 64 iter_args(%arg50 = %c1, %arg51 = %c0, %arg52 = %2251) -> (index, index, memref<1x50264xf32>) {
      %2258 = arith.addi %arg50, %c1 : index
      %2259 = arith.addi %arg51, %c1 : index
      %2260 = rmem.slot %arg50 {mem = "t72"} : (index) -> memref<1x50264xf32>
      affine.for %arg53 = 0 to 1 {
        affine.for %arg54 = 0 to 1 {
          affine.for %arg55 = 0 to 50264 {
            affine.store %cst_1, %arg52[%arg53, %arg54 * 50264 + %arg55] : memref<1x50264xf32>
          }
        }
      }
      %2261 = rmem.wrid : index
      %2262 = rmem.rdma %arg51, %2248[%arg49] %c50264 0 %2261 {map = #map27, mem = "t72"} : (index, !rmem.rmref<1, memref<64x1x50264xf32>>, index, index, index) -> memref<1x50264xf32>
      rmem.sync %2250 -> %2261 : <i64>, index
      affine.yield %2258, %2259, %2260 : index, index, memref<1x50264xf32>
    }
    %2253 = llvm.alloca %c1_i64 x i64 : (i64) -> !llvm.ptr<i64>
    llvm.store %c0_i64, %2253 : !llvm.ptr<i64>
    %2254 = llvm.alloca %c1_i64 x i64 : (i64) -> !llvm.ptr<i64>
    llvm.store %c0_i64, %2254 : !llvm.ptr<i64>
    %2255 = rmem.wrid : index
    %2256 = rmem.rdma %c0, %2248[%c0] %c50264 4 %2255 {map = #map27, mem = "t72"} : (index, !rmem.rmref<1, memref<64x1x50264xf32>>, index, index, index) -> memref<1x50264xf32>
    %2257:4 = affine.for %arg49 = 0 to 64 iter_args(%arg50 = %c1, %arg51 = %c0, %arg52 = %2256, %arg53 = %2255) -> (index, index, memref<1x50264xf32>, index) {
      %2258 = arith.addi %arg50, %c1 : index
      %2259 = arith.addi %arg51, %c1 : index
      %2260 = arith.addi %arg49, %c1 : index
      %2261 = rmem.wrid : index
      %2262 = rmem.rdma %arg50, %2248[%2260] %c50264 4 %2261 {map = #map27, mem = "t72"} : (index, !rmem.rmref<1, memref<64x1x50264xf32>>, index, index, index) -> memref<1x50264xf32>
      rmem.sync %2253 -> %arg53 : <i64>, index
      affine.for %arg54 = 0 to 1 {
        %2265 = affine.apply #map10(%arg49, %arg54)
        affine.for %arg55 = 0 to 1 {
          affine.for %arg56 = 0 to 50264 step 8 {
            affine.for %arg57 = 0 to 1024 step 8 {
              %alloca = memref.alloca() {alignment = 64 : i64} : memref<1xvector<8xf32>>
              affine.for %arg58 = 0 to 1 {
                %2266 = arith.addi %arg58, %arg55 : index
                %2267 = affine.apply #map28(%arg55, %arg56, %arg58)
                %2268 = vector.load %arg52[%arg54, %2267] : memref<1x50264xf32>, vector<8xf32>
                affine.store %2268, %alloca[0] : memref<1xvector<8xf32>>
                %2269 = memref.load %alloc_2762[%2265, %2266, %arg57] : memref<64x1x1024xf32>
                %2270 = vector.broadcast %2269 : f32 to vector<8xf32>
                %2271 = vector.load %alloc_582[%arg57, %arg56] : memref<1024x50264xf32>, vector<8xf32>
                %2272 = affine.load %alloca[0] : memref<1xvector<8xf32>>
                %2273 = vector.fma %2270, %2271, %2272 : vector<8xf32>
                affine.store %2273, %alloca[0] : memref<1xvector<8xf32>>
                %2274 = arith.addi %arg57, %c1 : index
                %2275 = memref.load %alloc_2762[%2265, %2266, %2274] : memref<64x1x1024xf32>
                %2276 = vector.broadcast %2275 : f32 to vector<8xf32>
                %2277 = vector.load %alloc_582[%2274, %arg56] : memref<1024x50264xf32>, vector<8xf32>
                %2278 = affine.load %alloca[0] : memref<1xvector<8xf32>>
                %2279 = vector.fma %2276, %2277, %2278 : vector<8xf32>
                affine.store %2279, %alloca[0] : memref<1xvector<8xf32>>
                %2280 = arith.addi %arg57, %c2 : index
                %2281 = memref.load %alloc_2762[%2265, %2266, %2280] : memref<64x1x1024xf32>
                %2282 = vector.broadcast %2281 : f32 to vector<8xf32>
                %2283 = vector.load %alloc_582[%2280, %arg56] : memref<1024x50264xf32>, vector<8xf32>
                %2284 = affine.load %alloca[0] : memref<1xvector<8xf32>>
                %2285 = vector.fma %2282, %2283, %2284 : vector<8xf32>
                affine.store %2285, %alloca[0] : memref<1xvector<8xf32>>
                %2286 = arith.addi %arg57, %c3 : index
                %2287 = memref.load %alloc_2762[%2265, %2266, %2286] : memref<64x1x1024xf32>
                %2288 = vector.broadcast %2287 : f32 to vector<8xf32>
                %2289 = vector.load %alloc_582[%2286, %arg56] : memref<1024x50264xf32>, vector<8xf32>
                %2290 = affine.load %alloca[0] : memref<1xvector<8xf32>>
                %2291 = vector.fma %2288, %2289, %2290 : vector<8xf32>
                affine.store %2291, %alloca[0] : memref<1xvector<8xf32>>
                %2292 = arith.addi %arg57, %c4 : index
                %2293 = memref.load %alloc_2762[%2265, %2266, %2292] : memref<64x1x1024xf32>
                %2294 = vector.broadcast %2293 : f32 to vector<8xf32>
                %2295 = vector.load %alloc_582[%2292, %arg56] : memref<1024x50264xf32>, vector<8xf32>
                %2296 = affine.load %alloca[0] : memref<1xvector<8xf32>>
                %2297 = vector.fma %2294, %2295, %2296 : vector<8xf32>
                affine.store %2297, %alloca[0] : memref<1xvector<8xf32>>
                %2298 = arith.addi %arg57, %c5 : index
                %2299 = memref.load %alloc_2762[%2265, %2266, %2298] : memref<64x1x1024xf32>
                %2300 = vector.broadcast %2299 : f32 to vector<8xf32>
                %2301 = vector.load %alloc_582[%2298, %arg56] : memref<1024x50264xf32>, vector<8xf32>
                %2302 = affine.load %alloca[0] : memref<1xvector<8xf32>>
                %2303 = vector.fma %2300, %2301, %2302 : vector<8xf32>
                affine.store %2303, %alloca[0] : memref<1xvector<8xf32>>
                %2304 = arith.addi %arg57, %c6 : index
                %2305 = memref.load %alloc_2762[%2265, %2266, %2304] : memref<64x1x1024xf32>
                %2306 = vector.broadcast %2305 : f32 to vector<8xf32>
                %2307 = vector.load %alloc_582[%2304, %arg56] : memref<1024x50264xf32>, vector<8xf32>
                %2308 = affine.load %alloca[0] : memref<1xvector<8xf32>>
                %2309 = vector.fma %2306, %2307, %2308 : vector<8xf32>
                affine.store %2309, %alloca[0] : memref<1xvector<8xf32>>
                %2310 = arith.addi %arg57, %c7 : index
                %2311 = memref.load %alloc_2762[%2265, %2266, %2310] : memref<64x1x1024xf32>
                %2312 = vector.broadcast %2311 : f32 to vector<8xf32>
                %2313 = vector.load %alloc_582[%2310, %arg56] : memref<1024x50264xf32>, vector<8xf32>
                %2314 = affine.load %alloca[0] : memref<1xvector<8xf32>>
                %2315 = vector.fma %2312, %2313, %2314 : vector<8xf32>
                affine.store %2315, %alloca[0] : memref<1xvector<8xf32>>
                %2316 = affine.load %alloca[0] : memref<1xvector<8xf32>>
                vector.store %2316, %arg52[%arg54, %2267] : memref<1x50264xf32>, vector<8xf32>
              }
            }
          }
        }
      }
      %2263 = rmem.wrid : index
      %2264 = rmem.rdma %arg51, %2248[%arg49] %c50264 0 %2263 {map = #map27, mem = "t72"} : (index, !rmem.rmref<1, memref<64x1x50264xf32>>, index, index, index) -> memref<1x50264xf32>
      rmem.sync %2254 -> %2263 : <i64>, index
      affine.yield %2258, %2259, %2262, %2261 : index, index, memref<1x50264xf32>, index
    }
    return %2248 : !rmem.rmref<1, memref<64x1x50264xf32>>
  }
}

