#map = affine_map<(d0, d1) -> (d0 + d1)>
#map1 = affine_map<(d0) -> (d0)>
#map2 = affine_map<(d0) -> (d0 + 64)>
#map3 = affine_map<(d0) -> (d0 + 32)>
#map4 = affine_map<(d0, d1) -> (-d0 + d1)>
#map5 = affine_map<(d0) -> (d0 + 1)>
#map6 = affine_map<(d0) -> (d0 + 2)>
#map7 = affine_map<(d0) -> (d0 + 3)>
#map8 = affine_map<(d0) -> (d0 + 1024)>
#map9 = affine_map<(d0) -> (d0 + 2048)>
#map10 = affine_map<(d0) -> (d0 + 255)>
module attributes {llvm.data_layout = "e-m:e-p270:32:32-p271:32:32-p272:64:64-i64:64-f80:128-n8:16:32:64-S128", llvm.target_triple = "x86_64-unknown-linux-gnu"} {
  llvm.mlir.global internal constant @constant_896("constant_896\00") {addr_space = 0 : i32}
  llvm.mlir.global internal constant @constant_895("constant_895\00") {addr_space = 0 : i32}
  llvm.mlir.global internal constant @constant_892("constant_892\00") {addr_space = 0 : i32}
  llvm.mlir.global internal constant @constant_891("constant_891\00") {addr_space = 0 : i32}
  llvm.mlir.global internal constant @constant_890("constant_890\00") {addr_space = 0 : i32}
  llvm.mlir.global internal constant @constant_889("constant_889\00") {addr_space = 0 : i32}
  llvm.mlir.global internal constant @constant_888("constant_888\00") {addr_space = 0 : i32}
  llvm.mlir.global internal constant @constant_885("constant_885\00") {addr_space = 0 : i32}
  llvm.mlir.global internal constant @constant_884("constant_884\00") {addr_space = 0 : i32}
  llvm.mlir.global internal constant @constant_881("constant_881\00") {addr_space = 0 : i32}
  llvm.mlir.global internal constant @constant_879("constant_879\00") {addr_space = 0 : i32}
  llvm.mlir.global internal constant @constant_878("constant_878\00") {addr_space = 0 : i32}
  llvm.mlir.global internal constant @constant_871("constant_871\00") {addr_space = 0 : i32}
  llvm.mlir.global internal constant @constant_870("constant_870\00") {addr_space = 0 : i32}
  llvm.mlir.global internal constant @constant_867("constant_867\00") {addr_space = 0 : i32}
  llvm.mlir.global internal constant @constant_866("constant_866\00") {addr_space = 0 : i32}
  llvm.mlir.global internal constant @constant_865("constant_865\00") {addr_space = 0 : i32}
  llvm.mlir.global internal constant @constant_864("constant_864\00") {addr_space = 0 : i32}
  llvm.mlir.global internal constant @constant_863("constant_863\00") {addr_space = 0 : i32}
  llvm.mlir.global internal constant @constant_860("constant_860\00") {addr_space = 0 : i32}
  llvm.mlir.global internal constant @constant_859("constant_859\00") {addr_space = 0 : i32}
  llvm.mlir.global internal constant @constant_856("constant_856\00") {addr_space = 0 : i32}
  llvm.mlir.global internal constant @constant_854("constant_854\00") {addr_space = 0 : i32}
  llvm.mlir.global internal constant @constant_853("constant_853\00") {addr_space = 0 : i32}
  llvm.mlir.global internal constant @constant_846("constant_846\00") {addr_space = 0 : i32}
  llvm.mlir.global internal constant @constant_845("constant_845\00") {addr_space = 0 : i32}
  llvm.mlir.global internal constant @constant_842("constant_842\00") {addr_space = 0 : i32}
  llvm.mlir.global internal constant @constant_841("constant_841\00") {addr_space = 0 : i32}
  llvm.mlir.global internal constant @constant_840("constant_840\00") {addr_space = 0 : i32}
  llvm.mlir.global internal constant @constant_839("constant_839\00") {addr_space = 0 : i32}
  llvm.mlir.global internal constant @constant_838("constant_838\00") {addr_space = 0 : i32}
  llvm.mlir.global internal constant @constant_835("constant_835\00") {addr_space = 0 : i32}
  llvm.mlir.global internal constant @constant_834("constant_834\00") {addr_space = 0 : i32}
  llvm.mlir.global internal constant @constant_831("constant_831\00") {addr_space = 0 : i32}
  llvm.mlir.global internal constant @constant_829("constant_829\00") {addr_space = 0 : i32}
  llvm.mlir.global internal constant @constant_828("constant_828\00") {addr_space = 0 : i32}
  llvm.mlir.global internal constant @constant_821("constant_821\00") {addr_space = 0 : i32}
  llvm.mlir.global internal constant @constant_820("constant_820\00") {addr_space = 0 : i32}
  llvm.mlir.global internal constant @constant_817("constant_817\00") {addr_space = 0 : i32}
  llvm.mlir.global internal constant @constant_816("constant_816\00") {addr_space = 0 : i32}
  llvm.mlir.global internal constant @constant_815("constant_815\00") {addr_space = 0 : i32}
  llvm.mlir.global internal constant @constant_814("constant_814\00") {addr_space = 0 : i32}
  llvm.mlir.global internal constant @constant_813("constant_813\00") {addr_space = 0 : i32}
  llvm.mlir.global internal constant @constant_810("constant_810\00") {addr_space = 0 : i32}
  llvm.mlir.global internal constant @constant_809("constant_809\00") {addr_space = 0 : i32}
  llvm.mlir.global internal constant @constant_806("constant_806\00") {addr_space = 0 : i32}
  llvm.mlir.global internal constant @constant_804("constant_804\00") {addr_space = 0 : i32}
  llvm.mlir.global internal constant @constant_803("constant_803\00") {addr_space = 0 : i32}
  llvm.mlir.global internal constant @constant_796("constant_796\00") {addr_space = 0 : i32}
  llvm.mlir.global internal constant @constant_795("constant_795\00") {addr_space = 0 : i32}
  llvm.mlir.global internal constant @constant_792("constant_792\00") {addr_space = 0 : i32}
  llvm.mlir.global internal constant @constant_791("constant_791\00") {addr_space = 0 : i32}
  llvm.mlir.global internal constant @constant_790("constant_790\00") {addr_space = 0 : i32}
  llvm.mlir.global internal constant @constant_789("constant_789\00") {addr_space = 0 : i32}
  llvm.mlir.global internal constant @constant_788("constant_788\00") {addr_space = 0 : i32}
  llvm.mlir.global internal constant @constant_785("constant_785\00") {addr_space = 0 : i32}
  llvm.mlir.global internal constant @constant_784("constant_784\00") {addr_space = 0 : i32}
  llvm.mlir.global internal constant @constant_781("constant_781\00") {addr_space = 0 : i32}
  llvm.mlir.global internal constant @constant_779("constant_779\00") {addr_space = 0 : i32}
  llvm.mlir.global internal constant @constant_778("constant_778\00") {addr_space = 0 : i32}
  llvm.mlir.global internal constant @constant_771("constant_771\00") {addr_space = 0 : i32}
  llvm.mlir.global internal constant @constant_770("constant_770\00") {addr_space = 0 : i32}
  llvm.mlir.global internal constant @constant_767("constant_767\00") {addr_space = 0 : i32}
  llvm.mlir.global internal constant @constant_766("constant_766\00") {addr_space = 0 : i32}
  llvm.mlir.global internal constant @constant_765("constant_765\00") {addr_space = 0 : i32}
  llvm.mlir.global internal constant @constant_764("constant_764\00") {addr_space = 0 : i32}
  llvm.mlir.global internal constant @constant_763("constant_763\00") {addr_space = 0 : i32}
  llvm.mlir.global internal constant @constant_760("constant_760\00") {addr_space = 0 : i32}
  llvm.mlir.global internal constant @constant_759("constant_759\00") {addr_space = 0 : i32}
  llvm.mlir.global internal constant @constant_756("constant_756\00") {addr_space = 0 : i32}
  llvm.mlir.global internal constant @constant_754("constant_754\00") {addr_space = 0 : i32}
  llvm.mlir.global internal constant @constant_753("constant_753\00") {addr_space = 0 : i32}
  llvm.mlir.global internal constant @constant_746("constant_746\00") {addr_space = 0 : i32}
  llvm.mlir.global internal constant @constant_745("constant_745\00") {addr_space = 0 : i32}
  llvm.mlir.global internal constant @constant_742("constant_742\00") {addr_space = 0 : i32}
  llvm.mlir.global internal constant @constant_741("constant_741\00") {addr_space = 0 : i32}
  llvm.mlir.global internal constant @constant_740("constant_740\00") {addr_space = 0 : i32}
  llvm.mlir.global internal constant @constant_739("constant_739\00") {addr_space = 0 : i32}
  llvm.mlir.global internal constant @constant_738("constant_738\00") {addr_space = 0 : i32}
  llvm.mlir.global internal constant @constant_735("constant_735\00") {addr_space = 0 : i32}
  llvm.mlir.global internal constant @constant_734("constant_734\00") {addr_space = 0 : i32}
  llvm.mlir.global internal constant @constant_731("constant_731\00") {addr_space = 0 : i32}
  llvm.mlir.global internal constant @constant_729("constant_729\00") {addr_space = 0 : i32}
  llvm.mlir.global internal constant @constant_728("constant_728\00") {addr_space = 0 : i32}
  llvm.mlir.global internal constant @constant_721("constant_721\00") {addr_space = 0 : i32}
  llvm.mlir.global internal constant @constant_720("constant_720\00") {addr_space = 0 : i32}
  llvm.mlir.global internal constant @constant_717("constant_717\00") {addr_space = 0 : i32}
  llvm.mlir.global internal constant @constant_716("constant_716\00") {addr_space = 0 : i32}
  llvm.mlir.global internal constant @constant_715("constant_715\00") {addr_space = 0 : i32}
  llvm.mlir.global internal constant @constant_714("constant_714\00") {addr_space = 0 : i32}
  llvm.mlir.global internal constant @constant_713("constant_713\00") {addr_space = 0 : i32}
  llvm.mlir.global internal constant @constant_710("constant_710\00") {addr_space = 0 : i32}
  llvm.mlir.global internal constant @constant_709("constant_709\00") {addr_space = 0 : i32}
  llvm.mlir.global internal constant @constant_706("constant_706\00") {addr_space = 0 : i32}
  llvm.mlir.global internal constant @constant_704("constant_704\00") {addr_space = 0 : i32}
  llvm.mlir.global internal constant @constant_703("constant_703\00") {addr_space = 0 : i32}
  llvm.mlir.global internal constant @constant_696("constant_696\00") {addr_space = 0 : i32}
  llvm.mlir.global internal constant @constant_695("constant_695\00") {addr_space = 0 : i32}
  llvm.mlir.global internal constant @constant_692("constant_692\00") {addr_space = 0 : i32}
  llvm.mlir.global internal constant @constant_691("constant_691\00") {addr_space = 0 : i32}
  llvm.mlir.global internal constant @constant_690("constant_690\00") {addr_space = 0 : i32}
  llvm.mlir.global internal constant @constant_689("constant_689\00") {addr_space = 0 : i32}
  llvm.mlir.global internal constant @constant_688("constant_688\00") {addr_space = 0 : i32}
  llvm.mlir.global internal constant @constant_685("constant_685\00") {addr_space = 0 : i32}
  llvm.mlir.global internal constant @constant_684("constant_684\00") {addr_space = 0 : i32}
  llvm.mlir.global internal constant @constant_681("constant_681\00") {addr_space = 0 : i32}
  llvm.mlir.global internal constant @constant_679("constant_679\00") {addr_space = 0 : i32}
  llvm.mlir.global internal constant @constant_678("constant_678\00") {addr_space = 0 : i32}
  llvm.mlir.global internal constant @constant_671("constant_671\00") {addr_space = 0 : i32}
  llvm.mlir.global internal constant @constant_670("constant_670\00") {addr_space = 0 : i32}
  llvm.mlir.global internal constant @constant_667("constant_667\00") {addr_space = 0 : i32}
  llvm.mlir.global internal constant @constant_666("constant_666\00") {addr_space = 0 : i32}
  llvm.mlir.global internal constant @constant_665("constant_665\00") {addr_space = 0 : i32}
  llvm.mlir.global internal constant @constant_664("constant_664\00") {addr_space = 0 : i32}
  llvm.mlir.global internal constant @constant_663("constant_663\00") {addr_space = 0 : i32}
  llvm.mlir.global internal constant @constant_660("constant_660\00") {addr_space = 0 : i32}
  llvm.mlir.global internal constant @constant_659("constant_659\00") {addr_space = 0 : i32}
  llvm.mlir.global internal constant @constant_656("constant_656\00") {addr_space = 0 : i32}
  llvm.mlir.global internal constant @constant_654("constant_654\00") {addr_space = 0 : i32}
  llvm.mlir.global internal constant @constant_653("constant_653\00") {addr_space = 0 : i32}
  llvm.mlir.global internal constant @constant_646("constant_646\00") {addr_space = 0 : i32}
  llvm.mlir.global internal constant @constant_645("constant_645\00") {addr_space = 0 : i32}
  llvm.mlir.global internal constant @constant_642("constant_642\00") {addr_space = 0 : i32}
  llvm.mlir.global internal constant @constant_641("constant_641\00") {addr_space = 0 : i32}
  llvm.mlir.global internal constant @constant_640("constant_640\00") {addr_space = 0 : i32}
  llvm.mlir.global internal constant @constant_639("constant_639\00") {addr_space = 0 : i32}
  llvm.mlir.global internal constant @constant_638("constant_638\00") {addr_space = 0 : i32}
  llvm.mlir.global internal constant @constant_635("constant_635\00") {addr_space = 0 : i32}
  llvm.mlir.global internal constant @constant_634("constant_634\00") {addr_space = 0 : i32}
  llvm.mlir.global internal constant @constant_631("constant_631\00") {addr_space = 0 : i32}
  llvm.mlir.global internal constant @constant_629("constant_629\00") {addr_space = 0 : i32}
  llvm.mlir.global internal constant @constant_628("constant_628\00") {addr_space = 0 : i32}
  llvm.mlir.global internal constant @constant_621("constant_621\00") {addr_space = 0 : i32}
  llvm.mlir.global internal constant @constant_620("constant_620\00") {addr_space = 0 : i32}
  llvm.mlir.global internal constant @constant_617("constant_617\00") {addr_space = 0 : i32}
  llvm.mlir.global internal constant @constant_616("constant_616\00") {addr_space = 0 : i32}
  llvm.mlir.global internal constant @constant_615("constant_615\00") {addr_space = 0 : i32}
  llvm.mlir.global internal constant @constant_614("constant_614\00") {addr_space = 0 : i32}
  llvm.mlir.global internal constant @constant_613("constant_613\00") {addr_space = 0 : i32}
  llvm.mlir.global internal constant @constant_610("constant_610\00") {addr_space = 0 : i32}
  llvm.mlir.global internal constant @constant_609("constant_609\00") {addr_space = 0 : i32}
  llvm.mlir.global internal constant @constant_606("constant_606\00") {addr_space = 0 : i32}
  llvm.mlir.global internal constant @constant_604("constant_604\00") {addr_space = 0 : i32}
  llvm.mlir.global internal constant @constant_603("constant_603\00") {addr_space = 0 : i32}
  llvm.mlir.global internal constant @constant_596("constant_596\00") {addr_space = 0 : i32}
  llvm.mlir.global internal constant @constant_595("constant_595\00") {addr_space = 0 : i32}
  llvm.mlir.global internal constant @constant_592("constant_592\00") {addr_space = 0 : i32}
  llvm.mlir.global internal constant @constant_591("constant_591\00") {addr_space = 0 : i32}
  llvm.mlir.global internal constant @constant_590("constant_590\00") {addr_space = 0 : i32}
  llvm.mlir.global internal constant @constant_589("constant_589\00") {addr_space = 0 : i32}
  llvm.mlir.global internal constant @constant_588("constant_588\00") {addr_space = 0 : i32}
  llvm.mlir.global internal constant @constant_585("constant_585\00") {addr_space = 0 : i32}
  llvm.mlir.global internal constant @constant_584("constant_584\00") {addr_space = 0 : i32}
  llvm.mlir.global internal constant @constant_581("constant_581\00") {addr_space = 0 : i32}
  llvm.mlir.global internal constant @constant_579("constant_579\00") {addr_space = 0 : i32}
  llvm.mlir.global internal constant @constant_578("constant_578\00") {addr_space = 0 : i32}
  llvm.mlir.global internal constant @constant_571("constant_571\00") {addr_space = 0 : i32}
  llvm.mlir.global internal constant @constant_570("constant_570\00") {addr_space = 0 : i32}
  llvm.mlir.global internal constant @constant_567("constant_567\00") {addr_space = 0 : i32}
  llvm.mlir.global internal constant @constant_566("constant_566\00") {addr_space = 0 : i32}
  llvm.mlir.global internal constant @constant_565("constant_565\00") {addr_space = 0 : i32}
  llvm.mlir.global internal constant @constant_564("constant_564\00") {addr_space = 0 : i32}
  llvm.mlir.global internal constant @constant_563("constant_563\00") {addr_space = 0 : i32}
  llvm.mlir.global internal constant @constant_560("constant_560\00") {addr_space = 0 : i32}
  llvm.mlir.global internal constant @constant_559("constant_559\00") {addr_space = 0 : i32}
  llvm.mlir.global internal constant @constant_556("constant_556\00") {addr_space = 0 : i32}
  llvm.mlir.global internal constant @constant_554("constant_554\00") {addr_space = 0 : i32}
  llvm.mlir.global internal constant @constant_553("constant_553\00") {addr_space = 0 : i32}
  llvm.mlir.global internal constant @constant_546("constant_546\00") {addr_space = 0 : i32}
  llvm.mlir.global internal constant @constant_545("constant_545\00") {addr_space = 0 : i32}
  llvm.mlir.global internal constant @constant_542("constant_542\00") {addr_space = 0 : i32}
  llvm.mlir.global internal constant @constant_541("constant_541\00") {addr_space = 0 : i32}
  llvm.mlir.global internal constant @constant_540("constant_540\00") {addr_space = 0 : i32}
  llvm.mlir.global internal constant @constant_539("constant_539\00") {addr_space = 0 : i32}
  llvm.mlir.global internal constant @constant_538("constant_538\00") {addr_space = 0 : i32}
  llvm.mlir.global internal constant @constant_535("constant_535\00") {addr_space = 0 : i32}
  llvm.mlir.global internal constant @constant_534("constant_534\00") {addr_space = 0 : i32}
  llvm.mlir.global internal constant @constant_531("constant_531\00") {addr_space = 0 : i32}
  llvm.mlir.global internal constant @constant_529("constant_529\00") {addr_space = 0 : i32}
  llvm.mlir.global internal constant @constant_528("constant_528\00") {addr_space = 0 : i32}
  llvm.mlir.global internal constant @constant_521("constant_521\00") {addr_space = 0 : i32}
  llvm.mlir.global internal constant @constant_520("constant_520\00") {addr_space = 0 : i32}
  llvm.mlir.global internal constant @constant_517("constant_517\00") {addr_space = 0 : i32}
  llvm.mlir.global internal constant @constant_516("constant_516\00") {addr_space = 0 : i32}
  llvm.mlir.global internal constant @constant_515("constant_515\00") {addr_space = 0 : i32}
  llvm.mlir.global internal constant @constant_514("constant_514\00") {addr_space = 0 : i32}
  llvm.mlir.global internal constant @constant_513("constant_513\00") {addr_space = 0 : i32}
  llvm.mlir.global internal constant @constant_510("constant_510\00") {addr_space = 0 : i32}
  llvm.mlir.global internal constant @constant_509("constant_509\00") {addr_space = 0 : i32}
  llvm.mlir.global internal constant @constant_506("constant_506\00") {addr_space = 0 : i32}
  llvm.mlir.global internal constant @constant_504("constant_504\00") {addr_space = 0 : i32}
  llvm.mlir.global internal constant @constant_503("constant_503\00") {addr_space = 0 : i32}
  llvm.mlir.global internal constant @constant_496("constant_496\00") {addr_space = 0 : i32}
  llvm.mlir.global internal constant @constant_495("constant_495\00") {addr_space = 0 : i32}
  llvm.mlir.global internal constant @constant_492("constant_492\00") {addr_space = 0 : i32}
  llvm.mlir.global internal constant @constant_491("constant_491\00") {addr_space = 0 : i32}
  llvm.mlir.global internal constant @constant_490("constant_490\00") {addr_space = 0 : i32}
  llvm.mlir.global internal constant @constant_489("constant_489\00") {addr_space = 0 : i32}
  llvm.mlir.global internal constant @constant_488("constant_488\00") {addr_space = 0 : i32}
  llvm.mlir.global internal constant @constant_485("constant_485\00") {addr_space = 0 : i32}
  llvm.mlir.global internal constant @constant_484("constant_484\00") {addr_space = 0 : i32}
  llvm.mlir.global internal constant @constant_481("constant_481\00") {addr_space = 0 : i32}
  llvm.mlir.global internal constant @constant_479("constant_479\00") {addr_space = 0 : i32}
  llvm.mlir.global internal constant @constant_478("constant_478\00") {addr_space = 0 : i32}
  llvm.mlir.global internal constant @constant_471("constant_471\00") {addr_space = 0 : i32}
  llvm.mlir.global internal constant @constant_470("constant_470\00") {addr_space = 0 : i32}
  llvm.mlir.global internal constant @constant_467("constant_467\00") {addr_space = 0 : i32}
  llvm.mlir.global internal constant @constant_466("constant_466\00") {addr_space = 0 : i32}
  llvm.mlir.global internal constant @constant_465("constant_465\00") {addr_space = 0 : i32}
  llvm.mlir.global internal constant @constant_464("constant_464\00") {addr_space = 0 : i32}
  llvm.mlir.global internal constant @constant_463("constant_463\00") {addr_space = 0 : i32}
  llvm.mlir.global internal constant @constant_460("constant_460\00") {addr_space = 0 : i32}
  llvm.mlir.global internal constant @constant_459("constant_459\00") {addr_space = 0 : i32}
  llvm.mlir.global internal constant @constant_456("constant_456\00") {addr_space = 0 : i32}
  llvm.mlir.global internal constant @constant_454("constant_454\00") {addr_space = 0 : i32}
  llvm.mlir.global internal constant @constant_453("constant_453\00") {addr_space = 0 : i32}
  llvm.mlir.global internal constant @constant_446("constant_446\00") {addr_space = 0 : i32}
  llvm.mlir.global internal constant @constant_445("constant_445\00") {addr_space = 0 : i32}
  llvm.mlir.global internal constant @constant_442("constant_442\00") {addr_space = 0 : i32}
  llvm.mlir.global internal constant @constant_441("constant_441\00") {addr_space = 0 : i32}
  llvm.mlir.global internal constant @constant_440("constant_440\00") {addr_space = 0 : i32}
  llvm.mlir.global internal constant @constant_439("constant_439\00") {addr_space = 0 : i32}
  llvm.mlir.global internal constant @constant_438("constant_438\00") {addr_space = 0 : i32}
  llvm.mlir.global internal constant @constant_435("constant_435\00") {addr_space = 0 : i32}
  llvm.mlir.global internal constant @constant_434("constant_434\00") {addr_space = 0 : i32}
  llvm.mlir.global internal constant @constant_431("constant_431\00") {addr_space = 0 : i32}
  llvm.mlir.global internal constant @constant_429("constant_429\00") {addr_space = 0 : i32}
  llvm.mlir.global internal constant @constant_428("constant_428\00") {addr_space = 0 : i32}
  llvm.mlir.global internal constant @constant_421("constant_421\00") {addr_space = 0 : i32}
  llvm.mlir.global internal constant @constant_420("constant_420\00") {addr_space = 0 : i32}
  llvm.mlir.global internal constant @constant_417("constant_417\00") {addr_space = 0 : i32}
  llvm.mlir.global internal constant @constant_416("constant_416\00") {addr_space = 0 : i32}
  llvm.mlir.global internal constant @constant_415("constant_415\00") {addr_space = 0 : i32}
  llvm.mlir.global internal constant @constant_414("constant_414\00") {addr_space = 0 : i32}
  llvm.mlir.global internal constant @constant_413("constant_413\00") {addr_space = 0 : i32}
  llvm.mlir.global internal constant @constant_410("constant_410\00") {addr_space = 0 : i32}
  llvm.mlir.global internal constant @constant_409("constant_409\00") {addr_space = 0 : i32}
  llvm.mlir.global internal constant @constant_406("constant_406\00") {addr_space = 0 : i32}
  llvm.mlir.global internal constant @constant_404("constant_404\00") {addr_space = 0 : i32}
  llvm.mlir.global internal constant @constant_403("constant_403\00") {addr_space = 0 : i32}
  llvm.mlir.global internal constant @constant_396("constant_396\00") {addr_space = 0 : i32}
  llvm.mlir.global internal constant @constant_395("constant_395\00") {addr_space = 0 : i32}
  llvm.mlir.global internal constant @constant_392("constant_392\00") {addr_space = 0 : i32}
  llvm.mlir.global internal constant @constant_391("constant_391\00") {addr_space = 0 : i32}
  llvm.mlir.global internal constant @constant_390("constant_390\00") {addr_space = 0 : i32}
  llvm.mlir.global internal constant @constant_389("constant_389\00") {addr_space = 0 : i32}
  llvm.mlir.global internal constant @constant_388("constant_388\00") {addr_space = 0 : i32}
  llvm.mlir.global internal constant @constant_385("constant_385\00") {addr_space = 0 : i32}
  llvm.mlir.global internal constant @constant_384("constant_384\00") {addr_space = 0 : i32}
  llvm.mlir.global internal constant @constant_381("constant_381\00") {addr_space = 0 : i32}
  llvm.mlir.global internal constant @constant_379("constant_379\00") {addr_space = 0 : i32}
  llvm.mlir.global internal constant @constant_378("constant_378\00") {addr_space = 0 : i32}
  llvm.mlir.global internal constant @constant_371("constant_371\00") {addr_space = 0 : i32}
  llvm.mlir.global internal constant @constant_370("constant_370\00") {addr_space = 0 : i32}
  llvm.mlir.global internal constant @constant_367("constant_367\00") {addr_space = 0 : i32}
  llvm.mlir.global internal constant @constant_366("constant_366\00") {addr_space = 0 : i32}
  llvm.mlir.global internal constant @constant_365("constant_365\00") {addr_space = 0 : i32}
  llvm.mlir.global internal constant @constant_364("constant_364\00") {addr_space = 0 : i32}
  llvm.mlir.global internal constant @constant_363("constant_363\00") {addr_space = 0 : i32}
  llvm.mlir.global internal constant @constant_360("constant_360\00") {addr_space = 0 : i32}
  llvm.mlir.global internal constant @constant_359("constant_359\00") {addr_space = 0 : i32}
  llvm.mlir.global internal constant @constant_356("constant_356\00") {addr_space = 0 : i32}
  llvm.mlir.global internal constant @constant_354("constant_354\00") {addr_space = 0 : i32}
  llvm.mlir.global internal constant @constant_353("constant_353\00") {addr_space = 0 : i32}
  llvm.mlir.global internal constant @constant_346("constant_346\00") {addr_space = 0 : i32}
  llvm.mlir.global internal constant @constant_345("constant_345\00") {addr_space = 0 : i32}
  llvm.mlir.global internal constant @constant_342("constant_342\00") {addr_space = 0 : i32}
  llvm.mlir.global internal constant @constant_341("constant_341\00") {addr_space = 0 : i32}
  llvm.mlir.global internal constant @constant_340("constant_340\00") {addr_space = 0 : i32}
  llvm.mlir.global internal constant @constant_339("constant_339\00") {addr_space = 0 : i32}
  llvm.mlir.global internal constant @constant_338("constant_338\00") {addr_space = 0 : i32}
  llvm.mlir.global internal constant @constant_335("constant_335\00") {addr_space = 0 : i32}
  llvm.mlir.global internal constant @constant_334("constant_334\00") {addr_space = 0 : i32}
  llvm.mlir.global internal constant @constant_331("constant_331\00") {addr_space = 0 : i32}
  llvm.mlir.global internal constant @constant_329("constant_329\00") {addr_space = 0 : i32}
  llvm.mlir.global internal constant @constant_328("constant_328\00") {addr_space = 0 : i32}
  llvm.mlir.global internal constant @constant_321("constant_321\00") {addr_space = 0 : i32}
  llvm.mlir.global internal constant @constant_320("constant_320\00") {addr_space = 0 : i32}
  llvm.mlir.global internal constant @constant_317("constant_317\00") {addr_space = 0 : i32}
  llvm.mlir.global internal constant @constant_316("constant_316\00") {addr_space = 0 : i32}
  llvm.mlir.global internal constant @constant_315("constant_315\00") {addr_space = 0 : i32}
  llvm.mlir.global internal constant @constant_314("constant_314\00") {addr_space = 0 : i32}
  llvm.mlir.global internal constant @constant_313("constant_313\00") {addr_space = 0 : i32}
  llvm.mlir.global internal constant @constant_310("constant_310\00") {addr_space = 0 : i32}
  llvm.mlir.global internal constant @constant_309("constant_309\00") {addr_space = 0 : i32}
  llvm.mlir.global internal constant @constant_306("constant_306\00") {addr_space = 0 : i32}
  func.func private @read_tensor_i1(!llvm.ptr<i8>, memref<*xi1>) attributes {llvm.emit_c_interface}
  llvm.mlir.global internal constant @constant_305("constant_305\00") {addr_space = 0 : i32}
  llvm.mlir.global internal constant @constant_303("constant_303\00") {addr_space = 0 : i32}
  llvm.mlir.global internal constant @constant_302("constant_302\00") {addr_space = 0 : i32}
  llvm.mlir.global internal constant @constant_295("constant_295\00") {addr_space = 0 : i32}
  llvm.mlir.global internal constant @constant_294("constant_294\00") {addr_space = 0 : i32}
  llvm.mlir.global internal constant @constant_293("constant_293\00") {addr_space = 0 : i32}
  llvm.mlir.global internal constant @constant_291("constant_291\00") {addr_space = 0 : i32}
  llvm.mlir.global internal constant @constant_290("constant_290\00") {addr_space = 0 : i32}
  llvm.mlir.global internal constant @constant_289("constant_289\00") {addr_space = 0 : i32}
  llvm.mlir.global internal constant @constant_288("constant_288\00") {addr_space = 0 : i32}
  llvm.mlir.global internal constant @constant_287("constant_287\00") {addr_space = 0 : i32}
  llvm.mlir.global internal constant @constant_286("constant_286\00") {addr_space = 0 : i32}
  llvm.mlir.global internal constant @constant_285("constant_285\00") {addr_space = 0 : i32}
  llvm.mlir.global internal constant @constant_284("constant_284\00") {addr_space = 0 : i32}
  llvm.mlir.global internal constant @constant_283("constant_283\00") {addr_space = 0 : i32}
  llvm.mlir.global internal constant @constant_282("constant_282\00") {addr_space = 0 : i32}
  llvm.mlir.global internal constant @constant_281("constant_281\00") {addr_space = 0 : i32}
  llvm.mlir.global internal constant @constant_280("constant_280\00") {addr_space = 0 : i32}
  llvm.mlir.global internal constant @constant_279("constant_279\00") {addr_space = 0 : i32}
  llvm.mlir.global internal constant @constant_278("constant_278\00") {addr_space = 0 : i32}
  llvm.mlir.global internal constant @constant_277("constant_277\00") {addr_space = 0 : i32}
  llvm.mlir.global internal constant @constant_276("constant_276\00") {addr_space = 0 : i32}
  llvm.mlir.global internal constant @constant_275("constant_275\00") {addr_space = 0 : i32}
  llvm.mlir.global internal constant @constant_274("constant_274\00") {addr_space = 0 : i32}
  llvm.mlir.global internal constant @constant_273("constant_273\00") {addr_space = 0 : i32}
  llvm.mlir.global internal constant @constant_272("constant_272\00") {addr_space = 0 : i32}
  llvm.mlir.global internal constant @constant_271("constant_271\00") {addr_space = 0 : i32}
  llvm.mlir.global internal constant @constant_270("constant_270\00") {addr_space = 0 : i32}
  llvm.mlir.global internal constant @constant_269("constant_269\00") {addr_space = 0 : i32}
  llvm.mlir.global internal constant @constant_268("constant_268\00") {addr_space = 0 : i32}
  llvm.mlir.global internal constant @constant_267("constant_267\00") {addr_space = 0 : i32}
  llvm.mlir.global internal constant @constant_266("constant_266\00") {addr_space = 0 : i32}
  llvm.mlir.global internal constant @constant_265("constant_265\00") {addr_space = 0 : i32}
  llvm.mlir.global internal constant @constant_264("constant_264\00") {addr_space = 0 : i32}
  llvm.mlir.global internal constant @constant_263("constant_263\00") {addr_space = 0 : i32}
  llvm.mlir.global internal constant @constant_262("constant_262\00") {addr_space = 0 : i32}
  llvm.mlir.global internal constant @constant_261("constant_261\00") {addr_space = 0 : i32}
  llvm.mlir.global internal constant @constant_260("constant_260\00") {addr_space = 0 : i32}
  llvm.mlir.global internal constant @constant_259("constant_259\00") {addr_space = 0 : i32}
  llvm.mlir.global internal constant @constant_258("constant_258\00") {addr_space = 0 : i32}
  llvm.mlir.global internal constant @constant_257("constant_257\00") {addr_space = 0 : i32}
  llvm.mlir.global internal constant @constant_256("constant_256\00") {addr_space = 0 : i32}
  llvm.mlir.global internal constant @constant_255("constant_255\00") {addr_space = 0 : i32}
  llvm.mlir.global internal constant @constant_254("constant_254\00") {addr_space = 0 : i32}
  llvm.mlir.global internal constant @constant_253("constant_253\00") {addr_space = 0 : i32}
  llvm.mlir.global internal constant @constant_252("constant_252\00") {addr_space = 0 : i32}
  llvm.mlir.global internal constant @constant_251("constant_251\00") {addr_space = 0 : i32}
  llvm.mlir.global internal constant @constant_250("constant_250\00") {addr_space = 0 : i32}
  llvm.mlir.global internal constant @constant_249("constant_249\00") {addr_space = 0 : i32}
  llvm.mlir.global internal constant @constant_248("constant_248\00") {addr_space = 0 : i32}
  llvm.mlir.global internal constant @constant_247("constant_247\00") {addr_space = 0 : i32}
  llvm.mlir.global internal constant @constant_246("constant_246\00") {addr_space = 0 : i32}
  llvm.mlir.global internal constant @constant_245("constant_245\00") {addr_space = 0 : i32}
  llvm.mlir.global internal constant @constant_244("constant_244\00") {addr_space = 0 : i32}
  llvm.mlir.global internal constant @constant_243("constant_243\00") {addr_space = 0 : i32}
  llvm.mlir.global internal constant @constant_242("constant_242\00") {addr_space = 0 : i32}
  llvm.mlir.global internal constant @constant_241("constant_241\00") {addr_space = 0 : i32}
  llvm.mlir.global internal constant @constant_240("constant_240\00") {addr_space = 0 : i32}
  llvm.mlir.global internal constant @constant_239("constant_239\00") {addr_space = 0 : i32}
  llvm.mlir.global internal constant @constant_238("constant_238\00") {addr_space = 0 : i32}
  llvm.mlir.global internal constant @constant_237("constant_237\00") {addr_space = 0 : i32}
  llvm.mlir.global internal constant @constant_236("constant_236\00") {addr_space = 0 : i32}
  llvm.mlir.global internal constant @constant_235("constant_235\00") {addr_space = 0 : i32}
  llvm.mlir.global internal constant @constant_234("constant_234\00") {addr_space = 0 : i32}
  llvm.mlir.global internal constant @constant_233("constant_233\00") {addr_space = 0 : i32}
  llvm.mlir.global internal constant @constant_232("constant_232\00") {addr_space = 0 : i32}
  llvm.mlir.global internal constant @constant_231("constant_231\00") {addr_space = 0 : i32}
  llvm.mlir.global internal constant @constant_230("constant_230\00") {addr_space = 0 : i32}
  llvm.mlir.global internal constant @constant_229("constant_229\00") {addr_space = 0 : i32}
  llvm.mlir.global internal constant @constant_228("constant_228\00") {addr_space = 0 : i32}
  llvm.mlir.global internal constant @constant_227("constant_227\00") {addr_space = 0 : i32}
  llvm.mlir.global internal constant @constant_226("constant_226\00") {addr_space = 0 : i32}
  llvm.mlir.global internal constant @constant_225("constant_225\00") {addr_space = 0 : i32}
  llvm.mlir.global internal constant @constant_224("constant_224\00") {addr_space = 0 : i32}
  llvm.mlir.global internal constant @constant_223("constant_223\00") {addr_space = 0 : i32}
  llvm.mlir.global internal constant @constant_222("constant_222\00") {addr_space = 0 : i32}
  llvm.mlir.global internal constant @constant_221("constant_221\00") {addr_space = 0 : i32}
  llvm.mlir.global internal constant @constant_220("constant_220\00") {addr_space = 0 : i32}
  llvm.mlir.global internal constant @constant_219("constant_219\00") {addr_space = 0 : i32}
  llvm.mlir.global internal constant @constant_218("constant_218\00") {addr_space = 0 : i32}
  llvm.mlir.global internal constant @constant_217("constant_217\00") {addr_space = 0 : i32}
  llvm.mlir.global internal constant @constant_216("constant_216\00") {addr_space = 0 : i32}
  llvm.mlir.global internal constant @constant_215("constant_215\00") {addr_space = 0 : i32}
  llvm.mlir.global internal constant @constant_214("constant_214\00") {addr_space = 0 : i32}
  llvm.mlir.global internal constant @constant_213("constant_213\00") {addr_space = 0 : i32}
  llvm.mlir.global internal constant @constant_212("constant_212\00") {addr_space = 0 : i32}
  llvm.mlir.global internal constant @constant_211("constant_211\00") {addr_space = 0 : i32}
  llvm.mlir.global internal constant @constant_210("constant_210\00") {addr_space = 0 : i32}
  llvm.mlir.global internal constant @constant_209("constant_209\00") {addr_space = 0 : i32}
  llvm.mlir.global internal constant @constant_208("constant_208\00") {addr_space = 0 : i32}
  llvm.mlir.global internal constant @constant_207("constant_207\00") {addr_space = 0 : i32}
  llvm.mlir.global internal constant @constant_206("constant_206\00") {addr_space = 0 : i32}
  llvm.mlir.global internal constant @constant_205("constant_205\00") {addr_space = 0 : i32}
  llvm.mlir.global internal constant @constant_204("constant_204\00") {addr_space = 0 : i32}
  llvm.mlir.global internal constant @constant_203("constant_203\00") {addr_space = 0 : i32}
  llvm.mlir.global internal constant @constant_202("constant_202\00") {addr_space = 0 : i32}
  llvm.mlir.global internal constant @constant_201("constant_201\00") {addr_space = 0 : i32}
  llvm.mlir.global internal constant @constant_200("constant_200\00") {addr_space = 0 : i32}
  llvm.mlir.global internal constant @constant_199("constant_199\00") {addr_space = 0 : i32}
  llvm.mlir.global internal constant @constant_198("constant_198\00") {addr_space = 0 : i32}
  llvm.mlir.global internal constant @constant_197("constant_197\00") {addr_space = 0 : i32}
  llvm.mlir.global internal constant @constant_196("constant_196\00") {addr_space = 0 : i32}
  llvm.mlir.global internal constant @constant_195("constant_195\00") {addr_space = 0 : i32}
  llvm.mlir.global internal constant @constant_194("constant_194\00") {addr_space = 0 : i32}
  llvm.mlir.global internal constant @constant_193("constant_193\00") {addr_space = 0 : i32}
  llvm.mlir.global internal constant @constant_192("constant_192\00") {addr_space = 0 : i32}
  llvm.mlir.global internal constant @constant_191("constant_191\00") {addr_space = 0 : i32}
  llvm.mlir.global internal constant @constant_190("constant_190\00") {addr_space = 0 : i32}
  llvm.mlir.global internal constant @constant_189("constant_189\00") {addr_space = 0 : i32}
  llvm.mlir.global internal constant @constant_188("constant_188\00") {addr_space = 0 : i32}
  llvm.mlir.global internal constant @constant_187("constant_187\00") {addr_space = 0 : i32}
  llvm.mlir.global internal constant @constant_186("constant_186\00") {addr_space = 0 : i32}
  llvm.mlir.global internal constant @constant_185("constant_185\00") {addr_space = 0 : i32}
  llvm.mlir.global internal constant @constant_184("constant_184\00") {addr_space = 0 : i32}
  llvm.mlir.global internal constant @constant_183("constant_183\00") {addr_space = 0 : i32}
  llvm.mlir.global internal constant @constant_182("constant_182\00") {addr_space = 0 : i32}
  llvm.mlir.global internal constant @constant_181("constant_181\00") {addr_space = 0 : i32}
  llvm.mlir.global internal constant @constant_180("constant_180\00") {addr_space = 0 : i32}
  llvm.mlir.global internal constant @constant_179("constant_179\00") {addr_space = 0 : i32}
  llvm.mlir.global internal constant @constant_178("constant_178\00") {addr_space = 0 : i32}
  llvm.mlir.global internal constant @constant_177("constant_177\00") {addr_space = 0 : i32}
  llvm.mlir.global internal constant @constant_176("constant_176\00") {addr_space = 0 : i32}
  llvm.mlir.global internal constant @constant_175("constant_175\00") {addr_space = 0 : i32}
  llvm.mlir.global internal constant @constant_174("constant_174\00") {addr_space = 0 : i32}
  llvm.mlir.global internal constant @constant_173("constant_173\00") {addr_space = 0 : i32}
  llvm.mlir.global internal constant @constant_172("constant_172\00") {addr_space = 0 : i32}
  llvm.mlir.global internal constant @constant_171("constant_171\00") {addr_space = 0 : i32}
  llvm.mlir.global internal constant @constant_170("constant_170\00") {addr_space = 0 : i32}
  llvm.mlir.global internal constant @constant_169("constant_169\00") {addr_space = 0 : i32}
  llvm.mlir.global internal constant @constant_168("constant_168\00") {addr_space = 0 : i32}
  llvm.mlir.global internal constant @constant_167("constant_167\00") {addr_space = 0 : i32}
  llvm.mlir.global internal constant @constant_166("constant_166\00") {addr_space = 0 : i32}
  llvm.mlir.global internal constant @constant_165("constant_165\00") {addr_space = 0 : i32}
  llvm.mlir.global internal constant @constant_164("constant_164\00") {addr_space = 0 : i32}
  llvm.mlir.global internal constant @constant_163("constant_163\00") {addr_space = 0 : i32}
  llvm.mlir.global internal constant @constant_162("constant_162\00") {addr_space = 0 : i32}
  llvm.mlir.global internal constant @constant_161("constant_161\00") {addr_space = 0 : i32}
  llvm.mlir.global internal constant @constant_160("constant_160\00") {addr_space = 0 : i32}
  llvm.mlir.global internal constant @constant_159("constant_159\00") {addr_space = 0 : i32}
  llvm.mlir.global internal constant @constant_158("constant_158\00") {addr_space = 0 : i32}
  llvm.mlir.global internal constant @constant_157("constant_157\00") {addr_space = 0 : i32}
  llvm.mlir.global internal constant @constant_156("constant_156\00") {addr_space = 0 : i32}
  llvm.mlir.global internal constant @constant_155("constant_155\00") {addr_space = 0 : i32}
  llvm.mlir.global internal constant @constant_154("constant_154\00") {addr_space = 0 : i32}
  llvm.mlir.global internal constant @constant_153("constant_153\00") {addr_space = 0 : i32}
  llvm.mlir.global internal constant @constant_152("constant_152\00") {addr_space = 0 : i32}
  llvm.mlir.global internal constant @constant_151("constant_151\00") {addr_space = 0 : i32}
  llvm.mlir.global internal constant @constant_150("constant_150\00") {addr_space = 0 : i32}
  llvm.mlir.global internal constant @constant_149("constant_149\00") {addr_space = 0 : i32}
  llvm.mlir.global internal constant @constant_148("constant_148\00") {addr_space = 0 : i32}
  llvm.mlir.global internal constant @constant_147("constant_147\00") {addr_space = 0 : i32}
  llvm.mlir.global internal constant @constant_146("constant_146\00") {addr_space = 0 : i32}
  llvm.mlir.global internal constant @constant_145("constant_145\00") {addr_space = 0 : i32}
  llvm.mlir.global internal constant @constant_144("constant_144\00") {addr_space = 0 : i32}
  llvm.mlir.global internal constant @constant_143("constant_143\00") {addr_space = 0 : i32}
  llvm.mlir.global internal constant @constant_142("constant_142\00") {addr_space = 0 : i32}
  llvm.mlir.global internal constant @constant_141("constant_141\00") {addr_space = 0 : i32}
  llvm.mlir.global internal constant @constant_140("constant_140\00") {addr_space = 0 : i32}
  llvm.mlir.global internal constant @constant_139("constant_139\00") {addr_space = 0 : i32}
  llvm.mlir.global internal constant @constant_138("constant_138\00") {addr_space = 0 : i32}
  llvm.mlir.global internal constant @constant_137("constant_137\00") {addr_space = 0 : i32}
  llvm.mlir.global internal constant @constant_136("constant_136\00") {addr_space = 0 : i32}
  llvm.mlir.global internal constant @constant_135("constant_135\00") {addr_space = 0 : i32}
  llvm.mlir.global internal constant @constant_134("constant_134\00") {addr_space = 0 : i32}
  llvm.mlir.global internal constant @constant_133("constant_133\00") {addr_space = 0 : i32}
  llvm.mlir.global internal constant @constant_132("constant_132\00") {addr_space = 0 : i32}
  llvm.mlir.global internal constant @constant_131("constant_131\00") {addr_space = 0 : i32}
  llvm.mlir.global internal constant @constant_130("constant_130\00") {addr_space = 0 : i32}
  llvm.mlir.global internal constant @constant_129("constant_129\00") {addr_space = 0 : i32}
  llvm.mlir.global internal constant @constant_128("constant_128\00") {addr_space = 0 : i32}
  llvm.mlir.global internal constant @constant_127("constant_127\00") {addr_space = 0 : i32}
  llvm.mlir.global internal constant @constant_126("constant_126\00") {addr_space = 0 : i32}
  llvm.mlir.global internal constant @constant_125("constant_125\00") {addr_space = 0 : i32}
  llvm.mlir.global internal constant @constant_124("constant_124\00") {addr_space = 0 : i32}
  llvm.mlir.global internal constant @constant_123("constant_123\00") {addr_space = 0 : i32}
  llvm.mlir.global internal constant @constant_122("constant_122\00") {addr_space = 0 : i32}
  llvm.mlir.global internal constant @constant_121("constant_121\00") {addr_space = 0 : i32}
  llvm.mlir.global internal constant @constant_120("constant_120\00") {addr_space = 0 : i32}
  llvm.mlir.global internal constant @constant_119("constant_119\00") {addr_space = 0 : i32}
  llvm.mlir.global internal constant @constant_118("constant_118\00") {addr_space = 0 : i32}
  llvm.mlir.global internal constant @constant_117("constant_117\00") {addr_space = 0 : i32}
  llvm.mlir.global internal constant @constant_116("constant_116\00") {addr_space = 0 : i32}
  llvm.mlir.global internal constant @constant_115("constant_115\00") {addr_space = 0 : i32}
  llvm.mlir.global internal constant @constant_114("constant_114\00") {addr_space = 0 : i32}
  llvm.mlir.global internal constant @constant_113("constant_113\00") {addr_space = 0 : i32}
  llvm.mlir.global internal constant @constant_112("constant_112\00") {addr_space = 0 : i32}
  llvm.mlir.global internal constant @constant_111("constant_111\00") {addr_space = 0 : i32}
  llvm.mlir.global internal constant @constant_110("constant_110\00") {addr_space = 0 : i32}
  llvm.mlir.global internal constant @constant_109("constant_109\00") {addr_space = 0 : i32}
  llvm.mlir.global internal constant @constant_108("constant_108\00") {addr_space = 0 : i32}
  llvm.mlir.global internal constant @constant_107("constant_107\00") {addr_space = 0 : i32}
  llvm.mlir.global internal constant @constant_106("constant_106\00") {addr_space = 0 : i32}
  llvm.mlir.global internal constant @constant_105("constant_105\00") {addr_space = 0 : i32}
  llvm.mlir.global internal constant @constant_104("constant_104\00") {addr_space = 0 : i32}
  llvm.mlir.global internal constant @constant_103("constant_103\00") {addr_space = 0 : i32}
  llvm.mlir.global internal constant @constant_102("constant_102\00") {addr_space = 0 : i32}
  llvm.mlir.global internal constant @constant_101("constant_101\00") {addr_space = 0 : i32}
  llvm.mlir.global internal constant @constant_100("constant_100\00") {addr_space = 0 : i32}
  llvm.mlir.global internal constant @constant_99("constant_99\00") {addr_space = 0 : i32}
  llvm.mlir.global internal constant @constant_98("constant_98\00") {addr_space = 0 : i32}
  llvm.mlir.global internal constant @constant_97("constant_97\00") {addr_space = 0 : i32}
  llvm.mlir.global internal constant @constant_96("constant_96\00") {addr_space = 0 : i32}
  llvm.mlir.global internal constant @constant_95("constant_95\00") {addr_space = 0 : i32}
  llvm.mlir.global internal constant @constant_94("constant_94\00") {addr_space = 0 : i32}
  llvm.mlir.global internal constant @constant_93("constant_93\00") {addr_space = 0 : i32}
  llvm.mlir.global internal constant @constant_92("constant_92\00") {addr_space = 0 : i32}
  llvm.mlir.global internal constant @constant_91("constant_91\00") {addr_space = 0 : i32}
  llvm.mlir.global internal constant @constant_90("constant_90\00") {addr_space = 0 : i32}
  llvm.mlir.global internal constant @constant_89("constant_89\00") {addr_space = 0 : i32}
  llvm.mlir.global internal constant @constant_88("constant_88\00") {addr_space = 0 : i32}
  llvm.mlir.global internal constant @constant_87("constant_87\00") {addr_space = 0 : i32}
  llvm.mlir.global internal constant @constant_86("constant_86\00") {addr_space = 0 : i32}
  llvm.mlir.global internal constant @constant_85("constant_85\00") {addr_space = 0 : i32}
  llvm.mlir.global internal constant @constant_84("constant_84\00") {addr_space = 0 : i32}
  llvm.mlir.global internal constant @constant_83("constant_83\00") {addr_space = 0 : i32}
  llvm.mlir.global internal constant @constant_82("constant_82\00") {addr_space = 0 : i32}
  llvm.mlir.global internal constant @constant_81("constant_81\00") {addr_space = 0 : i32}
  llvm.mlir.global internal constant @constant_80("constant_80\00") {addr_space = 0 : i32}
  llvm.mlir.global internal constant @constant_79("constant_79\00") {addr_space = 0 : i32}
  llvm.mlir.global internal constant @constant_78("constant_78\00") {addr_space = 0 : i32}
  llvm.mlir.global internal constant @constant_77("constant_77\00") {addr_space = 0 : i32}
  llvm.mlir.global internal constant @constant_76("constant_76\00") {addr_space = 0 : i32}
  llvm.mlir.global internal constant @constant_75("constant_75\00") {addr_space = 0 : i32}
  llvm.mlir.global internal constant @constant_74("constant_74\00") {addr_space = 0 : i32}
  llvm.mlir.global internal constant @constant_73("constant_73\00") {addr_space = 0 : i32}
  llvm.mlir.global internal constant @constant_72("constant_72\00") {addr_space = 0 : i32}
  llvm.mlir.global internal constant @constant_71("constant_71\00") {addr_space = 0 : i32}
  llvm.mlir.global internal constant @constant_70("constant_70\00") {addr_space = 0 : i32}
  llvm.mlir.global internal constant @constant_69("constant_69\00") {addr_space = 0 : i32}
  llvm.mlir.global internal constant @constant_68("constant_68\00") {addr_space = 0 : i32}
  llvm.mlir.global internal constant @constant_67("constant_67\00") {addr_space = 0 : i32}
  llvm.mlir.global internal constant @constant_66("constant_66\00") {addr_space = 0 : i32}
  llvm.mlir.global internal constant @constant_65("constant_65\00") {addr_space = 0 : i32}
  llvm.mlir.global internal constant @constant_64("constant_64\00") {addr_space = 0 : i32}
  llvm.mlir.global internal constant @constant_63("constant_63\00") {addr_space = 0 : i32}
  llvm.mlir.global internal constant @constant_62("constant_62\00") {addr_space = 0 : i32}
  llvm.mlir.global internal constant @constant_61("constant_61\00") {addr_space = 0 : i32}
  llvm.mlir.global internal constant @constant_60("constant_60\00") {addr_space = 0 : i32}
  llvm.mlir.global internal constant @constant_59("constant_59\00") {addr_space = 0 : i32}
  llvm.mlir.global internal constant @constant_58("constant_58\00") {addr_space = 0 : i32}
  llvm.mlir.global internal constant @constant_57("constant_57\00") {addr_space = 0 : i32}
  llvm.mlir.global internal constant @constant_56("constant_56\00") {addr_space = 0 : i32}
  llvm.mlir.global internal constant @constant_55("constant_55\00") {addr_space = 0 : i32}
  llvm.mlir.global internal constant @constant_54("constant_54\00") {addr_space = 0 : i32}
  llvm.mlir.global internal constant @constant_53("constant_53\00") {addr_space = 0 : i32}
  llvm.mlir.global internal constant @constant_52("constant_52\00") {addr_space = 0 : i32}
  llvm.mlir.global internal constant @constant_51("constant_51\00") {addr_space = 0 : i32}
  llvm.mlir.global internal constant @constant_50("constant_50\00") {addr_space = 0 : i32}
  llvm.mlir.global internal constant @constant_49("constant_49\00") {addr_space = 0 : i32}
  llvm.mlir.global internal constant @constant_48("constant_48\00") {addr_space = 0 : i32}
  llvm.mlir.global internal constant @constant_47("constant_47\00") {addr_space = 0 : i32}
  llvm.mlir.global internal constant @constant_46("constant_46\00") {addr_space = 0 : i32}
  llvm.mlir.global internal constant @constant_45("constant_45\00") {addr_space = 0 : i32}
  llvm.mlir.global internal constant @constant_44("constant_44\00") {addr_space = 0 : i32}
  llvm.mlir.global internal constant @constant_43("constant_43\00") {addr_space = 0 : i32}
  llvm.mlir.global internal constant @constant_42("constant_42\00") {addr_space = 0 : i32}
  llvm.mlir.global internal constant @constant_41("constant_41\00") {addr_space = 0 : i32}
  llvm.mlir.global internal constant @constant_40("constant_40\00") {addr_space = 0 : i32}
  llvm.mlir.global internal constant @constant_39("constant_39\00") {addr_space = 0 : i32}
  llvm.mlir.global internal constant @constant_38("constant_38\00") {addr_space = 0 : i32}
  llvm.mlir.global internal constant @constant_37("constant_37\00") {addr_space = 0 : i32}
  llvm.mlir.global internal constant @constant_36("constant_36\00") {addr_space = 0 : i32}
  llvm.mlir.global internal constant @constant_35("constant_35\00") {addr_space = 0 : i32}
  llvm.mlir.global internal constant @constant_34("constant_34\00") {addr_space = 0 : i32}
  llvm.mlir.global internal constant @constant_33("constant_33\00") {addr_space = 0 : i32}
  llvm.mlir.global internal constant @constant_32("constant_32\00") {addr_space = 0 : i32}
  llvm.mlir.global internal constant @constant_31("constant_31\00") {addr_space = 0 : i32}
  llvm.mlir.global internal constant @constant_30("constant_30\00") {addr_space = 0 : i32}
  llvm.mlir.global internal constant @constant_29("constant_29\00") {addr_space = 0 : i32}
  llvm.mlir.global internal constant @constant_28("constant_28\00") {addr_space = 0 : i32}
  llvm.mlir.global internal constant @constant_27("constant_27\00") {addr_space = 0 : i32}
  llvm.mlir.global internal constant @constant_26("constant_26\00") {addr_space = 0 : i32}
  llvm.mlir.global internal constant @constant_25("constant_25\00") {addr_space = 0 : i32}
  llvm.mlir.global internal constant @constant_24("constant_24\00") {addr_space = 0 : i32}
  llvm.mlir.global internal constant @constant_23("constant_23\00") {addr_space = 0 : i32}
  llvm.mlir.global internal constant @constant_22("constant_22\00") {addr_space = 0 : i32}
  llvm.mlir.global internal constant @constant_21("constant_21\00") {addr_space = 0 : i32}
  llvm.mlir.global internal constant @constant_20("constant_20\00") {addr_space = 0 : i32}
  llvm.mlir.global internal constant @constant_19("constant_19\00") {addr_space = 0 : i32}
  llvm.mlir.global internal constant @constant_18("constant_18\00") {addr_space = 0 : i32}
  llvm.mlir.global internal constant @constant_17("constant_17\00") {addr_space = 0 : i32}
  llvm.mlir.global internal constant @constant_16("constant_16\00") {addr_space = 0 : i32}
  llvm.mlir.global internal constant @constant_15("constant_15\00") {addr_space = 0 : i32}
  llvm.mlir.global internal constant @constant_14("constant_14\00") {addr_space = 0 : i32}
  llvm.mlir.global internal constant @constant_13("constant_13\00") {addr_space = 0 : i32}
  llvm.mlir.global internal constant @constant_12("constant_12\00") {addr_space = 0 : i32}
  llvm.mlir.global internal constant @constant_11("constant_11\00") {addr_space = 0 : i32}
  llvm.mlir.global internal constant @constant_10("constant_10\00") {addr_space = 0 : i32}
  llvm.mlir.global internal constant @constant_9("constant_9\00") {addr_space = 0 : i32}
  llvm.mlir.global internal constant @constant_8("constant_8\00") {addr_space = 0 : i32}
  llvm.mlir.global internal constant @constant_7("constant_7\00") {addr_space = 0 : i32}
  llvm.mlir.global internal constant @constant_6("constant_6\00") {addr_space = 0 : i32}
  llvm.mlir.global internal constant @constant_5("constant_5\00") {addr_space = 0 : i32}
  llvm.mlir.global internal constant @constant_4("constant_4\00") {addr_space = 0 : i32}
  llvm.mlir.global internal constant @constant_3("constant_3\00") {addr_space = 0 : i32}
  llvm.mlir.global internal constant @constant_2("constant_2\00") {addr_space = 0 : i32}
  llvm.mlir.global internal constant @constant_1("constant_1\00") {addr_space = 0 : i32}
  func.func private @read_tensor_f32(!llvm.ptr<i8>, memref<*xf32>) attributes {llvm.emit_c_interface}
  llvm.mlir.global internal constant @constant_0("constant_0\00") {addr_space = 0 : i32}
  func.func @main_graph(%arg0: memref<64x1xi64>, %arg1: memref<64x16x255x64xf32>, %arg2: memref<64x16x255x64xf32>, %arg3: memref<64x16x255x64xf32>, %arg4: memref<64x16x255x64xf32>, %arg5: memref<64x16x255x64xf32>, %arg6: memref<64x16x255x64xf32>, %arg7: memref<64x16x255x64xf32>, %arg8: memref<64x16x255x64xf32>, %arg9: memref<64x16x255x64xf32>, %arg10: memref<64x16x255x64xf32>, %arg11: memref<64x16x255x64xf32>, %arg12: memref<64x16x255x64xf32>, %arg13: memref<64x16x255x64xf32>, %arg14: memref<64x16x255x64xf32>, %arg15: memref<64x16x255x64xf32>, %arg16: memref<64x16x255x64xf32>, %arg17: memref<64x16x255x64xf32>, %arg18: memref<64x16x255x64xf32>, %arg19: memref<64x16x255x64xf32>, %arg20: memref<64x16x255x64xf32>, %arg21: memref<64x16x255x64xf32>, %arg22: memref<64x16x255x64xf32>, %arg23: memref<64x16x255x64xf32>, %arg24: memref<64x16x255x64xf32>, %arg25: memref<64x16x255x64xf32>, %arg26: memref<64x16x255x64xf32>, %arg27: memref<64x16x255x64xf32>, %arg28: memref<64x16x255x64xf32>, %arg29: memref<64x16x255x64xf32>, %arg30: memref<64x16x255x64xf32>, %arg31: memref<64x16x255x64xf32>, %arg32: memref<64x16x255x64xf32>, %arg33: memref<64x16x255x64xf32>, %arg34: memref<64x16x255x64xf32>, %arg35: memref<64x16x255x64xf32>, %arg36: memref<64x16x255x64xf32>, %arg37: memref<64x16x255x64xf32>, %arg38: memref<64x16x255x64xf32>, %arg39: memref<64x16x255x64xf32>, %arg40: memref<64x16x255x64xf32>, %arg41: memref<64x16x255x64xf32>, %arg42: memref<64x16x255x64xf32>, %arg43: memref<64x16x255x64xf32>, %arg44: memref<64x16x255x64xf32>, %arg45: memref<64x16x255x64xf32>, %arg46: memref<64x16x255x64xf32>, %arg47: memref<64x16x255x64xf32>, %arg48: memref<64x16x255x64xf32>) -> memref<64x1x50264xf32> attributes {input_names = ["input_ids", "past.0.key", "past.0.value", "past.1.key", "past.1.value", "past.2.key", "past.2.value", "past.3.key", "past.3.value", "past.4.key", "past.4.value", "past.5.key", "past.5.value", "past.6.key", "past.6.value", "past.7.key", "past.7.value", "past.8.key", "past.8.value", "past.9.key", "past.9.value", "past.10.key", "past.10.value", "past.11.key", "past.11.value", "past.12.key", "past.12.value", "past.13.key", "past.13.value", "past.14.key", "past.14.value", "past.15.key", "past.15.value", "past.16.key", "past.16.value", "past.17.key", "past.17.value", "past.18.key", "past.18.value", "past.19.key", "past.19.value", "past.20.key", "past.20.value", "past.21.key", "past.21.value", "past.22.key", "past.22.value", "past.23.key", "past.23.value"], llvm.emit_c_interface, output_names = ["logits"]} {
    %c1 = arith.constant 1 : index
    %c2 = arith.constant 2 : index
    %c3 = arith.constant 3 : index
    %c4 = arith.constant 4 : index
    %c5 = arith.constant 5 : index
    %c6 = arith.constant 6 : index
    %c7 = arith.constant 7 : index
    %c0 = arith.constant 0 : index
    %c0_0 = arith.constant 0 : index
    %c0_1 = arith.constant 0 : index
    %c0_2 = arith.constant 0 : index
    %c0_3 = arith.constant 0 : index
    %c0_4 = arith.constant 0 : index
    %c0_5 = arith.constant 0 : index
    %c0_6 = arith.constant 0 : index
    %c0_7 = arith.constant 0 : index
    %c0_8 = arith.constant 0 : index
    %c0_9 = arith.constant 0 : index
    %c0_10 = arith.constant 0 : index
    %c0_11 = arith.constant 0 : index
    %c0_12 = arith.constant 0 : index
    %c0_13 = arith.constant 0 : index
    %c0_14 = arith.constant 0 : index
    %c0_15 = arith.constant 0 : index
    %c0_16 = arith.constant 0 : index
    %c0_17 = arith.constant 0 : index
    %c0_18 = arith.constant 0 : index
    %c0_19 = arith.constant 0 : index
    %c0_20 = arith.constant 0 : index
    %c0_21 = arith.constant 0 : index
    %c0_22 = arith.constant 0 : index
    %c0_23 = arith.constant 0 : index
    %c0_24 = arith.constant 0 : index
    %c0_25 = arith.constant 0 : index
    %c0_26 = arith.constant 0 : index
    %c0_27 = arith.constant 0 : index
    %c0_28 = arith.constant 0 : index
    %c0_29 = arith.constant 0 : index
    %c0_30 = arith.constant 0 : index
    %c0_31 = arith.constant 0 : index
    %c0_32 = arith.constant 0 : index
    %c0_33 = arith.constant 0 : index
    %c0_34 = arith.constant 0 : index
    %c0_35 = arith.constant 0 : index
    %c0_36 = arith.constant 0 : index
    %c0_37 = arith.constant 0 : index
    %c0_38 = arith.constant 0 : index
    %c0_39 = arith.constant 0 : index
    %c0_40 = arith.constant 0 : index
    %c0_41 = arith.constant 0 : index
    %c0_42 = arith.constant 0 : index
    %c0_43 = arith.constant 0 : index
    %c0_44 = arith.constant 0 : index
    %c0_45 = arith.constant 0 : index
    %c0_46 = arith.constant 0 : index
    %c0_47 = arith.constant 0 : index
    %c0_48 = arith.constant 0 : index
    %c0_49 = arith.constant 0 : index
    %c0_50 = arith.constant 0 : index
    %c0_51 = arith.constant 0 : index
    %c0_52 = arith.constant 0 : index
    %c0_53 = arith.constant 0 : index
    %c0_54 = arith.constant 0 : index
    %c0_55 = arith.constant 0 : index
    %c0_56 = arith.constant 0 : index
    %c0_57 = arith.constant 0 : index
    %c0_58 = arith.constant 0 : index
    %c0_59 = arith.constant 0 : index
    %c0_60 = arith.constant 0 : index
    %c0_61 = arith.constant 0 : index
    %c0_62 = arith.constant 0 : index
    %c0_63 = arith.constant 0 : index
    %c0_64 = arith.constant 0 : index
    %c0_65 = arith.constant 0 : index
    %c0_66 = arith.constant 0 : index
    %c0_67 = arith.constant 0 : index
    %c0_68 = arith.constant 0 : index
    %c0_69 = arith.constant 0 : index
    %c0_70 = arith.constant 0 : index
    %c0_71 = arith.constant 0 : index
    %c0_72 = arith.constant 0 : index
    %c0_73 = arith.constant 0 : index
    %c0_74 = arith.constant 0 : index
    %c0_75 = arith.constant 0 : index
    %c0_76 = arith.constant 0 : index
    %c0_77 = arith.constant 0 : index
    %c0_78 = arith.constant 0 : index
    %c0_79 = arith.constant 0 : index
    %c0_80 = arith.constant 0 : index
    %c0_81 = arith.constant 0 : index
    %c0_82 = arith.constant 0 : index
    %c0_83 = arith.constant 0 : index
    %c0_84 = arith.constant 0 : index
    %c0_85 = arith.constant 0 : index
    %c0_86 = arith.constant 0 : index
    %c0_87 = arith.constant 0 : index
    %c0_88 = arith.constant 0 : index
    %c0_89 = arith.constant 0 : index
    %c0_90 = arith.constant 0 : index
    %c0_91 = arith.constant 0 : index
    %c0_92 = arith.constant 0 : index
    %c0_93 = arith.constant 0 : index
    %c0_94 = arith.constant 0 : index
    %c0_95 = arith.constant 0 : index
    %c0_96 = arith.constant 0 : index
    %c0_97 = arith.constant 0 : index
    %c0_98 = arith.constant 0 : index
    %c0_99 = arith.constant 0 : index
    %c0_100 = arith.constant 0 : index
    %c0_101 = arith.constant 0 : index
    %c0_102 = arith.constant 0 : index
    %c0_103 = arith.constant 0 : index
    %c0_104 = arith.constant 0 : index
    %c0_105 = arith.constant 0 : index
    %c0_106 = arith.constant 0 : index
    %c0_107 = arith.constant 0 : index
    %c0_108 = arith.constant 0 : index
    %c0_109 = arith.constant 0 : index
    %c0_110 = arith.constant 0 : index
    %c0_111 = arith.constant 0 : index
    %c0_112 = arith.constant 0 : index
    %c0_113 = arith.constant 0 : index
    %c0_114 = arith.constant 0 : index
    %c0_115 = arith.constant 0 : index
    %c0_116 = arith.constant 0 : index
    %c0_117 = arith.constant 0 : index
    %c0_118 = arith.constant 0 : index
    %c0_119 = arith.constant 0 : index
    %c0_120 = arith.constant 0 : index
    %c0_121 = arith.constant 0 : index
    %c0_122 = arith.constant 0 : index
    %c0_123 = arith.constant 0 : index
    %c0_124 = arith.constant 0 : index
    %c0_125 = arith.constant 0 : index
    %c0_126 = arith.constant 0 : index
    %c0_127 = arith.constant 0 : index
    %c0_128 = arith.constant 0 : index
    %c0_129 = arith.constant 0 : index
    %c0_130 = arith.constant 0 : index
    %c0_131 = arith.constant 0 : index
    %c0_132 = arith.constant 0 : index
    %c0_133 = arith.constant 0 : index
    %c0_134 = arith.constant 0 : index
    %c0_135 = arith.constant 0 : index
    %c0_136 = arith.constant 0 : index
    %c0_137 = arith.constant 0 : index
    %c0_138 = arith.constant 0 : index
    %c0_139 = arith.constant 0 : index
    %c0_140 = arith.constant 0 : index
    %c0_141 = arith.constant 0 : index
    %c0_142 = arith.constant 0 : index
    %c0_143 = arith.constant 0 : index
    %cst = arith.constant 1.024000e+03 : f32
    %c4096 = arith.constant 4096 : index
    %cst_144 = arith.constant 0xFF800000 : f32
    %c256 = arith.constant 256 : index
    %c16 = arith.constant 16 : index
    %c3072 = arith.constant 3072 : index
    %cst_145 = arith.constant 0.000000e+00 : f32
    %c1024 = arith.constant 1024 : index
    %c50264 = arith.constant 50264 : index
    %c0_146 = arith.constant 0 : index
    %c64 = arith.constant 64 : index
    %c1_147 = arith.constant 1 : index
    %alloc = memref.alloc() {alignment = 16 : i64} : memref<50264x1024xf32>
    %cast = memref.cast %alloc : memref<50264x1024xf32> to memref<*xf32>
    %0 = llvm.mlir.addressof @constant_0 : !llvm.ptr<array<11 x i8>>
    %1 = llvm.mlir.constant(0 : i64) : i64
    %2 = llvm.getelementptr %0[%1, %1] : (!llvm.ptr<array<11 x i8>>, i64, i64) -> !llvm.ptr<i8>
    call @read_tensor_f32(%2, %cast) : (!llvm.ptr<i8>, memref<*xf32>) -> ()
    %alloc_148 = memref.alloc() {alignment = 16 : i64} : memref<1024xf32>
    %cast_149 = memref.cast %alloc_148 : memref<1024xf32> to memref<*xf32>
    %3 = llvm.mlir.addressof @constant_1 : !llvm.ptr<array<11 x i8>>
    %4 = llvm.mlir.constant(0 : i64) : i64
    %5 = llvm.getelementptr %3[%4, %4] : (!llvm.ptr<array<11 x i8>>, i64, i64) -> !llvm.ptr<i8>
    call @read_tensor_f32(%5, %cast_149) : (!llvm.ptr<i8>, memref<*xf32>) -> ()
    %alloc_150 = memref.alloc() {alignment = 16 : i64} : memref<1024xf32>
    %cast_151 = memref.cast %alloc_150 : memref<1024xf32> to memref<*xf32>
    %6 = llvm.mlir.addressof @constant_2 : !llvm.ptr<array<11 x i8>>
    %7 = llvm.mlir.constant(0 : i64) : i64
    %8 = llvm.getelementptr %6[%7, %7] : (!llvm.ptr<array<11 x i8>>, i64, i64) -> !llvm.ptr<i8>
    call @read_tensor_f32(%8, %cast_151) : (!llvm.ptr<i8>, memref<*xf32>) -> ()
    %alloc_152 = memref.alloc() {alignment = 16 : i64} : memref<1024x3072xf32>
    %cast_153 = memref.cast %alloc_152 : memref<1024x3072xf32> to memref<*xf32>
    %9 = llvm.mlir.addressof @constant_3 : !llvm.ptr<array<11 x i8>>
    %10 = llvm.mlir.constant(0 : i64) : i64
    %11 = llvm.getelementptr %9[%10, %10] : (!llvm.ptr<array<11 x i8>>, i64, i64) -> !llvm.ptr<i8>
    call @read_tensor_f32(%11, %cast_153) : (!llvm.ptr<i8>, memref<*xf32>) -> ()
    %alloc_154 = memref.alloc() {alignment = 16 : i64} : memref<3072xf32>
    %cast_155 = memref.cast %alloc_154 : memref<3072xf32> to memref<*xf32>
    %12 = llvm.mlir.addressof @constant_4 : !llvm.ptr<array<11 x i8>>
    %13 = llvm.mlir.constant(0 : i64) : i64
    %14 = llvm.getelementptr %12[%13, %13] : (!llvm.ptr<array<11 x i8>>, i64, i64) -> !llvm.ptr<i8>
    call @read_tensor_f32(%14, %cast_155) : (!llvm.ptr<i8>, memref<*xf32>) -> ()
    %alloc_156 = memref.alloc() {alignment = 16 : i64} : memref<1024x1024xf32>
    %cast_157 = memref.cast %alloc_156 : memref<1024x1024xf32> to memref<*xf32>
    %15 = llvm.mlir.addressof @constant_5 : !llvm.ptr<array<11 x i8>>
    %16 = llvm.mlir.constant(0 : i64) : i64
    %17 = llvm.getelementptr %15[%16, %16] : (!llvm.ptr<array<11 x i8>>, i64, i64) -> !llvm.ptr<i8>
    call @read_tensor_f32(%17, %cast_157) : (!llvm.ptr<i8>, memref<*xf32>) -> ()
    %alloc_158 = memref.alloc() {alignment = 16 : i64} : memref<1024xf32>
    %cast_159 = memref.cast %alloc_158 : memref<1024xf32> to memref<*xf32>
    %18 = llvm.mlir.addressof @constant_6 : !llvm.ptr<array<11 x i8>>
    %19 = llvm.mlir.constant(0 : i64) : i64
    %20 = llvm.getelementptr %18[%19, %19] : (!llvm.ptr<array<11 x i8>>, i64, i64) -> !llvm.ptr<i8>
    call @read_tensor_f32(%20, %cast_159) : (!llvm.ptr<i8>, memref<*xf32>) -> ()
    %alloc_160 = memref.alloc() {alignment = 16 : i64} : memref<1024xf32>
    %cast_161 = memref.cast %alloc_160 : memref<1024xf32> to memref<*xf32>
    %21 = llvm.mlir.addressof @constant_7 : !llvm.ptr<array<11 x i8>>
    %22 = llvm.mlir.constant(0 : i64) : i64
    %23 = llvm.getelementptr %21[%22, %22] : (!llvm.ptr<array<11 x i8>>, i64, i64) -> !llvm.ptr<i8>
    call @read_tensor_f32(%23, %cast_161) : (!llvm.ptr<i8>, memref<*xf32>) -> ()
    %alloc_162 = memref.alloc() {alignment = 16 : i64} : memref<1024xf32>
    %cast_163 = memref.cast %alloc_162 : memref<1024xf32> to memref<*xf32>
    %24 = llvm.mlir.addressof @constant_8 : !llvm.ptr<array<11 x i8>>
    %25 = llvm.mlir.constant(0 : i64) : i64
    %26 = llvm.getelementptr %24[%25, %25] : (!llvm.ptr<array<11 x i8>>, i64, i64) -> !llvm.ptr<i8>
    call @read_tensor_f32(%26, %cast_163) : (!llvm.ptr<i8>, memref<*xf32>) -> ()
    %alloc_164 = memref.alloc() {alignment = 16 : i64} : memref<1024x4096xf32>
    %cast_165 = memref.cast %alloc_164 : memref<1024x4096xf32> to memref<*xf32>
    %27 = llvm.mlir.addressof @constant_9 : !llvm.ptr<array<11 x i8>>
    %28 = llvm.mlir.constant(0 : i64) : i64
    %29 = llvm.getelementptr %27[%28, %28] : (!llvm.ptr<array<11 x i8>>, i64, i64) -> !llvm.ptr<i8>
    call @read_tensor_f32(%29, %cast_165) : (!llvm.ptr<i8>, memref<*xf32>) -> ()
    %alloc_166 = memref.alloc() {alignment = 16 : i64} : memref<4096xf32>
    %cast_167 = memref.cast %alloc_166 : memref<4096xf32> to memref<*xf32>
    %30 = llvm.mlir.addressof @constant_10 : !llvm.ptr<array<12 x i8>>
    %31 = llvm.mlir.constant(0 : i64) : i64
    %32 = llvm.getelementptr %30[%31, %31] : (!llvm.ptr<array<12 x i8>>, i64, i64) -> !llvm.ptr<i8>
    call @read_tensor_f32(%32, %cast_167) : (!llvm.ptr<i8>, memref<*xf32>) -> ()
    %alloc_168 = memref.alloc() {alignment = 16 : i64} : memref<4096x1024xf32>
    %cast_169 = memref.cast %alloc_168 : memref<4096x1024xf32> to memref<*xf32>
    %33 = llvm.mlir.addressof @constant_11 : !llvm.ptr<array<12 x i8>>
    %34 = llvm.mlir.constant(0 : i64) : i64
    %35 = llvm.getelementptr %33[%34, %34] : (!llvm.ptr<array<12 x i8>>, i64, i64) -> !llvm.ptr<i8>
    call @read_tensor_f32(%35, %cast_169) : (!llvm.ptr<i8>, memref<*xf32>) -> ()
    %alloc_170 = memref.alloc() {alignment = 16 : i64} : memref<1024xf32>
    %cast_171 = memref.cast %alloc_170 : memref<1024xf32> to memref<*xf32>
    %36 = llvm.mlir.addressof @constant_12 : !llvm.ptr<array<12 x i8>>
    %37 = llvm.mlir.constant(0 : i64) : i64
    %38 = llvm.getelementptr %36[%37, %37] : (!llvm.ptr<array<12 x i8>>, i64, i64) -> !llvm.ptr<i8>
    call @read_tensor_f32(%38, %cast_171) : (!llvm.ptr<i8>, memref<*xf32>) -> ()
    %alloc_172 = memref.alloc() {alignment = 16 : i64} : memref<1024xf32>
    %cast_173 = memref.cast %alloc_172 : memref<1024xf32> to memref<*xf32>
    %39 = llvm.mlir.addressof @constant_13 : !llvm.ptr<array<12 x i8>>
    %40 = llvm.mlir.constant(0 : i64) : i64
    %41 = llvm.getelementptr %39[%40, %40] : (!llvm.ptr<array<12 x i8>>, i64, i64) -> !llvm.ptr<i8>
    call @read_tensor_f32(%41, %cast_173) : (!llvm.ptr<i8>, memref<*xf32>) -> ()
    %alloc_174 = memref.alloc() {alignment = 16 : i64} : memref<1024xf32>
    %cast_175 = memref.cast %alloc_174 : memref<1024xf32> to memref<*xf32>
    %42 = llvm.mlir.addressof @constant_14 : !llvm.ptr<array<12 x i8>>
    %43 = llvm.mlir.constant(0 : i64) : i64
    %44 = llvm.getelementptr %42[%43, %43] : (!llvm.ptr<array<12 x i8>>, i64, i64) -> !llvm.ptr<i8>
    call @read_tensor_f32(%44, %cast_175) : (!llvm.ptr<i8>, memref<*xf32>) -> ()
    %alloc_176 = memref.alloc() {alignment = 16 : i64} : memref<1024x3072xf32>
    %cast_177 = memref.cast %alloc_176 : memref<1024x3072xf32> to memref<*xf32>
    %45 = llvm.mlir.addressof @constant_15 : !llvm.ptr<array<12 x i8>>
    %46 = llvm.mlir.constant(0 : i64) : i64
    %47 = llvm.getelementptr %45[%46, %46] : (!llvm.ptr<array<12 x i8>>, i64, i64) -> !llvm.ptr<i8>
    call @read_tensor_f32(%47, %cast_177) : (!llvm.ptr<i8>, memref<*xf32>) -> ()
    %alloc_178 = memref.alloc() {alignment = 16 : i64} : memref<3072xf32>
    %cast_179 = memref.cast %alloc_178 : memref<3072xf32> to memref<*xf32>
    %48 = llvm.mlir.addressof @constant_16 : !llvm.ptr<array<12 x i8>>
    %49 = llvm.mlir.constant(0 : i64) : i64
    %50 = llvm.getelementptr %48[%49, %49] : (!llvm.ptr<array<12 x i8>>, i64, i64) -> !llvm.ptr<i8>
    call @read_tensor_f32(%50, %cast_179) : (!llvm.ptr<i8>, memref<*xf32>) -> ()
    %alloc_180 = memref.alloc() {alignment = 16 : i64} : memref<1024x1024xf32>
    %cast_181 = memref.cast %alloc_180 : memref<1024x1024xf32> to memref<*xf32>
    %51 = llvm.mlir.addressof @constant_17 : !llvm.ptr<array<12 x i8>>
    %52 = llvm.mlir.constant(0 : i64) : i64
    %53 = llvm.getelementptr %51[%52, %52] : (!llvm.ptr<array<12 x i8>>, i64, i64) -> !llvm.ptr<i8>
    call @read_tensor_f32(%53, %cast_181) : (!llvm.ptr<i8>, memref<*xf32>) -> ()
    %alloc_182 = memref.alloc() {alignment = 16 : i64} : memref<1024xf32>
    %cast_183 = memref.cast %alloc_182 : memref<1024xf32> to memref<*xf32>
    %54 = llvm.mlir.addressof @constant_18 : !llvm.ptr<array<12 x i8>>
    %55 = llvm.mlir.constant(0 : i64) : i64
    %56 = llvm.getelementptr %54[%55, %55] : (!llvm.ptr<array<12 x i8>>, i64, i64) -> !llvm.ptr<i8>
    call @read_tensor_f32(%56, %cast_183) : (!llvm.ptr<i8>, memref<*xf32>) -> ()
    %alloc_184 = memref.alloc() {alignment = 16 : i64} : memref<1024xf32>
    %cast_185 = memref.cast %alloc_184 : memref<1024xf32> to memref<*xf32>
    %57 = llvm.mlir.addressof @constant_19 : !llvm.ptr<array<12 x i8>>
    %58 = llvm.mlir.constant(0 : i64) : i64
    %59 = llvm.getelementptr %57[%58, %58] : (!llvm.ptr<array<12 x i8>>, i64, i64) -> !llvm.ptr<i8>
    call @read_tensor_f32(%59, %cast_185) : (!llvm.ptr<i8>, memref<*xf32>) -> ()
    %alloc_186 = memref.alloc() {alignment = 16 : i64} : memref<1024xf32>
    %cast_187 = memref.cast %alloc_186 : memref<1024xf32> to memref<*xf32>
    %60 = llvm.mlir.addressof @constant_20 : !llvm.ptr<array<12 x i8>>
    %61 = llvm.mlir.constant(0 : i64) : i64
    %62 = llvm.getelementptr %60[%61, %61] : (!llvm.ptr<array<12 x i8>>, i64, i64) -> !llvm.ptr<i8>
    call @read_tensor_f32(%62, %cast_187) : (!llvm.ptr<i8>, memref<*xf32>) -> ()
    %alloc_188 = memref.alloc() {alignment = 16 : i64} : memref<1024x4096xf32>
    %cast_189 = memref.cast %alloc_188 : memref<1024x4096xf32> to memref<*xf32>
    %63 = llvm.mlir.addressof @constant_21 : !llvm.ptr<array<12 x i8>>
    %64 = llvm.mlir.constant(0 : i64) : i64
    %65 = llvm.getelementptr %63[%64, %64] : (!llvm.ptr<array<12 x i8>>, i64, i64) -> !llvm.ptr<i8>
    call @read_tensor_f32(%65, %cast_189) : (!llvm.ptr<i8>, memref<*xf32>) -> ()
    %alloc_190 = memref.alloc() {alignment = 16 : i64} : memref<4096xf32>
    %cast_191 = memref.cast %alloc_190 : memref<4096xf32> to memref<*xf32>
    %66 = llvm.mlir.addressof @constant_22 : !llvm.ptr<array<12 x i8>>
    %67 = llvm.mlir.constant(0 : i64) : i64
    %68 = llvm.getelementptr %66[%67, %67] : (!llvm.ptr<array<12 x i8>>, i64, i64) -> !llvm.ptr<i8>
    call @read_tensor_f32(%68, %cast_191) : (!llvm.ptr<i8>, memref<*xf32>) -> ()
    %alloc_192 = memref.alloc() {alignment = 16 : i64} : memref<4096x1024xf32>
    %cast_193 = memref.cast %alloc_192 : memref<4096x1024xf32> to memref<*xf32>
    %69 = llvm.mlir.addressof @constant_23 : !llvm.ptr<array<12 x i8>>
    %70 = llvm.mlir.constant(0 : i64) : i64
    %71 = llvm.getelementptr %69[%70, %70] : (!llvm.ptr<array<12 x i8>>, i64, i64) -> !llvm.ptr<i8>
    call @read_tensor_f32(%71, %cast_193) : (!llvm.ptr<i8>, memref<*xf32>) -> ()
    %alloc_194 = memref.alloc() {alignment = 16 : i64} : memref<1024xf32>
    %cast_195 = memref.cast %alloc_194 : memref<1024xf32> to memref<*xf32>
    %72 = llvm.mlir.addressof @constant_24 : !llvm.ptr<array<12 x i8>>
    %73 = llvm.mlir.constant(0 : i64) : i64
    %74 = llvm.getelementptr %72[%73, %73] : (!llvm.ptr<array<12 x i8>>, i64, i64) -> !llvm.ptr<i8>
    call @read_tensor_f32(%74, %cast_195) : (!llvm.ptr<i8>, memref<*xf32>) -> ()
    %alloc_196 = memref.alloc() {alignment = 16 : i64} : memref<1024xf32>
    %cast_197 = memref.cast %alloc_196 : memref<1024xf32> to memref<*xf32>
    %75 = llvm.mlir.addressof @constant_25 : !llvm.ptr<array<12 x i8>>
    %76 = llvm.mlir.constant(0 : i64) : i64
    %77 = llvm.getelementptr %75[%76, %76] : (!llvm.ptr<array<12 x i8>>, i64, i64) -> !llvm.ptr<i8>
    call @read_tensor_f32(%77, %cast_197) : (!llvm.ptr<i8>, memref<*xf32>) -> ()
    %alloc_198 = memref.alloc() {alignment = 16 : i64} : memref<1024xf32>
    %cast_199 = memref.cast %alloc_198 : memref<1024xf32> to memref<*xf32>
    %78 = llvm.mlir.addressof @constant_26 : !llvm.ptr<array<12 x i8>>
    %79 = llvm.mlir.constant(0 : i64) : i64
    %80 = llvm.getelementptr %78[%79, %79] : (!llvm.ptr<array<12 x i8>>, i64, i64) -> !llvm.ptr<i8>
    call @read_tensor_f32(%80, %cast_199) : (!llvm.ptr<i8>, memref<*xf32>) -> ()
    %alloc_200 = memref.alloc() {alignment = 16 : i64} : memref<1024x3072xf32>
    %cast_201 = memref.cast %alloc_200 : memref<1024x3072xf32> to memref<*xf32>
    %81 = llvm.mlir.addressof @constant_27 : !llvm.ptr<array<12 x i8>>
    %82 = llvm.mlir.constant(0 : i64) : i64
    %83 = llvm.getelementptr %81[%82, %82] : (!llvm.ptr<array<12 x i8>>, i64, i64) -> !llvm.ptr<i8>
    call @read_tensor_f32(%83, %cast_201) : (!llvm.ptr<i8>, memref<*xf32>) -> ()
    %alloc_202 = memref.alloc() {alignment = 16 : i64} : memref<3072xf32>
    %cast_203 = memref.cast %alloc_202 : memref<3072xf32> to memref<*xf32>
    %84 = llvm.mlir.addressof @constant_28 : !llvm.ptr<array<12 x i8>>
    %85 = llvm.mlir.constant(0 : i64) : i64
    %86 = llvm.getelementptr %84[%85, %85] : (!llvm.ptr<array<12 x i8>>, i64, i64) -> !llvm.ptr<i8>
    call @read_tensor_f32(%86, %cast_203) : (!llvm.ptr<i8>, memref<*xf32>) -> ()
    %alloc_204 = memref.alloc() {alignment = 16 : i64} : memref<1024x1024xf32>
    %cast_205 = memref.cast %alloc_204 : memref<1024x1024xf32> to memref<*xf32>
    %87 = llvm.mlir.addressof @constant_29 : !llvm.ptr<array<12 x i8>>
    %88 = llvm.mlir.constant(0 : i64) : i64
    %89 = llvm.getelementptr %87[%88, %88] : (!llvm.ptr<array<12 x i8>>, i64, i64) -> !llvm.ptr<i8>
    call @read_tensor_f32(%89, %cast_205) : (!llvm.ptr<i8>, memref<*xf32>) -> ()
    %alloc_206 = memref.alloc() {alignment = 16 : i64} : memref<1024xf32>
    %cast_207 = memref.cast %alloc_206 : memref<1024xf32> to memref<*xf32>
    %90 = llvm.mlir.addressof @constant_30 : !llvm.ptr<array<12 x i8>>
    %91 = llvm.mlir.constant(0 : i64) : i64
    %92 = llvm.getelementptr %90[%91, %91] : (!llvm.ptr<array<12 x i8>>, i64, i64) -> !llvm.ptr<i8>
    call @read_tensor_f32(%92, %cast_207) : (!llvm.ptr<i8>, memref<*xf32>) -> ()
    %alloc_208 = memref.alloc() {alignment = 16 : i64} : memref<1024xf32>
    %cast_209 = memref.cast %alloc_208 : memref<1024xf32> to memref<*xf32>
    %93 = llvm.mlir.addressof @constant_31 : !llvm.ptr<array<12 x i8>>
    %94 = llvm.mlir.constant(0 : i64) : i64
    %95 = llvm.getelementptr %93[%94, %94] : (!llvm.ptr<array<12 x i8>>, i64, i64) -> !llvm.ptr<i8>
    call @read_tensor_f32(%95, %cast_209) : (!llvm.ptr<i8>, memref<*xf32>) -> ()
    %alloc_210 = memref.alloc() {alignment = 16 : i64} : memref<1024xf32>
    %cast_211 = memref.cast %alloc_210 : memref<1024xf32> to memref<*xf32>
    %96 = llvm.mlir.addressof @constant_32 : !llvm.ptr<array<12 x i8>>
    %97 = llvm.mlir.constant(0 : i64) : i64
    %98 = llvm.getelementptr %96[%97, %97] : (!llvm.ptr<array<12 x i8>>, i64, i64) -> !llvm.ptr<i8>
    call @read_tensor_f32(%98, %cast_211) : (!llvm.ptr<i8>, memref<*xf32>) -> ()
    %alloc_212 = memref.alloc() {alignment = 16 : i64} : memref<1024x4096xf32>
    %cast_213 = memref.cast %alloc_212 : memref<1024x4096xf32> to memref<*xf32>
    %99 = llvm.mlir.addressof @constant_33 : !llvm.ptr<array<12 x i8>>
    %100 = llvm.mlir.constant(0 : i64) : i64
    %101 = llvm.getelementptr %99[%100, %100] : (!llvm.ptr<array<12 x i8>>, i64, i64) -> !llvm.ptr<i8>
    call @read_tensor_f32(%101, %cast_213) : (!llvm.ptr<i8>, memref<*xf32>) -> ()
    %alloc_214 = memref.alloc() {alignment = 16 : i64} : memref<4096xf32>
    %cast_215 = memref.cast %alloc_214 : memref<4096xf32> to memref<*xf32>
    %102 = llvm.mlir.addressof @constant_34 : !llvm.ptr<array<12 x i8>>
    %103 = llvm.mlir.constant(0 : i64) : i64
    %104 = llvm.getelementptr %102[%103, %103] : (!llvm.ptr<array<12 x i8>>, i64, i64) -> !llvm.ptr<i8>
    call @read_tensor_f32(%104, %cast_215) : (!llvm.ptr<i8>, memref<*xf32>) -> ()
    %alloc_216 = memref.alloc() {alignment = 16 : i64} : memref<4096x1024xf32>
    %cast_217 = memref.cast %alloc_216 : memref<4096x1024xf32> to memref<*xf32>
    %105 = llvm.mlir.addressof @constant_35 : !llvm.ptr<array<12 x i8>>
    %106 = llvm.mlir.constant(0 : i64) : i64
    %107 = llvm.getelementptr %105[%106, %106] : (!llvm.ptr<array<12 x i8>>, i64, i64) -> !llvm.ptr<i8>
    call @read_tensor_f32(%107, %cast_217) : (!llvm.ptr<i8>, memref<*xf32>) -> ()
    %alloc_218 = memref.alloc() {alignment = 16 : i64} : memref<1024xf32>
    %cast_219 = memref.cast %alloc_218 : memref<1024xf32> to memref<*xf32>
    %108 = llvm.mlir.addressof @constant_36 : !llvm.ptr<array<12 x i8>>
    %109 = llvm.mlir.constant(0 : i64) : i64
    %110 = llvm.getelementptr %108[%109, %109] : (!llvm.ptr<array<12 x i8>>, i64, i64) -> !llvm.ptr<i8>
    call @read_tensor_f32(%110, %cast_219) : (!llvm.ptr<i8>, memref<*xf32>) -> ()
    %alloc_220 = memref.alloc() {alignment = 16 : i64} : memref<1024xf32>
    %cast_221 = memref.cast %alloc_220 : memref<1024xf32> to memref<*xf32>
    %111 = llvm.mlir.addressof @constant_37 : !llvm.ptr<array<12 x i8>>
    %112 = llvm.mlir.constant(0 : i64) : i64
    %113 = llvm.getelementptr %111[%112, %112] : (!llvm.ptr<array<12 x i8>>, i64, i64) -> !llvm.ptr<i8>
    call @read_tensor_f32(%113, %cast_221) : (!llvm.ptr<i8>, memref<*xf32>) -> ()
    %alloc_222 = memref.alloc() {alignment = 16 : i64} : memref<1024xf32>
    %cast_223 = memref.cast %alloc_222 : memref<1024xf32> to memref<*xf32>
    %114 = llvm.mlir.addressof @constant_38 : !llvm.ptr<array<12 x i8>>
    %115 = llvm.mlir.constant(0 : i64) : i64
    %116 = llvm.getelementptr %114[%115, %115] : (!llvm.ptr<array<12 x i8>>, i64, i64) -> !llvm.ptr<i8>
    call @read_tensor_f32(%116, %cast_223) : (!llvm.ptr<i8>, memref<*xf32>) -> ()
    %alloc_224 = memref.alloc() {alignment = 16 : i64} : memref<1024x3072xf32>
    %cast_225 = memref.cast %alloc_224 : memref<1024x3072xf32> to memref<*xf32>
    %117 = llvm.mlir.addressof @constant_39 : !llvm.ptr<array<12 x i8>>
    %118 = llvm.mlir.constant(0 : i64) : i64
    %119 = llvm.getelementptr %117[%118, %118] : (!llvm.ptr<array<12 x i8>>, i64, i64) -> !llvm.ptr<i8>
    call @read_tensor_f32(%119, %cast_225) : (!llvm.ptr<i8>, memref<*xf32>) -> ()
    %alloc_226 = memref.alloc() {alignment = 16 : i64} : memref<3072xf32>
    %cast_227 = memref.cast %alloc_226 : memref<3072xf32> to memref<*xf32>
    %120 = llvm.mlir.addressof @constant_40 : !llvm.ptr<array<12 x i8>>
    %121 = llvm.mlir.constant(0 : i64) : i64
    %122 = llvm.getelementptr %120[%121, %121] : (!llvm.ptr<array<12 x i8>>, i64, i64) -> !llvm.ptr<i8>
    call @read_tensor_f32(%122, %cast_227) : (!llvm.ptr<i8>, memref<*xf32>) -> ()
    %alloc_228 = memref.alloc() {alignment = 16 : i64} : memref<1024x1024xf32>
    %cast_229 = memref.cast %alloc_228 : memref<1024x1024xf32> to memref<*xf32>
    %123 = llvm.mlir.addressof @constant_41 : !llvm.ptr<array<12 x i8>>
    %124 = llvm.mlir.constant(0 : i64) : i64
    %125 = llvm.getelementptr %123[%124, %124] : (!llvm.ptr<array<12 x i8>>, i64, i64) -> !llvm.ptr<i8>
    call @read_tensor_f32(%125, %cast_229) : (!llvm.ptr<i8>, memref<*xf32>) -> ()
    %alloc_230 = memref.alloc() {alignment = 16 : i64} : memref<1024xf32>
    %cast_231 = memref.cast %alloc_230 : memref<1024xf32> to memref<*xf32>
    %126 = llvm.mlir.addressof @constant_42 : !llvm.ptr<array<12 x i8>>
    %127 = llvm.mlir.constant(0 : i64) : i64
    %128 = llvm.getelementptr %126[%127, %127] : (!llvm.ptr<array<12 x i8>>, i64, i64) -> !llvm.ptr<i8>
    call @read_tensor_f32(%128, %cast_231) : (!llvm.ptr<i8>, memref<*xf32>) -> ()
    %alloc_232 = memref.alloc() {alignment = 16 : i64} : memref<1024xf32>
    %cast_233 = memref.cast %alloc_232 : memref<1024xf32> to memref<*xf32>
    %129 = llvm.mlir.addressof @constant_43 : !llvm.ptr<array<12 x i8>>
    %130 = llvm.mlir.constant(0 : i64) : i64
    %131 = llvm.getelementptr %129[%130, %130] : (!llvm.ptr<array<12 x i8>>, i64, i64) -> !llvm.ptr<i8>
    call @read_tensor_f32(%131, %cast_233) : (!llvm.ptr<i8>, memref<*xf32>) -> ()
    %alloc_234 = memref.alloc() {alignment = 16 : i64} : memref<1024xf32>
    %cast_235 = memref.cast %alloc_234 : memref<1024xf32> to memref<*xf32>
    %132 = llvm.mlir.addressof @constant_44 : !llvm.ptr<array<12 x i8>>
    %133 = llvm.mlir.constant(0 : i64) : i64
    %134 = llvm.getelementptr %132[%133, %133] : (!llvm.ptr<array<12 x i8>>, i64, i64) -> !llvm.ptr<i8>
    call @read_tensor_f32(%134, %cast_235) : (!llvm.ptr<i8>, memref<*xf32>) -> ()
    %alloc_236 = memref.alloc() {alignment = 16 : i64} : memref<1024x4096xf32>
    %cast_237 = memref.cast %alloc_236 : memref<1024x4096xf32> to memref<*xf32>
    %135 = llvm.mlir.addressof @constant_45 : !llvm.ptr<array<12 x i8>>
    %136 = llvm.mlir.constant(0 : i64) : i64
    %137 = llvm.getelementptr %135[%136, %136] : (!llvm.ptr<array<12 x i8>>, i64, i64) -> !llvm.ptr<i8>
    call @read_tensor_f32(%137, %cast_237) : (!llvm.ptr<i8>, memref<*xf32>) -> ()
    %alloc_238 = memref.alloc() {alignment = 16 : i64} : memref<4096xf32>
    %cast_239 = memref.cast %alloc_238 : memref<4096xf32> to memref<*xf32>
    %138 = llvm.mlir.addressof @constant_46 : !llvm.ptr<array<12 x i8>>
    %139 = llvm.mlir.constant(0 : i64) : i64
    %140 = llvm.getelementptr %138[%139, %139] : (!llvm.ptr<array<12 x i8>>, i64, i64) -> !llvm.ptr<i8>
    call @read_tensor_f32(%140, %cast_239) : (!llvm.ptr<i8>, memref<*xf32>) -> ()
    %alloc_240 = memref.alloc() {alignment = 16 : i64} : memref<4096x1024xf32>
    %cast_241 = memref.cast %alloc_240 : memref<4096x1024xf32> to memref<*xf32>
    %141 = llvm.mlir.addressof @constant_47 : !llvm.ptr<array<12 x i8>>
    %142 = llvm.mlir.constant(0 : i64) : i64
    %143 = llvm.getelementptr %141[%142, %142] : (!llvm.ptr<array<12 x i8>>, i64, i64) -> !llvm.ptr<i8>
    call @read_tensor_f32(%143, %cast_241) : (!llvm.ptr<i8>, memref<*xf32>) -> ()
    %alloc_242 = memref.alloc() {alignment = 16 : i64} : memref<1024xf32>
    %cast_243 = memref.cast %alloc_242 : memref<1024xf32> to memref<*xf32>
    %144 = llvm.mlir.addressof @constant_48 : !llvm.ptr<array<12 x i8>>
    %145 = llvm.mlir.constant(0 : i64) : i64
    %146 = llvm.getelementptr %144[%145, %145] : (!llvm.ptr<array<12 x i8>>, i64, i64) -> !llvm.ptr<i8>
    call @read_tensor_f32(%146, %cast_243) : (!llvm.ptr<i8>, memref<*xf32>) -> ()
    %alloc_244 = memref.alloc() {alignment = 16 : i64} : memref<1024xf32>
    %cast_245 = memref.cast %alloc_244 : memref<1024xf32> to memref<*xf32>
    %147 = llvm.mlir.addressof @constant_49 : !llvm.ptr<array<12 x i8>>
    %148 = llvm.mlir.constant(0 : i64) : i64
    %149 = llvm.getelementptr %147[%148, %148] : (!llvm.ptr<array<12 x i8>>, i64, i64) -> !llvm.ptr<i8>
    call @read_tensor_f32(%149, %cast_245) : (!llvm.ptr<i8>, memref<*xf32>) -> ()
    %alloc_246 = memref.alloc() {alignment = 16 : i64} : memref<1024xf32>
    %cast_247 = memref.cast %alloc_246 : memref<1024xf32> to memref<*xf32>
    %150 = llvm.mlir.addressof @constant_50 : !llvm.ptr<array<12 x i8>>
    %151 = llvm.mlir.constant(0 : i64) : i64
    %152 = llvm.getelementptr %150[%151, %151] : (!llvm.ptr<array<12 x i8>>, i64, i64) -> !llvm.ptr<i8>
    call @read_tensor_f32(%152, %cast_247) : (!llvm.ptr<i8>, memref<*xf32>) -> ()
    %alloc_248 = memref.alloc() {alignment = 16 : i64} : memref<1024x3072xf32>
    %cast_249 = memref.cast %alloc_248 : memref<1024x3072xf32> to memref<*xf32>
    %153 = llvm.mlir.addressof @constant_51 : !llvm.ptr<array<12 x i8>>
    %154 = llvm.mlir.constant(0 : i64) : i64
    %155 = llvm.getelementptr %153[%154, %154] : (!llvm.ptr<array<12 x i8>>, i64, i64) -> !llvm.ptr<i8>
    call @read_tensor_f32(%155, %cast_249) : (!llvm.ptr<i8>, memref<*xf32>) -> ()
    %alloc_250 = memref.alloc() {alignment = 16 : i64} : memref<3072xf32>
    %cast_251 = memref.cast %alloc_250 : memref<3072xf32> to memref<*xf32>
    %156 = llvm.mlir.addressof @constant_52 : !llvm.ptr<array<12 x i8>>
    %157 = llvm.mlir.constant(0 : i64) : i64
    %158 = llvm.getelementptr %156[%157, %157] : (!llvm.ptr<array<12 x i8>>, i64, i64) -> !llvm.ptr<i8>
    call @read_tensor_f32(%158, %cast_251) : (!llvm.ptr<i8>, memref<*xf32>) -> ()
    %alloc_252 = memref.alloc() {alignment = 16 : i64} : memref<1024x1024xf32>
    %cast_253 = memref.cast %alloc_252 : memref<1024x1024xf32> to memref<*xf32>
    %159 = llvm.mlir.addressof @constant_53 : !llvm.ptr<array<12 x i8>>
    %160 = llvm.mlir.constant(0 : i64) : i64
    %161 = llvm.getelementptr %159[%160, %160] : (!llvm.ptr<array<12 x i8>>, i64, i64) -> !llvm.ptr<i8>
    call @read_tensor_f32(%161, %cast_253) : (!llvm.ptr<i8>, memref<*xf32>) -> ()
    %alloc_254 = memref.alloc() {alignment = 16 : i64} : memref<1024xf32>
    %cast_255 = memref.cast %alloc_254 : memref<1024xf32> to memref<*xf32>
    %162 = llvm.mlir.addressof @constant_54 : !llvm.ptr<array<12 x i8>>
    %163 = llvm.mlir.constant(0 : i64) : i64
    %164 = llvm.getelementptr %162[%163, %163] : (!llvm.ptr<array<12 x i8>>, i64, i64) -> !llvm.ptr<i8>
    call @read_tensor_f32(%164, %cast_255) : (!llvm.ptr<i8>, memref<*xf32>) -> ()
    %alloc_256 = memref.alloc() {alignment = 16 : i64} : memref<1024xf32>
    %cast_257 = memref.cast %alloc_256 : memref<1024xf32> to memref<*xf32>
    %165 = llvm.mlir.addressof @constant_55 : !llvm.ptr<array<12 x i8>>
    %166 = llvm.mlir.constant(0 : i64) : i64
    %167 = llvm.getelementptr %165[%166, %166] : (!llvm.ptr<array<12 x i8>>, i64, i64) -> !llvm.ptr<i8>
    call @read_tensor_f32(%167, %cast_257) : (!llvm.ptr<i8>, memref<*xf32>) -> ()
    %alloc_258 = memref.alloc() {alignment = 16 : i64} : memref<1024xf32>
    %cast_259 = memref.cast %alloc_258 : memref<1024xf32> to memref<*xf32>
    %168 = llvm.mlir.addressof @constant_56 : !llvm.ptr<array<12 x i8>>
    %169 = llvm.mlir.constant(0 : i64) : i64
    %170 = llvm.getelementptr %168[%169, %169] : (!llvm.ptr<array<12 x i8>>, i64, i64) -> !llvm.ptr<i8>
    call @read_tensor_f32(%170, %cast_259) : (!llvm.ptr<i8>, memref<*xf32>) -> ()
    %alloc_260 = memref.alloc() {alignment = 16 : i64} : memref<1024x4096xf32>
    %cast_261 = memref.cast %alloc_260 : memref<1024x4096xf32> to memref<*xf32>
    %171 = llvm.mlir.addressof @constant_57 : !llvm.ptr<array<12 x i8>>
    %172 = llvm.mlir.constant(0 : i64) : i64
    %173 = llvm.getelementptr %171[%172, %172] : (!llvm.ptr<array<12 x i8>>, i64, i64) -> !llvm.ptr<i8>
    call @read_tensor_f32(%173, %cast_261) : (!llvm.ptr<i8>, memref<*xf32>) -> ()
    %alloc_262 = memref.alloc() {alignment = 16 : i64} : memref<4096xf32>
    %cast_263 = memref.cast %alloc_262 : memref<4096xf32> to memref<*xf32>
    %174 = llvm.mlir.addressof @constant_58 : !llvm.ptr<array<12 x i8>>
    %175 = llvm.mlir.constant(0 : i64) : i64
    %176 = llvm.getelementptr %174[%175, %175] : (!llvm.ptr<array<12 x i8>>, i64, i64) -> !llvm.ptr<i8>
    call @read_tensor_f32(%176, %cast_263) : (!llvm.ptr<i8>, memref<*xf32>) -> ()
    %alloc_264 = memref.alloc() {alignment = 16 : i64} : memref<4096x1024xf32>
    %cast_265 = memref.cast %alloc_264 : memref<4096x1024xf32> to memref<*xf32>
    %177 = llvm.mlir.addressof @constant_59 : !llvm.ptr<array<12 x i8>>
    %178 = llvm.mlir.constant(0 : i64) : i64
    %179 = llvm.getelementptr %177[%178, %178] : (!llvm.ptr<array<12 x i8>>, i64, i64) -> !llvm.ptr<i8>
    call @read_tensor_f32(%179, %cast_265) : (!llvm.ptr<i8>, memref<*xf32>) -> ()
    %alloc_266 = memref.alloc() {alignment = 16 : i64} : memref<1024xf32>
    %cast_267 = memref.cast %alloc_266 : memref<1024xf32> to memref<*xf32>
    %180 = llvm.mlir.addressof @constant_60 : !llvm.ptr<array<12 x i8>>
    %181 = llvm.mlir.constant(0 : i64) : i64
    %182 = llvm.getelementptr %180[%181, %181] : (!llvm.ptr<array<12 x i8>>, i64, i64) -> !llvm.ptr<i8>
    call @read_tensor_f32(%182, %cast_267) : (!llvm.ptr<i8>, memref<*xf32>) -> ()
    %alloc_268 = memref.alloc() {alignment = 16 : i64} : memref<1024xf32>
    %cast_269 = memref.cast %alloc_268 : memref<1024xf32> to memref<*xf32>
    %183 = llvm.mlir.addressof @constant_61 : !llvm.ptr<array<12 x i8>>
    %184 = llvm.mlir.constant(0 : i64) : i64
    %185 = llvm.getelementptr %183[%184, %184] : (!llvm.ptr<array<12 x i8>>, i64, i64) -> !llvm.ptr<i8>
    call @read_tensor_f32(%185, %cast_269) : (!llvm.ptr<i8>, memref<*xf32>) -> ()
    %alloc_270 = memref.alloc() {alignment = 16 : i64} : memref<1024xf32>
    %cast_271 = memref.cast %alloc_270 : memref<1024xf32> to memref<*xf32>
    %186 = llvm.mlir.addressof @constant_62 : !llvm.ptr<array<12 x i8>>
    %187 = llvm.mlir.constant(0 : i64) : i64
    %188 = llvm.getelementptr %186[%187, %187] : (!llvm.ptr<array<12 x i8>>, i64, i64) -> !llvm.ptr<i8>
    call @read_tensor_f32(%188, %cast_271) : (!llvm.ptr<i8>, memref<*xf32>) -> ()
    %alloc_272 = memref.alloc() {alignment = 16 : i64} : memref<1024x3072xf32>
    %cast_273 = memref.cast %alloc_272 : memref<1024x3072xf32> to memref<*xf32>
    %189 = llvm.mlir.addressof @constant_63 : !llvm.ptr<array<12 x i8>>
    %190 = llvm.mlir.constant(0 : i64) : i64
    %191 = llvm.getelementptr %189[%190, %190] : (!llvm.ptr<array<12 x i8>>, i64, i64) -> !llvm.ptr<i8>
    call @read_tensor_f32(%191, %cast_273) : (!llvm.ptr<i8>, memref<*xf32>) -> ()
    %alloc_274 = memref.alloc() {alignment = 16 : i64} : memref<3072xf32>
    %cast_275 = memref.cast %alloc_274 : memref<3072xf32> to memref<*xf32>
    %192 = llvm.mlir.addressof @constant_64 : !llvm.ptr<array<12 x i8>>
    %193 = llvm.mlir.constant(0 : i64) : i64
    %194 = llvm.getelementptr %192[%193, %193] : (!llvm.ptr<array<12 x i8>>, i64, i64) -> !llvm.ptr<i8>
    call @read_tensor_f32(%194, %cast_275) : (!llvm.ptr<i8>, memref<*xf32>) -> ()
    %alloc_276 = memref.alloc() {alignment = 16 : i64} : memref<1024x1024xf32>
    %cast_277 = memref.cast %alloc_276 : memref<1024x1024xf32> to memref<*xf32>
    %195 = llvm.mlir.addressof @constant_65 : !llvm.ptr<array<12 x i8>>
    %196 = llvm.mlir.constant(0 : i64) : i64
    %197 = llvm.getelementptr %195[%196, %196] : (!llvm.ptr<array<12 x i8>>, i64, i64) -> !llvm.ptr<i8>
    call @read_tensor_f32(%197, %cast_277) : (!llvm.ptr<i8>, memref<*xf32>) -> ()
    %alloc_278 = memref.alloc() {alignment = 16 : i64} : memref<1024xf32>
    %cast_279 = memref.cast %alloc_278 : memref<1024xf32> to memref<*xf32>
    %198 = llvm.mlir.addressof @constant_66 : !llvm.ptr<array<12 x i8>>
    %199 = llvm.mlir.constant(0 : i64) : i64
    %200 = llvm.getelementptr %198[%199, %199] : (!llvm.ptr<array<12 x i8>>, i64, i64) -> !llvm.ptr<i8>
    call @read_tensor_f32(%200, %cast_279) : (!llvm.ptr<i8>, memref<*xf32>) -> ()
    %alloc_280 = memref.alloc() {alignment = 16 : i64} : memref<1024xf32>
    %cast_281 = memref.cast %alloc_280 : memref<1024xf32> to memref<*xf32>
    %201 = llvm.mlir.addressof @constant_67 : !llvm.ptr<array<12 x i8>>
    %202 = llvm.mlir.constant(0 : i64) : i64
    %203 = llvm.getelementptr %201[%202, %202] : (!llvm.ptr<array<12 x i8>>, i64, i64) -> !llvm.ptr<i8>
    call @read_tensor_f32(%203, %cast_281) : (!llvm.ptr<i8>, memref<*xf32>) -> ()
    %alloc_282 = memref.alloc() {alignment = 16 : i64} : memref<1024xf32>
    %cast_283 = memref.cast %alloc_282 : memref<1024xf32> to memref<*xf32>
    %204 = llvm.mlir.addressof @constant_68 : !llvm.ptr<array<12 x i8>>
    %205 = llvm.mlir.constant(0 : i64) : i64
    %206 = llvm.getelementptr %204[%205, %205] : (!llvm.ptr<array<12 x i8>>, i64, i64) -> !llvm.ptr<i8>
    call @read_tensor_f32(%206, %cast_283) : (!llvm.ptr<i8>, memref<*xf32>) -> ()
    %alloc_284 = memref.alloc() {alignment = 16 : i64} : memref<1024x4096xf32>
    %cast_285 = memref.cast %alloc_284 : memref<1024x4096xf32> to memref<*xf32>
    %207 = llvm.mlir.addressof @constant_69 : !llvm.ptr<array<12 x i8>>
    %208 = llvm.mlir.constant(0 : i64) : i64
    %209 = llvm.getelementptr %207[%208, %208] : (!llvm.ptr<array<12 x i8>>, i64, i64) -> !llvm.ptr<i8>
    call @read_tensor_f32(%209, %cast_285) : (!llvm.ptr<i8>, memref<*xf32>) -> ()
    %alloc_286 = memref.alloc() {alignment = 16 : i64} : memref<4096xf32>
    %cast_287 = memref.cast %alloc_286 : memref<4096xf32> to memref<*xf32>
    %210 = llvm.mlir.addressof @constant_70 : !llvm.ptr<array<12 x i8>>
    %211 = llvm.mlir.constant(0 : i64) : i64
    %212 = llvm.getelementptr %210[%211, %211] : (!llvm.ptr<array<12 x i8>>, i64, i64) -> !llvm.ptr<i8>
    call @read_tensor_f32(%212, %cast_287) : (!llvm.ptr<i8>, memref<*xf32>) -> ()
    %alloc_288 = memref.alloc() {alignment = 16 : i64} : memref<4096x1024xf32>
    %cast_289 = memref.cast %alloc_288 : memref<4096x1024xf32> to memref<*xf32>
    %213 = llvm.mlir.addressof @constant_71 : !llvm.ptr<array<12 x i8>>
    %214 = llvm.mlir.constant(0 : i64) : i64
    %215 = llvm.getelementptr %213[%214, %214] : (!llvm.ptr<array<12 x i8>>, i64, i64) -> !llvm.ptr<i8>
    call @read_tensor_f32(%215, %cast_289) : (!llvm.ptr<i8>, memref<*xf32>) -> ()
    %alloc_290 = memref.alloc() {alignment = 16 : i64} : memref<1024xf32>
    %cast_291 = memref.cast %alloc_290 : memref<1024xf32> to memref<*xf32>
    %216 = llvm.mlir.addressof @constant_72 : !llvm.ptr<array<12 x i8>>
    %217 = llvm.mlir.constant(0 : i64) : i64
    %218 = llvm.getelementptr %216[%217, %217] : (!llvm.ptr<array<12 x i8>>, i64, i64) -> !llvm.ptr<i8>
    call @read_tensor_f32(%218, %cast_291) : (!llvm.ptr<i8>, memref<*xf32>) -> ()
    %alloc_292 = memref.alloc() {alignment = 16 : i64} : memref<1024xf32>
    %cast_293 = memref.cast %alloc_292 : memref<1024xf32> to memref<*xf32>
    %219 = llvm.mlir.addressof @constant_73 : !llvm.ptr<array<12 x i8>>
    %220 = llvm.mlir.constant(0 : i64) : i64
    %221 = llvm.getelementptr %219[%220, %220] : (!llvm.ptr<array<12 x i8>>, i64, i64) -> !llvm.ptr<i8>
    call @read_tensor_f32(%221, %cast_293) : (!llvm.ptr<i8>, memref<*xf32>) -> ()
    %alloc_294 = memref.alloc() {alignment = 16 : i64} : memref<1024xf32>
    %cast_295 = memref.cast %alloc_294 : memref<1024xf32> to memref<*xf32>
    %222 = llvm.mlir.addressof @constant_74 : !llvm.ptr<array<12 x i8>>
    %223 = llvm.mlir.constant(0 : i64) : i64
    %224 = llvm.getelementptr %222[%223, %223] : (!llvm.ptr<array<12 x i8>>, i64, i64) -> !llvm.ptr<i8>
    call @read_tensor_f32(%224, %cast_295) : (!llvm.ptr<i8>, memref<*xf32>) -> ()
    %alloc_296 = memref.alloc() {alignment = 16 : i64} : memref<1024x3072xf32>
    %cast_297 = memref.cast %alloc_296 : memref<1024x3072xf32> to memref<*xf32>
    %225 = llvm.mlir.addressof @constant_75 : !llvm.ptr<array<12 x i8>>
    %226 = llvm.mlir.constant(0 : i64) : i64
    %227 = llvm.getelementptr %225[%226, %226] : (!llvm.ptr<array<12 x i8>>, i64, i64) -> !llvm.ptr<i8>
    call @read_tensor_f32(%227, %cast_297) : (!llvm.ptr<i8>, memref<*xf32>) -> ()
    %alloc_298 = memref.alloc() {alignment = 16 : i64} : memref<3072xf32>
    %cast_299 = memref.cast %alloc_298 : memref<3072xf32> to memref<*xf32>
    %228 = llvm.mlir.addressof @constant_76 : !llvm.ptr<array<12 x i8>>
    %229 = llvm.mlir.constant(0 : i64) : i64
    %230 = llvm.getelementptr %228[%229, %229] : (!llvm.ptr<array<12 x i8>>, i64, i64) -> !llvm.ptr<i8>
    call @read_tensor_f32(%230, %cast_299) : (!llvm.ptr<i8>, memref<*xf32>) -> ()
    %alloc_300 = memref.alloc() {alignment = 16 : i64} : memref<1024x1024xf32>
    %cast_301 = memref.cast %alloc_300 : memref<1024x1024xf32> to memref<*xf32>
    %231 = llvm.mlir.addressof @constant_77 : !llvm.ptr<array<12 x i8>>
    %232 = llvm.mlir.constant(0 : i64) : i64
    %233 = llvm.getelementptr %231[%232, %232] : (!llvm.ptr<array<12 x i8>>, i64, i64) -> !llvm.ptr<i8>
    call @read_tensor_f32(%233, %cast_301) : (!llvm.ptr<i8>, memref<*xf32>) -> ()
    %alloc_302 = memref.alloc() {alignment = 16 : i64} : memref<1024xf32>
    %cast_303 = memref.cast %alloc_302 : memref<1024xf32> to memref<*xf32>
    %234 = llvm.mlir.addressof @constant_78 : !llvm.ptr<array<12 x i8>>
    %235 = llvm.mlir.constant(0 : i64) : i64
    %236 = llvm.getelementptr %234[%235, %235] : (!llvm.ptr<array<12 x i8>>, i64, i64) -> !llvm.ptr<i8>
    call @read_tensor_f32(%236, %cast_303) : (!llvm.ptr<i8>, memref<*xf32>) -> ()
    %alloc_304 = memref.alloc() {alignment = 16 : i64} : memref<1024xf32>
    %cast_305 = memref.cast %alloc_304 : memref<1024xf32> to memref<*xf32>
    %237 = llvm.mlir.addressof @constant_79 : !llvm.ptr<array<12 x i8>>
    %238 = llvm.mlir.constant(0 : i64) : i64
    %239 = llvm.getelementptr %237[%238, %238] : (!llvm.ptr<array<12 x i8>>, i64, i64) -> !llvm.ptr<i8>
    call @read_tensor_f32(%239, %cast_305) : (!llvm.ptr<i8>, memref<*xf32>) -> ()
    %alloc_306 = memref.alloc() {alignment = 16 : i64} : memref<1024xf32>
    %cast_307 = memref.cast %alloc_306 : memref<1024xf32> to memref<*xf32>
    %240 = llvm.mlir.addressof @constant_80 : !llvm.ptr<array<12 x i8>>
    %241 = llvm.mlir.constant(0 : i64) : i64
    %242 = llvm.getelementptr %240[%241, %241] : (!llvm.ptr<array<12 x i8>>, i64, i64) -> !llvm.ptr<i8>
    call @read_tensor_f32(%242, %cast_307) : (!llvm.ptr<i8>, memref<*xf32>) -> ()
    %alloc_308 = memref.alloc() {alignment = 16 : i64} : memref<1024x4096xf32>
    %cast_309 = memref.cast %alloc_308 : memref<1024x4096xf32> to memref<*xf32>
    %243 = llvm.mlir.addressof @constant_81 : !llvm.ptr<array<12 x i8>>
    %244 = llvm.mlir.constant(0 : i64) : i64
    %245 = llvm.getelementptr %243[%244, %244] : (!llvm.ptr<array<12 x i8>>, i64, i64) -> !llvm.ptr<i8>
    call @read_tensor_f32(%245, %cast_309) : (!llvm.ptr<i8>, memref<*xf32>) -> ()
    %alloc_310 = memref.alloc() {alignment = 16 : i64} : memref<4096xf32>
    %cast_311 = memref.cast %alloc_310 : memref<4096xf32> to memref<*xf32>
    %246 = llvm.mlir.addressof @constant_82 : !llvm.ptr<array<12 x i8>>
    %247 = llvm.mlir.constant(0 : i64) : i64
    %248 = llvm.getelementptr %246[%247, %247] : (!llvm.ptr<array<12 x i8>>, i64, i64) -> !llvm.ptr<i8>
    call @read_tensor_f32(%248, %cast_311) : (!llvm.ptr<i8>, memref<*xf32>) -> ()
    %alloc_312 = memref.alloc() {alignment = 16 : i64} : memref<4096x1024xf32>
    %cast_313 = memref.cast %alloc_312 : memref<4096x1024xf32> to memref<*xf32>
    %249 = llvm.mlir.addressof @constant_83 : !llvm.ptr<array<12 x i8>>
    %250 = llvm.mlir.constant(0 : i64) : i64
    %251 = llvm.getelementptr %249[%250, %250] : (!llvm.ptr<array<12 x i8>>, i64, i64) -> !llvm.ptr<i8>
    call @read_tensor_f32(%251, %cast_313) : (!llvm.ptr<i8>, memref<*xf32>) -> ()
    %alloc_314 = memref.alloc() {alignment = 16 : i64} : memref<1024xf32>
    %cast_315 = memref.cast %alloc_314 : memref<1024xf32> to memref<*xf32>
    %252 = llvm.mlir.addressof @constant_84 : !llvm.ptr<array<12 x i8>>
    %253 = llvm.mlir.constant(0 : i64) : i64
    %254 = llvm.getelementptr %252[%253, %253] : (!llvm.ptr<array<12 x i8>>, i64, i64) -> !llvm.ptr<i8>
    call @read_tensor_f32(%254, %cast_315) : (!llvm.ptr<i8>, memref<*xf32>) -> ()
    %alloc_316 = memref.alloc() {alignment = 16 : i64} : memref<1024xf32>
    %cast_317 = memref.cast %alloc_316 : memref<1024xf32> to memref<*xf32>
    %255 = llvm.mlir.addressof @constant_85 : !llvm.ptr<array<12 x i8>>
    %256 = llvm.mlir.constant(0 : i64) : i64
    %257 = llvm.getelementptr %255[%256, %256] : (!llvm.ptr<array<12 x i8>>, i64, i64) -> !llvm.ptr<i8>
    call @read_tensor_f32(%257, %cast_317) : (!llvm.ptr<i8>, memref<*xf32>) -> ()
    %alloc_318 = memref.alloc() {alignment = 16 : i64} : memref<1024xf32>
    %cast_319 = memref.cast %alloc_318 : memref<1024xf32> to memref<*xf32>
    %258 = llvm.mlir.addressof @constant_86 : !llvm.ptr<array<12 x i8>>
    %259 = llvm.mlir.constant(0 : i64) : i64
    %260 = llvm.getelementptr %258[%259, %259] : (!llvm.ptr<array<12 x i8>>, i64, i64) -> !llvm.ptr<i8>
    call @read_tensor_f32(%260, %cast_319) : (!llvm.ptr<i8>, memref<*xf32>) -> ()
    %alloc_320 = memref.alloc() {alignment = 16 : i64} : memref<1024x3072xf32>
    %cast_321 = memref.cast %alloc_320 : memref<1024x3072xf32> to memref<*xf32>
    %261 = llvm.mlir.addressof @constant_87 : !llvm.ptr<array<12 x i8>>
    %262 = llvm.mlir.constant(0 : i64) : i64
    %263 = llvm.getelementptr %261[%262, %262] : (!llvm.ptr<array<12 x i8>>, i64, i64) -> !llvm.ptr<i8>
    call @read_tensor_f32(%263, %cast_321) : (!llvm.ptr<i8>, memref<*xf32>) -> ()
    %alloc_322 = memref.alloc() {alignment = 16 : i64} : memref<3072xf32>
    %cast_323 = memref.cast %alloc_322 : memref<3072xf32> to memref<*xf32>
    %264 = llvm.mlir.addressof @constant_88 : !llvm.ptr<array<12 x i8>>
    %265 = llvm.mlir.constant(0 : i64) : i64
    %266 = llvm.getelementptr %264[%265, %265] : (!llvm.ptr<array<12 x i8>>, i64, i64) -> !llvm.ptr<i8>
    call @read_tensor_f32(%266, %cast_323) : (!llvm.ptr<i8>, memref<*xf32>) -> ()
    %alloc_324 = memref.alloc() {alignment = 16 : i64} : memref<1024x1024xf32>
    %cast_325 = memref.cast %alloc_324 : memref<1024x1024xf32> to memref<*xf32>
    %267 = llvm.mlir.addressof @constant_89 : !llvm.ptr<array<12 x i8>>
    %268 = llvm.mlir.constant(0 : i64) : i64
    %269 = llvm.getelementptr %267[%268, %268] : (!llvm.ptr<array<12 x i8>>, i64, i64) -> !llvm.ptr<i8>
    call @read_tensor_f32(%269, %cast_325) : (!llvm.ptr<i8>, memref<*xf32>) -> ()
    %alloc_326 = memref.alloc() {alignment = 16 : i64} : memref<1024xf32>
    %cast_327 = memref.cast %alloc_326 : memref<1024xf32> to memref<*xf32>
    %270 = llvm.mlir.addressof @constant_90 : !llvm.ptr<array<12 x i8>>
    %271 = llvm.mlir.constant(0 : i64) : i64
    %272 = llvm.getelementptr %270[%271, %271] : (!llvm.ptr<array<12 x i8>>, i64, i64) -> !llvm.ptr<i8>
    call @read_tensor_f32(%272, %cast_327) : (!llvm.ptr<i8>, memref<*xf32>) -> ()
    %alloc_328 = memref.alloc() {alignment = 16 : i64} : memref<1024xf32>
    %cast_329 = memref.cast %alloc_328 : memref<1024xf32> to memref<*xf32>
    %273 = llvm.mlir.addressof @constant_91 : !llvm.ptr<array<12 x i8>>
    %274 = llvm.mlir.constant(0 : i64) : i64
    %275 = llvm.getelementptr %273[%274, %274] : (!llvm.ptr<array<12 x i8>>, i64, i64) -> !llvm.ptr<i8>
    call @read_tensor_f32(%275, %cast_329) : (!llvm.ptr<i8>, memref<*xf32>) -> ()
    %alloc_330 = memref.alloc() {alignment = 16 : i64} : memref<1024xf32>
    %cast_331 = memref.cast %alloc_330 : memref<1024xf32> to memref<*xf32>
    %276 = llvm.mlir.addressof @constant_92 : !llvm.ptr<array<12 x i8>>
    %277 = llvm.mlir.constant(0 : i64) : i64
    %278 = llvm.getelementptr %276[%277, %277] : (!llvm.ptr<array<12 x i8>>, i64, i64) -> !llvm.ptr<i8>
    call @read_tensor_f32(%278, %cast_331) : (!llvm.ptr<i8>, memref<*xf32>) -> ()
    %alloc_332 = memref.alloc() {alignment = 16 : i64} : memref<1024x4096xf32>
    %cast_333 = memref.cast %alloc_332 : memref<1024x4096xf32> to memref<*xf32>
    %279 = llvm.mlir.addressof @constant_93 : !llvm.ptr<array<12 x i8>>
    %280 = llvm.mlir.constant(0 : i64) : i64
    %281 = llvm.getelementptr %279[%280, %280] : (!llvm.ptr<array<12 x i8>>, i64, i64) -> !llvm.ptr<i8>
    call @read_tensor_f32(%281, %cast_333) : (!llvm.ptr<i8>, memref<*xf32>) -> ()
    %alloc_334 = memref.alloc() {alignment = 16 : i64} : memref<4096xf32>
    %cast_335 = memref.cast %alloc_334 : memref<4096xf32> to memref<*xf32>
    %282 = llvm.mlir.addressof @constant_94 : !llvm.ptr<array<12 x i8>>
    %283 = llvm.mlir.constant(0 : i64) : i64
    %284 = llvm.getelementptr %282[%283, %283] : (!llvm.ptr<array<12 x i8>>, i64, i64) -> !llvm.ptr<i8>
    call @read_tensor_f32(%284, %cast_335) : (!llvm.ptr<i8>, memref<*xf32>) -> ()
    %alloc_336 = memref.alloc() {alignment = 16 : i64} : memref<4096x1024xf32>
    %cast_337 = memref.cast %alloc_336 : memref<4096x1024xf32> to memref<*xf32>
    %285 = llvm.mlir.addressof @constant_95 : !llvm.ptr<array<12 x i8>>
    %286 = llvm.mlir.constant(0 : i64) : i64
    %287 = llvm.getelementptr %285[%286, %286] : (!llvm.ptr<array<12 x i8>>, i64, i64) -> !llvm.ptr<i8>
    call @read_tensor_f32(%287, %cast_337) : (!llvm.ptr<i8>, memref<*xf32>) -> ()
    %alloc_338 = memref.alloc() {alignment = 16 : i64} : memref<1024xf32>
    %cast_339 = memref.cast %alloc_338 : memref<1024xf32> to memref<*xf32>
    %288 = llvm.mlir.addressof @constant_96 : !llvm.ptr<array<12 x i8>>
    %289 = llvm.mlir.constant(0 : i64) : i64
    %290 = llvm.getelementptr %288[%289, %289] : (!llvm.ptr<array<12 x i8>>, i64, i64) -> !llvm.ptr<i8>
    call @read_tensor_f32(%290, %cast_339) : (!llvm.ptr<i8>, memref<*xf32>) -> ()
    %alloc_340 = memref.alloc() {alignment = 16 : i64} : memref<1024xf32>
    %cast_341 = memref.cast %alloc_340 : memref<1024xf32> to memref<*xf32>
    %291 = llvm.mlir.addressof @constant_97 : !llvm.ptr<array<12 x i8>>
    %292 = llvm.mlir.constant(0 : i64) : i64
    %293 = llvm.getelementptr %291[%292, %292] : (!llvm.ptr<array<12 x i8>>, i64, i64) -> !llvm.ptr<i8>
    call @read_tensor_f32(%293, %cast_341) : (!llvm.ptr<i8>, memref<*xf32>) -> ()
    %alloc_342 = memref.alloc() {alignment = 16 : i64} : memref<1024xf32>
    %cast_343 = memref.cast %alloc_342 : memref<1024xf32> to memref<*xf32>
    %294 = llvm.mlir.addressof @constant_98 : !llvm.ptr<array<12 x i8>>
    %295 = llvm.mlir.constant(0 : i64) : i64
    %296 = llvm.getelementptr %294[%295, %295] : (!llvm.ptr<array<12 x i8>>, i64, i64) -> !llvm.ptr<i8>
    call @read_tensor_f32(%296, %cast_343) : (!llvm.ptr<i8>, memref<*xf32>) -> ()
    %alloc_344 = memref.alloc() {alignment = 16 : i64} : memref<1024x3072xf32>
    %cast_345 = memref.cast %alloc_344 : memref<1024x3072xf32> to memref<*xf32>
    %297 = llvm.mlir.addressof @constant_99 : !llvm.ptr<array<12 x i8>>
    %298 = llvm.mlir.constant(0 : i64) : i64
    %299 = llvm.getelementptr %297[%298, %298] : (!llvm.ptr<array<12 x i8>>, i64, i64) -> !llvm.ptr<i8>
    call @read_tensor_f32(%299, %cast_345) : (!llvm.ptr<i8>, memref<*xf32>) -> ()
    %alloc_346 = memref.alloc() {alignment = 16 : i64} : memref<3072xf32>
    %cast_347 = memref.cast %alloc_346 : memref<3072xf32> to memref<*xf32>
    %300 = llvm.mlir.addressof @constant_100 : !llvm.ptr<array<13 x i8>>
    %301 = llvm.mlir.constant(0 : i64) : i64
    %302 = llvm.getelementptr %300[%301, %301] : (!llvm.ptr<array<13 x i8>>, i64, i64) -> !llvm.ptr<i8>
    call @read_tensor_f32(%302, %cast_347) : (!llvm.ptr<i8>, memref<*xf32>) -> ()
    %alloc_348 = memref.alloc() {alignment = 16 : i64} : memref<1024x1024xf32>
    %cast_349 = memref.cast %alloc_348 : memref<1024x1024xf32> to memref<*xf32>
    %303 = llvm.mlir.addressof @constant_101 : !llvm.ptr<array<13 x i8>>
    %304 = llvm.mlir.constant(0 : i64) : i64
    %305 = llvm.getelementptr %303[%304, %304] : (!llvm.ptr<array<13 x i8>>, i64, i64) -> !llvm.ptr<i8>
    call @read_tensor_f32(%305, %cast_349) : (!llvm.ptr<i8>, memref<*xf32>) -> ()
    %alloc_350 = memref.alloc() {alignment = 16 : i64} : memref<1024xf32>
    %cast_351 = memref.cast %alloc_350 : memref<1024xf32> to memref<*xf32>
    %306 = llvm.mlir.addressof @constant_102 : !llvm.ptr<array<13 x i8>>
    %307 = llvm.mlir.constant(0 : i64) : i64
    %308 = llvm.getelementptr %306[%307, %307] : (!llvm.ptr<array<13 x i8>>, i64, i64) -> !llvm.ptr<i8>
    call @read_tensor_f32(%308, %cast_351) : (!llvm.ptr<i8>, memref<*xf32>) -> ()
    %alloc_352 = memref.alloc() {alignment = 16 : i64} : memref<1024xf32>
    %cast_353 = memref.cast %alloc_352 : memref<1024xf32> to memref<*xf32>
    %309 = llvm.mlir.addressof @constant_103 : !llvm.ptr<array<13 x i8>>
    %310 = llvm.mlir.constant(0 : i64) : i64
    %311 = llvm.getelementptr %309[%310, %310] : (!llvm.ptr<array<13 x i8>>, i64, i64) -> !llvm.ptr<i8>
    call @read_tensor_f32(%311, %cast_353) : (!llvm.ptr<i8>, memref<*xf32>) -> ()
    %alloc_354 = memref.alloc() {alignment = 16 : i64} : memref<1024xf32>
    %cast_355 = memref.cast %alloc_354 : memref<1024xf32> to memref<*xf32>
    %312 = llvm.mlir.addressof @constant_104 : !llvm.ptr<array<13 x i8>>
    %313 = llvm.mlir.constant(0 : i64) : i64
    %314 = llvm.getelementptr %312[%313, %313] : (!llvm.ptr<array<13 x i8>>, i64, i64) -> !llvm.ptr<i8>
    call @read_tensor_f32(%314, %cast_355) : (!llvm.ptr<i8>, memref<*xf32>) -> ()
    %alloc_356 = memref.alloc() {alignment = 16 : i64} : memref<1024x4096xf32>
    %cast_357 = memref.cast %alloc_356 : memref<1024x4096xf32> to memref<*xf32>
    %315 = llvm.mlir.addressof @constant_105 : !llvm.ptr<array<13 x i8>>
    %316 = llvm.mlir.constant(0 : i64) : i64
    %317 = llvm.getelementptr %315[%316, %316] : (!llvm.ptr<array<13 x i8>>, i64, i64) -> !llvm.ptr<i8>
    call @read_tensor_f32(%317, %cast_357) : (!llvm.ptr<i8>, memref<*xf32>) -> ()
    %alloc_358 = memref.alloc() {alignment = 16 : i64} : memref<4096xf32>
    %cast_359 = memref.cast %alloc_358 : memref<4096xf32> to memref<*xf32>
    %318 = llvm.mlir.addressof @constant_106 : !llvm.ptr<array<13 x i8>>
    %319 = llvm.mlir.constant(0 : i64) : i64
    %320 = llvm.getelementptr %318[%319, %319] : (!llvm.ptr<array<13 x i8>>, i64, i64) -> !llvm.ptr<i8>
    call @read_tensor_f32(%320, %cast_359) : (!llvm.ptr<i8>, memref<*xf32>) -> ()
    %alloc_360 = memref.alloc() {alignment = 16 : i64} : memref<4096x1024xf32>
    %cast_361 = memref.cast %alloc_360 : memref<4096x1024xf32> to memref<*xf32>
    %321 = llvm.mlir.addressof @constant_107 : !llvm.ptr<array<13 x i8>>
    %322 = llvm.mlir.constant(0 : i64) : i64
    %323 = llvm.getelementptr %321[%322, %322] : (!llvm.ptr<array<13 x i8>>, i64, i64) -> !llvm.ptr<i8>
    call @read_tensor_f32(%323, %cast_361) : (!llvm.ptr<i8>, memref<*xf32>) -> ()
    %alloc_362 = memref.alloc() {alignment = 16 : i64} : memref<1024xf32>
    %cast_363 = memref.cast %alloc_362 : memref<1024xf32> to memref<*xf32>
    %324 = llvm.mlir.addressof @constant_108 : !llvm.ptr<array<13 x i8>>
    %325 = llvm.mlir.constant(0 : i64) : i64
    %326 = llvm.getelementptr %324[%325, %325] : (!llvm.ptr<array<13 x i8>>, i64, i64) -> !llvm.ptr<i8>
    call @read_tensor_f32(%326, %cast_363) : (!llvm.ptr<i8>, memref<*xf32>) -> ()
    %alloc_364 = memref.alloc() {alignment = 16 : i64} : memref<1024xf32>
    %cast_365 = memref.cast %alloc_364 : memref<1024xf32> to memref<*xf32>
    %327 = llvm.mlir.addressof @constant_109 : !llvm.ptr<array<13 x i8>>
    %328 = llvm.mlir.constant(0 : i64) : i64
    %329 = llvm.getelementptr %327[%328, %328] : (!llvm.ptr<array<13 x i8>>, i64, i64) -> !llvm.ptr<i8>
    call @read_tensor_f32(%329, %cast_365) : (!llvm.ptr<i8>, memref<*xf32>) -> ()
    %alloc_366 = memref.alloc() {alignment = 16 : i64} : memref<1024xf32>
    %cast_367 = memref.cast %alloc_366 : memref<1024xf32> to memref<*xf32>
    %330 = llvm.mlir.addressof @constant_110 : !llvm.ptr<array<13 x i8>>
    %331 = llvm.mlir.constant(0 : i64) : i64
    %332 = llvm.getelementptr %330[%331, %331] : (!llvm.ptr<array<13 x i8>>, i64, i64) -> !llvm.ptr<i8>
    call @read_tensor_f32(%332, %cast_367) : (!llvm.ptr<i8>, memref<*xf32>) -> ()
    %alloc_368 = memref.alloc() {alignment = 16 : i64} : memref<1024x3072xf32>
    %cast_369 = memref.cast %alloc_368 : memref<1024x3072xf32> to memref<*xf32>
    %333 = llvm.mlir.addressof @constant_111 : !llvm.ptr<array<13 x i8>>
    %334 = llvm.mlir.constant(0 : i64) : i64
    %335 = llvm.getelementptr %333[%334, %334] : (!llvm.ptr<array<13 x i8>>, i64, i64) -> !llvm.ptr<i8>
    call @read_tensor_f32(%335, %cast_369) : (!llvm.ptr<i8>, memref<*xf32>) -> ()
    %alloc_370 = memref.alloc() {alignment = 16 : i64} : memref<3072xf32>
    %cast_371 = memref.cast %alloc_370 : memref<3072xf32> to memref<*xf32>
    %336 = llvm.mlir.addressof @constant_112 : !llvm.ptr<array<13 x i8>>
    %337 = llvm.mlir.constant(0 : i64) : i64
    %338 = llvm.getelementptr %336[%337, %337] : (!llvm.ptr<array<13 x i8>>, i64, i64) -> !llvm.ptr<i8>
    call @read_tensor_f32(%338, %cast_371) : (!llvm.ptr<i8>, memref<*xf32>) -> ()
    %alloc_372 = memref.alloc() {alignment = 16 : i64} : memref<1024x1024xf32>
    %cast_373 = memref.cast %alloc_372 : memref<1024x1024xf32> to memref<*xf32>
    %339 = llvm.mlir.addressof @constant_113 : !llvm.ptr<array<13 x i8>>
    %340 = llvm.mlir.constant(0 : i64) : i64
    %341 = llvm.getelementptr %339[%340, %340] : (!llvm.ptr<array<13 x i8>>, i64, i64) -> !llvm.ptr<i8>
    call @read_tensor_f32(%341, %cast_373) : (!llvm.ptr<i8>, memref<*xf32>) -> ()
    %alloc_374 = memref.alloc() {alignment = 16 : i64} : memref<1024xf32>
    %cast_375 = memref.cast %alloc_374 : memref<1024xf32> to memref<*xf32>
    %342 = llvm.mlir.addressof @constant_114 : !llvm.ptr<array<13 x i8>>
    %343 = llvm.mlir.constant(0 : i64) : i64
    %344 = llvm.getelementptr %342[%343, %343] : (!llvm.ptr<array<13 x i8>>, i64, i64) -> !llvm.ptr<i8>
    call @read_tensor_f32(%344, %cast_375) : (!llvm.ptr<i8>, memref<*xf32>) -> ()
    %alloc_376 = memref.alloc() {alignment = 16 : i64} : memref<1024xf32>
    %cast_377 = memref.cast %alloc_376 : memref<1024xf32> to memref<*xf32>
    %345 = llvm.mlir.addressof @constant_115 : !llvm.ptr<array<13 x i8>>
    %346 = llvm.mlir.constant(0 : i64) : i64
    %347 = llvm.getelementptr %345[%346, %346] : (!llvm.ptr<array<13 x i8>>, i64, i64) -> !llvm.ptr<i8>
    call @read_tensor_f32(%347, %cast_377) : (!llvm.ptr<i8>, memref<*xf32>) -> ()
    %alloc_378 = memref.alloc() {alignment = 16 : i64} : memref<1024xf32>
    %cast_379 = memref.cast %alloc_378 : memref<1024xf32> to memref<*xf32>
    %348 = llvm.mlir.addressof @constant_116 : !llvm.ptr<array<13 x i8>>
    %349 = llvm.mlir.constant(0 : i64) : i64
    %350 = llvm.getelementptr %348[%349, %349] : (!llvm.ptr<array<13 x i8>>, i64, i64) -> !llvm.ptr<i8>
    call @read_tensor_f32(%350, %cast_379) : (!llvm.ptr<i8>, memref<*xf32>) -> ()
    %alloc_380 = memref.alloc() {alignment = 16 : i64} : memref<1024x4096xf32>
    %cast_381 = memref.cast %alloc_380 : memref<1024x4096xf32> to memref<*xf32>
    %351 = llvm.mlir.addressof @constant_117 : !llvm.ptr<array<13 x i8>>
    %352 = llvm.mlir.constant(0 : i64) : i64
    %353 = llvm.getelementptr %351[%352, %352] : (!llvm.ptr<array<13 x i8>>, i64, i64) -> !llvm.ptr<i8>
    call @read_tensor_f32(%353, %cast_381) : (!llvm.ptr<i8>, memref<*xf32>) -> ()
    %alloc_382 = memref.alloc() {alignment = 16 : i64} : memref<4096xf32>
    %cast_383 = memref.cast %alloc_382 : memref<4096xf32> to memref<*xf32>
    %354 = llvm.mlir.addressof @constant_118 : !llvm.ptr<array<13 x i8>>
    %355 = llvm.mlir.constant(0 : i64) : i64
    %356 = llvm.getelementptr %354[%355, %355] : (!llvm.ptr<array<13 x i8>>, i64, i64) -> !llvm.ptr<i8>
    call @read_tensor_f32(%356, %cast_383) : (!llvm.ptr<i8>, memref<*xf32>) -> ()
    %alloc_384 = memref.alloc() {alignment = 16 : i64} : memref<4096x1024xf32>
    %cast_385 = memref.cast %alloc_384 : memref<4096x1024xf32> to memref<*xf32>
    %357 = llvm.mlir.addressof @constant_119 : !llvm.ptr<array<13 x i8>>
    %358 = llvm.mlir.constant(0 : i64) : i64
    %359 = llvm.getelementptr %357[%358, %358] : (!llvm.ptr<array<13 x i8>>, i64, i64) -> !llvm.ptr<i8>
    call @read_tensor_f32(%359, %cast_385) : (!llvm.ptr<i8>, memref<*xf32>) -> ()
    %alloc_386 = memref.alloc() {alignment = 16 : i64} : memref<1024xf32>
    %cast_387 = memref.cast %alloc_386 : memref<1024xf32> to memref<*xf32>
    %360 = llvm.mlir.addressof @constant_120 : !llvm.ptr<array<13 x i8>>
    %361 = llvm.mlir.constant(0 : i64) : i64
    %362 = llvm.getelementptr %360[%361, %361] : (!llvm.ptr<array<13 x i8>>, i64, i64) -> !llvm.ptr<i8>
    call @read_tensor_f32(%362, %cast_387) : (!llvm.ptr<i8>, memref<*xf32>) -> ()
    %alloc_388 = memref.alloc() {alignment = 16 : i64} : memref<1024xf32>
    %cast_389 = memref.cast %alloc_388 : memref<1024xf32> to memref<*xf32>
    %363 = llvm.mlir.addressof @constant_121 : !llvm.ptr<array<13 x i8>>
    %364 = llvm.mlir.constant(0 : i64) : i64
    %365 = llvm.getelementptr %363[%364, %364] : (!llvm.ptr<array<13 x i8>>, i64, i64) -> !llvm.ptr<i8>
    call @read_tensor_f32(%365, %cast_389) : (!llvm.ptr<i8>, memref<*xf32>) -> ()
    %alloc_390 = memref.alloc() {alignment = 16 : i64} : memref<1024xf32>
    %cast_391 = memref.cast %alloc_390 : memref<1024xf32> to memref<*xf32>
    %366 = llvm.mlir.addressof @constant_122 : !llvm.ptr<array<13 x i8>>
    %367 = llvm.mlir.constant(0 : i64) : i64
    %368 = llvm.getelementptr %366[%367, %367] : (!llvm.ptr<array<13 x i8>>, i64, i64) -> !llvm.ptr<i8>
    call @read_tensor_f32(%368, %cast_391) : (!llvm.ptr<i8>, memref<*xf32>) -> ()
    %alloc_392 = memref.alloc() {alignment = 16 : i64} : memref<1024x3072xf32>
    %cast_393 = memref.cast %alloc_392 : memref<1024x3072xf32> to memref<*xf32>
    %369 = llvm.mlir.addressof @constant_123 : !llvm.ptr<array<13 x i8>>
    %370 = llvm.mlir.constant(0 : i64) : i64
    %371 = llvm.getelementptr %369[%370, %370] : (!llvm.ptr<array<13 x i8>>, i64, i64) -> !llvm.ptr<i8>
    call @read_tensor_f32(%371, %cast_393) : (!llvm.ptr<i8>, memref<*xf32>) -> ()
    %alloc_394 = memref.alloc() {alignment = 16 : i64} : memref<3072xf32>
    %cast_395 = memref.cast %alloc_394 : memref<3072xf32> to memref<*xf32>
    %372 = llvm.mlir.addressof @constant_124 : !llvm.ptr<array<13 x i8>>
    %373 = llvm.mlir.constant(0 : i64) : i64
    %374 = llvm.getelementptr %372[%373, %373] : (!llvm.ptr<array<13 x i8>>, i64, i64) -> !llvm.ptr<i8>
    call @read_tensor_f32(%374, %cast_395) : (!llvm.ptr<i8>, memref<*xf32>) -> ()
    %alloc_396 = memref.alloc() {alignment = 16 : i64} : memref<1024x1024xf32>
    %cast_397 = memref.cast %alloc_396 : memref<1024x1024xf32> to memref<*xf32>
    %375 = llvm.mlir.addressof @constant_125 : !llvm.ptr<array<13 x i8>>
    %376 = llvm.mlir.constant(0 : i64) : i64
    %377 = llvm.getelementptr %375[%376, %376] : (!llvm.ptr<array<13 x i8>>, i64, i64) -> !llvm.ptr<i8>
    call @read_tensor_f32(%377, %cast_397) : (!llvm.ptr<i8>, memref<*xf32>) -> ()
    %alloc_398 = memref.alloc() {alignment = 16 : i64} : memref<1024xf32>
    %cast_399 = memref.cast %alloc_398 : memref<1024xf32> to memref<*xf32>
    %378 = llvm.mlir.addressof @constant_126 : !llvm.ptr<array<13 x i8>>
    %379 = llvm.mlir.constant(0 : i64) : i64
    %380 = llvm.getelementptr %378[%379, %379] : (!llvm.ptr<array<13 x i8>>, i64, i64) -> !llvm.ptr<i8>
    call @read_tensor_f32(%380, %cast_399) : (!llvm.ptr<i8>, memref<*xf32>) -> ()
    %alloc_400 = memref.alloc() {alignment = 16 : i64} : memref<1024xf32>
    %cast_401 = memref.cast %alloc_400 : memref<1024xf32> to memref<*xf32>
    %381 = llvm.mlir.addressof @constant_127 : !llvm.ptr<array<13 x i8>>
    %382 = llvm.mlir.constant(0 : i64) : i64
    %383 = llvm.getelementptr %381[%382, %382] : (!llvm.ptr<array<13 x i8>>, i64, i64) -> !llvm.ptr<i8>
    call @read_tensor_f32(%383, %cast_401) : (!llvm.ptr<i8>, memref<*xf32>) -> ()
    %alloc_402 = memref.alloc() {alignment = 16 : i64} : memref<1024xf32>
    %cast_403 = memref.cast %alloc_402 : memref<1024xf32> to memref<*xf32>
    %384 = llvm.mlir.addressof @constant_128 : !llvm.ptr<array<13 x i8>>
    %385 = llvm.mlir.constant(0 : i64) : i64
    %386 = llvm.getelementptr %384[%385, %385] : (!llvm.ptr<array<13 x i8>>, i64, i64) -> !llvm.ptr<i8>
    call @read_tensor_f32(%386, %cast_403) : (!llvm.ptr<i8>, memref<*xf32>) -> ()
    %alloc_404 = memref.alloc() {alignment = 16 : i64} : memref<1024x4096xf32>
    %cast_405 = memref.cast %alloc_404 : memref<1024x4096xf32> to memref<*xf32>
    %387 = llvm.mlir.addressof @constant_129 : !llvm.ptr<array<13 x i8>>
    %388 = llvm.mlir.constant(0 : i64) : i64
    %389 = llvm.getelementptr %387[%388, %388] : (!llvm.ptr<array<13 x i8>>, i64, i64) -> !llvm.ptr<i8>
    call @read_tensor_f32(%389, %cast_405) : (!llvm.ptr<i8>, memref<*xf32>) -> ()
    %alloc_406 = memref.alloc() {alignment = 16 : i64} : memref<4096xf32>
    %cast_407 = memref.cast %alloc_406 : memref<4096xf32> to memref<*xf32>
    %390 = llvm.mlir.addressof @constant_130 : !llvm.ptr<array<13 x i8>>
    %391 = llvm.mlir.constant(0 : i64) : i64
    %392 = llvm.getelementptr %390[%391, %391] : (!llvm.ptr<array<13 x i8>>, i64, i64) -> !llvm.ptr<i8>
    call @read_tensor_f32(%392, %cast_407) : (!llvm.ptr<i8>, memref<*xf32>) -> ()
    %alloc_408 = memref.alloc() {alignment = 16 : i64} : memref<4096x1024xf32>
    %cast_409 = memref.cast %alloc_408 : memref<4096x1024xf32> to memref<*xf32>
    %393 = llvm.mlir.addressof @constant_131 : !llvm.ptr<array<13 x i8>>
    %394 = llvm.mlir.constant(0 : i64) : i64
    %395 = llvm.getelementptr %393[%394, %394] : (!llvm.ptr<array<13 x i8>>, i64, i64) -> !llvm.ptr<i8>
    call @read_tensor_f32(%395, %cast_409) : (!llvm.ptr<i8>, memref<*xf32>) -> ()
    %alloc_410 = memref.alloc() {alignment = 16 : i64} : memref<1024xf32>
    %cast_411 = memref.cast %alloc_410 : memref<1024xf32> to memref<*xf32>
    %396 = llvm.mlir.addressof @constant_132 : !llvm.ptr<array<13 x i8>>
    %397 = llvm.mlir.constant(0 : i64) : i64
    %398 = llvm.getelementptr %396[%397, %397] : (!llvm.ptr<array<13 x i8>>, i64, i64) -> !llvm.ptr<i8>
    call @read_tensor_f32(%398, %cast_411) : (!llvm.ptr<i8>, memref<*xf32>) -> ()
    %alloc_412 = memref.alloc() {alignment = 16 : i64} : memref<1024xf32>
    %cast_413 = memref.cast %alloc_412 : memref<1024xf32> to memref<*xf32>
    %399 = llvm.mlir.addressof @constant_133 : !llvm.ptr<array<13 x i8>>
    %400 = llvm.mlir.constant(0 : i64) : i64
    %401 = llvm.getelementptr %399[%400, %400] : (!llvm.ptr<array<13 x i8>>, i64, i64) -> !llvm.ptr<i8>
    call @read_tensor_f32(%401, %cast_413) : (!llvm.ptr<i8>, memref<*xf32>) -> ()
    %alloc_414 = memref.alloc() {alignment = 16 : i64} : memref<1024xf32>
    %cast_415 = memref.cast %alloc_414 : memref<1024xf32> to memref<*xf32>
    %402 = llvm.mlir.addressof @constant_134 : !llvm.ptr<array<13 x i8>>
    %403 = llvm.mlir.constant(0 : i64) : i64
    %404 = llvm.getelementptr %402[%403, %403] : (!llvm.ptr<array<13 x i8>>, i64, i64) -> !llvm.ptr<i8>
    call @read_tensor_f32(%404, %cast_415) : (!llvm.ptr<i8>, memref<*xf32>) -> ()
    %alloc_416 = memref.alloc() {alignment = 16 : i64} : memref<1024x3072xf32>
    %cast_417 = memref.cast %alloc_416 : memref<1024x3072xf32> to memref<*xf32>
    %405 = llvm.mlir.addressof @constant_135 : !llvm.ptr<array<13 x i8>>
    %406 = llvm.mlir.constant(0 : i64) : i64
    %407 = llvm.getelementptr %405[%406, %406] : (!llvm.ptr<array<13 x i8>>, i64, i64) -> !llvm.ptr<i8>
    call @read_tensor_f32(%407, %cast_417) : (!llvm.ptr<i8>, memref<*xf32>) -> ()
    %alloc_418 = memref.alloc() {alignment = 16 : i64} : memref<3072xf32>
    %cast_419 = memref.cast %alloc_418 : memref<3072xf32> to memref<*xf32>
    %408 = llvm.mlir.addressof @constant_136 : !llvm.ptr<array<13 x i8>>
    %409 = llvm.mlir.constant(0 : i64) : i64
    %410 = llvm.getelementptr %408[%409, %409] : (!llvm.ptr<array<13 x i8>>, i64, i64) -> !llvm.ptr<i8>
    call @read_tensor_f32(%410, %cast_419) : (!llvm.ptr<i8>, memref<*xf32>) -> ()
    %alloc_420 = memref.alloc() {alignment = 16 : i64} : memref<1024x1024xf32>
    %cast_421 = memref.cast %alloc_420 : memref<1024x1024xf32> to memref<*xf32>
    %411 = llvm.mlir.addressof @constant_137 : !llvm.ptr<array<13 x i8>>
    %412 = llvm.mlir.constant(0 : i64) : i64
    %413 = llvm.getelementptr %411[%412, %412] : (!llvm.ptr<array<13 x i8>>, i64, i64) -> !llvm.ptr<i8>
    call @read_tensor_f32(%413, %cast_421) : (!llvm.ptr<i8>, memref<*xf32>) -> ()
    %alloc_422 = memref.alloc() {alignment = 16 : i64} : memref<1024xf32>
    %cast_423 = memref.cast %alloc_422 : memref<1024xf32> to memref<*xf32>
    %414 = llvm.mlir.addressof @constant_138 : !llvm.ptr<array<13 x i8>>
    %415 = llvm.mlir.constant(0 : i64) : i64
    %416 = llvm.getelementptr %414[%415, %415] : (!llvm.ptr<array<13 x i8>>, i64, i64) -> !llvm.ptr<i8>
    call @read_tensor_f32(%416, %cast_423) : (!llvm.ptr<i8>, memref<*xf32>) -> ()
    %alloc_424 = memref.alloc() {alignment = 16 : i64} : memref<1024xf32>
    %cast_425 = memref.cast %alloc_424 : memref<1024xf32> to memref<*xf32>
    %417 = llvm.mlir.addressof @constant_139 : !llvm.ptr<array<13 x i8>>
    %418 = llvm.mlir.constant(0 : i64) : i64
    %419 = llvm.getelementptr %417[%418, %418] : (!llvm.ptr<array<13 x i8>>, i64, i64) -> !llvm.ptr<i8>
    call @read_tensor_f32(%419, %cast_425) : (!llvm.ptr<i8>, memref<*xf32>) -> ()
    %alloc_426 = memref.alloc() {alignment = 16 : i64} : memref<1024xf32>
    %cast_427 = memref.cast %alloc_426 : memref<1024xf32> to memref<*xf32>
    %420 = llvm.mlir.addressof @constant_140 : !llvm.ptr<array<13 x i8>>
    %421 = llvm.mlir.constant(0 : i64) : i64
    %422 = llvm.getelementptr %420[%421, %421] : (!llvm.ptr<array<13 x i8>>, i64, i64) -> !llvm.ptr<i8>
    call @read_tensor_f32(%422, %cast_427) : (!llvm.ptr<i8>, memref<*xf32>) -> ()
    %alloc_428 = memref.alloc() {alignment = 16 : i64} : memref<1024x4096xf32>
    %cast_429 = memref.cast %alloc_428 : memref<1024x4096xf32> to memref<*xf32>
    %423 = llvm.mlir.addressof @constant_141 : !llvm.ptr<array<13 x i8>>
    %424 = llvm.mlir.constant(0 : i64) : i64
    %425 = llvm.getelementptr %423[%424, %424] : (!llvm.ptr<array<13 x i8>>, i64, i64) -> !llvm.ptr<i8>
    call @read_tensor_f32(%425, %cast_429) : (!llvm.ptr<i8>, memref<*xf32>) -> ()
    %alloc_430 = memref.alloc() {alignment = 16 : i64} : memref<4096xf32>
    %cast_431 = memref.cast %alloc_430 : memref<4096xf32> to memref<*xf32>
    %426 = llvm.mlir.addressof @constant_142 : !llvm.ptr<array<13 x i8>>
    %427 = llvm.mlir.constant(0 : i64) : i64
    %428 = llvm.getelementptr %426[%427, %427] : (!llvm.ptr<array<13 x i8>>, i64, i64) -> !llvm.ptr<i8>
    call @read_tensor_f32(%428, %cast_431) : (!llvm.ptr<i8>, memref<*xf32>) -> ()
    %alloc_432 = memref.alloc() {alignment = 16 : i64} : memref<4096x1024xf32>
    %cast_433 = memref.cast %alloc_432 : memref<4096x1024xf32> to memref<*xf32>
    %429 = llvm.mlir.addressof @constant_143 : !llvm.ptr<array<13 x i8>>
    %430 = llvm.mlir.constant(0 : i64) : i64
    %431 = llvm.getelementptr %429[%430, %430] : (!llvm.ptr<array<13 x i8>>, i64, i64) -> !llvm.ptr<i8>
    call @read_tensor_f32(%431, %cast_433) : (!llvm.ptr<i8>, memref<*xf32>) -> ()
    %alloc_434 = memref.alloc() {alignment = 16 : i64} : memref<1024xf32>
    %cast_435 = memref.cast %alloc_434 : memref<1024xf32> to memref<*xf32>
    %432 = llvm.mlir.addressof @constant_144 : !llvm.ptr<array<13 x i8>>
    %433 = llvm.mlir.constant(0 : i64) : i64
    %434 = llvm.getelementptr %432[%433, %433] : (!llvm.ptr<array<13 x i8>>, i64, i64) -> !llvm.ptr<i8>
    call @read_tensor_f32(%434, %cast_435) : (!llvm.ptr<i8>, memref<*xf32>) -> ()
    %alloc_436 = memref.alloc() {alignment = 16 : i64} : memref<1024xf32>
    %cast_437 = memref.cast %alloc_436 : memref<1024xf32> to memref<*xf32>
    %435 = llvm.mlir.addressof @constant_145 : !llvm.ptr<array<13 x i8>>
    %436 = llvm.mlir.constant(0 : i64) : i64
    %437 = llvm.getelementptr %435[%436, %436] : (!llvm.ptr<array<13 x i8>>, i64, i64) -> !llvm.ptr<i8>
    call @read_tensor_f32(%437, %cast_437) : (!llvm.ptr<i8>, memref<*xf32>) -> ()
    %alloc_438 = memref.alloc() {alignment = 16 : i64} : memref<1024xf32>
    %cast_439 = memref.cast %alloc_438 : memref<1024xf32> to memref<*xf32>
    %438 = llvm.mlir.addressof @constant_146 : !llvm.ptr<array<13 x i8>>
    %439 = llvm.mlir.constant(0 : i64) : i64
    %440 = llvm.getelementptr %438[%439, %439] : (!llvm.ptr<array<13 x i8>>, i64, i64) -> !llvm.ptr<i8>
    call @read_tensor_f32(%440, %cast_439) : (!llvm.ptr<i8>, memref<*xf32>) -> ()
    %alloc_440 = memref.alloc() {alignment = 16 : i64} : memref<1024x3072xf32>
    %cast_441 = memref.cast %alloc_440 : memref<1024x3072xf32> to memref<*xf32>
    %441 = llvm.mlir.addressof @constant_147 : !llvm.ptr<array<13 x i8>>
    %442 = llvm.mlir.constant(0 : i64) : i64
    %443 = llvm.getelementptr %441[%442, %442] : (!llvm.ptr<array<13 x i8>>, i64, i64) -> !llvm.ptr<i8>
    call @read_tensor_f32(%443, %cast_441) : (!llvm.ptr<i8>, memref<*xf32>) -> ()
    %alloc_442 = memref.alloc() {alignment = 16 : i64} : memref<3072xf32>
    %cast_443 = memref.cast %alloc_442 : memref<3072xf32> to memref<*xf32>
    %444 = llvm.mlir.addressof @constant_148 : !llvm.ptr<array<13 x i8>>
    %445 = llvm.mlir.constant(0 : i64) : i64
    %446 = llvm.getelementptr %444[%445, %445] : (!llvm.ptr<array<13 x i8>>, i64, i64) -> !llvm.ptr<i8>
    call @read_tensor_f32(%446, %cast_443) : (!llvm.ptr<i8>, memref<*xf32>) -> ()
    %alloc_444 = memref.alloc() {alignment = 16 : i64} : memref<1024x1024xf32>
    %cast_445 = memref.cast %alloc_444 : memref<1024x1024xf32> to memref<*xf32>
    %447 = llvm.mlir.addressof @constant_149 : !llvm.ptr<array<13 x i8>>
    %448 = llvm.mlir.constant(0 : i64) : i64
    %449 = llvm.getelementptr %447[%448, %448] : (!llvm.ptr<array<13 x i8>>, i64, i64) -> !llvm.ptr<i8>
    call @read_tensor_f32(%449, %cast_445) : (!llvm.ptr<i8>, memref<*xf32>) -> ()
    %alloc_446 = memref.alloc() {alignment = 16 : i64} : memref<1024xf32>
    %cast_447 = memref.cast %alloc_446 : memref<1024xf32> to memref<*xf32>
    %450 = llvm.mlir.addressof @constant_150 : !llvm.ptr<array<13 x i8>>
    %451 = llvm.mlir.constant(0 : i64) : i64
    %452 = llvm.getelementptr %450[%451, %451] : (!llvm.ptr<array<13 x i8>>, i64, i64) -> !llvm.ptr<i8>
    call @read_tensor_f32(%452, %cast_447) : (!llvm.ptr<i8>, memref<*xf32>) -> ()
    %alloc_448 = memref.alloc() {alignment = 16 : i64} : memref<1024xf32>
    %cast_449 = memref.cast %alloc_448 : memref<1024xf32> to memref<*xf32>
    %453 = llvm.mlir.addressof @constant_151 : !llvm.ptr<array<13 x i8>>
    %454 = llvm.mlir.constant(0 : i64) : i64
    %455 = llvm.getelementptr %453[%454, %454] : (!llvm.ptr<array<13 x i8>>, i64, i64) -> !llvm.ptr<i8>
    call @read_tensor_f32(%455, %cast_449) : (!llvm.ptr<i8>, memref<*xf32>) -> ()
    %alloc_450 = memref.alloc() {alignment = 16 : i64} : memref<1024xf32>
    %cast_451 = memref.cast %alloc_450 : memref<1024xf32> to memref<*xf32>
    %456 = llvm.mlir.addressof @constant_152 : !llvm.ptr<array<13 x i8>>
    %457 = llvm.mlir.constant(0 : i64) : i64
    %458 = llvm.getelementptr %456[%457, %457] : (!llvm.ptr<array<13 x i8>>, i64, i64) -> !llvm.ptr<i8>
    call @read_tensor_f32(%458, %cast_451) : (!llvm.ptr<i8>, memref<*xf32>) -> ()
    %alloc_452 = memref.alloc() {alignment = 16 : i64} : memref<1024x4096xf32>
    %cast_453 = memref.cast %alloc_452 : memref<1024x4096xf32> to memref<*xf32>
    %459 = llvm.mlir.addressof @constant_153 : !llvm.ptr<array<13 x i8>>
    %460 = llvm.mlir.constant(0 : i64) : i64
    %461 = llvm.getelementptr %459[%460, %460] : (!llvm.ptr<array<13 x i8>>, i64, i64) -> !llvm.ptr<i8>
    call @read_tensor_f32(%461, %cast_453) : (!llvm.ptr<i8>, memref<*xf32>) -> ()
    %alloc_454 = memref.alloc() {alignment = 16 : i64} : memref<4096xf32>
    %cast_455 = memref.cast %alloc_454 : memref<4096xf32> to memref<*xf32>
    %462 = llvm.mlir.addressof @constant_154 : !llvm.ptr<array<13 x i8>>
    %463 = llvm.mlir.constant(0 : i64) : i64
    %464 = llvm.getelementptr %462[%463, %463] : (!llvm.ptr<array<13 x i8>>, i64, i64) -> !llvm.ptr<i8>
    call @read_tensor_f32(%464, %cast_455) : (!llvm.ptr<i8>, memref<*xf32>) -> ()
    %alloc_456 = memref.alloc() {alignment = 16 : i64} : memref<4096x1024xf32>
    %cast_457 = memref.cast %alloc_456 : memref<4096x1024xf32> to memref<*xf32>
    %465 = llvm.mlir.addressof @constant_155 : !llvm.ptr<array<13 x i8>>
    %466 = llvm.mlir.constant(0 : i64) : i64
    %467 = llvm.getelementptr %465[%466, %466] : (!llvm.ptr<array<13 x i8>>, i64, i64) -> !llvm.ptr<i8>
    call @read_tensor_f32(%467, %cast_457) : (!llvm.ptr<i8>, memref<*xf32>) -> ()
    %alloc_458 = memref.alloc() {alignment = 16 : i64} : memref<1024xf32>
    %cast_459 = memref.cast %alloc_458 : memref<1024xf32> to memref<*xf32>
    %468 = llvm.mlir.addressof @constant_156 : !llvm.ptr<array<13 x i8>>
    %469 = llvm.mlir.constant(0 : i64) : i64
    %470 = llvm.getelementptr %468[%469, %469] : (!llvm.ptr<array<13 x i8>>, i64, i64) -> !llvm.ptr<i8>
    call @read_tensor_f32(%470, %cast_459) : (!llvm.ptr<i8>, memref<*xf32>) -> ()
    %alloc_460 = memref.alloc() {alignment = 16 : i64} : memref<1024xf32>
    %cast_461 = memref.cast %alloc_460 : memref<1024xf32> to memref<*xf32>
    %471 = llvm.mlir.addressof @constant_157 : !llvm.ptr<array<13 x i8>>
    %472 = llvm.mlir.constant(0 : i64) : i64
    %473 = llvm.getelementptr %471[%472, %472] : (!llvm.ptr<array<13 x i8>>, i64, i64) -> !llvm.ptr<i8>
    call @read_tensor_f32(%473, %cast_461) : (!llvm.ptr<i8>, memref<*xf32>) -> ()
    %alloc_462 = memref.alloc() {alignment = 16 : i64} : memref<1024xf32>
    %cast_463 = memref.cast %alloc_462 : memref<1024xf32> to memref<*xf32>
    %474 = llvm.mlir.addressof @constant_158 : !llvm.ptr<array<13 x i8>>
    %475 = llvm.mlir.constant(0 : i64) : i64
    %476 = llvm.getelementptr %474[%475, %475] : (!llvm.ptr<array<13 x i8>>, i64, i64) -> !llvm.ptr<i8>
    call @read_tensor_f32(%476, %cast_463) : (!llvm.ptr<i8>, memref<*xf32>) -> ()
    %alloc_464 = memref.alloc() {alignment = 16 : i64} : memref<1024x3072xf32>
    %cast_465 = memref.cast %alloc_464 : memref<1024x3072xf32> to memref<*xf32>
    %477 = llvm.mlir.addressof @constant_159 : !llvm.ptr<array<13 x i8>>
    %478 = llvm.mlir.constant(0 : i64) : i64
    %479 = llvm.getelementptr %477[%478, %478] : (!llvm.ptr<array<13 x i8>>, i64, i64) -> !llvm.ptr<i8>
    call @read_tensor_f32(%479, %cast_465) : (!llvm.ptr<i8>, memref<*xf32>) -> ()
    %alloc_466 = memref.alloc() {alignment = 16 : i64} : memref<3072xf32>
    %cast_467 = memref.cast %alloc_466 : memref<3072xf32> to memref<*xf32>
    %480 = llvm.mlir.addressof @constant_160 : !llvm.ptr<array<13 x i8>>
    %481 = llvm.mlir.constant(0 : i64) : i64
    %482 = llvm.getelementptr %480[%481, %481] : (!llvm.ptr<array<13 x i8>>, i64, i64) -> !llvm.ptr<i8>
    call @read_tensor_f32(%482, %cast_467) : (!llvm.ptr<i8>, memref<*xf32>) -> ()
    %alloc_468 = memref.alloc() {alignment = 16 : i64} : memref<1024x1024xf32>
    %cast_469 = memref.cast %alloc_468 : memref<1024x1024xf32> to memref<*xf32>
    %483 = llvm.mlir.addressof @constant_161 : !llvm.ptr<array<13 x i8>>
    %484 = llvm.mlir.constant(0 : i64) : i64
    %485 = llvm.getelementptr %483[%484, %484] : (!llvm.ptr<array<13 x i8>>, i64, i64) -> !llvm.ptr<i8>
    call @read_tensor_f32(%485, %cast_469) : (!llvm.ptr<i8>, memref<*xf32>) -> ()
    %alloc_470 = memref.alloc() {alignment = 16 : i64} : memref<1024xf32>
    %cast_471 = memref.cast %alloc_470 : memref<1024xf32> to memref<*xf32>
    %486 = llvm.mlir.addressof @constant_162 : !llvm.ptr<array<13 x i8>>
    %487 = llvm.mlir.constant(0 : i64) : i64
    %488 = llvm.getelementptr %486[%487, %487] : (!llvm.ptr<array<13 x i8>>, i64, i64) -> !llvm.ptr<i8>
    call @read_tensor_f32(%488, %cast_471) : (!llvm.ptr<i8>, memref<*xf32>) -> ()
    %alloc_472 = memref.alloc() {alignment = 16 : i64} : memref<1024xf32>
    %cast_473 = memref.cast %alloc_472 : memref<1024xf32> to memref<*xf32>
    %489 = llvm.mlir.addressof @constant_163 : !llvm.ptr<array<13 x i8>>
    %490 = llvm.mlir.constant(0 : i64) : i64
    %491 = llvm.getelementptr %489[%490, %490] : (!llvm.ptr<array<13 x i8>>, i64, i64) -> !llvm.ptr<i8>
    call @read_tensor_f32(%491, %cast_473) : (!llvm.ptr<i8>, memref<*xf32>) -> ()
    %alloc_474 = memref.alloc() {alignment = 16 : i64} : memref<1024xf32>
    %cast_475 = memref.cast %alloc_474 : memref<1024xf32> to memref<*xf32>
    %492 = llvm.mlir.addressof @constant_164 : !llvm.ptr<array<13 x i8>>
    %493 = llvm.mlir.constant(0 : i64) : i64
    %494 = llvm.getelementptr %492[%493, %493] : (!llvm.ptr<array<13 x i8>>, i64, i64) -> !llvm.ptr<i8>
    call @read_tensor_f32(%494, %cast_475) : (!llvm.ptr<i8>, memref<*xf32>) -> ()
    %alloc_476 = memref.alloc() {alignment = 16 : i64} : memref<1024x4096xf32>
    %cast_477 = memref.cast %alloc_476 : memref<1024x4096xf32> to memref<*xf32>
    %495 = llvm.mlir.addressof @constant_165 : !llvm.ptr<array<13 x i8>>
    %496 = llvm.mlir.constant(0 : i64) : i64
    %497 = llvm.getelementptr %495[%496, %496] : (!llvm.ptr<array<13 x i8>>, i64, i64) -> !llvm.ptr<i8>
    call @read_tensor_f32(%497, %cast_477) : (!llvm.ptr<i8>, memref<*xf32>) -> ()
    %alloc_478 = memref.alloc() {alignment = 16 : i64} : memref<4096xf32>
    %cast_479 = memref.cast %alloc_478 : memref<4096xf32> to memref<*xf32>
    %498 = llvm.mlir.addressof @constant_166 : !llvm.ptr<array<13 x i8>>
    %499 = llvm.mlir.constant(0 : i64) : i64
    %500 = llvm.getelementptr %498[%499, %499] : (!llvm.ptr<array<13 x i8>>, i64, i64) -> !llvm.ptr<i8>
    call @read_tensor_f32(%500, %cast_479) : (!llvm.ptr<i8>, memref<*xf32>) -> ()
    %alloc_480 = memref.alloc() {alignment = 16 : i64} : memref<4096x1024xf32>
    %cast_481 = memref.cast %alloc_480 : memref<4096x1024xf32> to memref<*xf32>
    %501 = llvm.mlir.addressof @constant_167 : !llvm.ptr<array<13 x i8>>
    %502 = llvm.mlir.constant(0 : i64) : i64
    %503 = llvm.getelementptr %501[%502, %502] : (!llvm.ptr<array<13 x i8>>, i64, i64) -> !llvm.ptr<i8>
    call @read_tensor_f32(%503, %cast_481) : (!llvm.ptr<i8>, memref<*xf32>) -> ()
    %alloc_482 = memref.alloc() {alignment = 16 : i64} : memref<1024xf32>
    %cast_483 = memref.cast %alloc_482 : memref<1024xf32> to memref<*xf32>
    %504 = llvm.mlir.addressof @constant_168 : !llvm.ptr<array<13 x i8>>
    %505 = llvm.mlir.constant(0 : i64) : i64
    %506 = llvm.getelementptr %504[%505, %505] : (!llvm.ptr<array<13 x i8>>, i64, i64) -> !llvm.ptr<i8>
    call @read_tensor_f32(%506, %cast_483) : (!llvm.ptr<i8>, memref<*xf32>) -> ()
    %alloc_484 = memref.alloc() {alignment = 16 : i64} : memref<1024xf32>
    %cast_485 = memref.cast %alloc_484 : memref<1024xf32> to memref<*xf32>
    %507 = llvm.mlir.addressof @constant_169 : !llvm.ptr<array<13 x i8>>
    %508 = llvm.mlir.constant(0 : i64) : i64
    %509 = llvm.getelementptr %507[%508, %508] : (!llvm.ptr<array<13 x i8>>, i64, i64) -> !llvm.ptr<i8>
    call @read_tensor_f32(%509, %cast_485) : (!llvm.ptr<i8>, memref<*xf32>) -> ()
    %alloc_486 = memref.alloc() {alignment = 16 : i64} : memref<1024xf32>
    %cast_487 = memref.cast %alloc_486 : memref<1024xf32> to memref<*xf32>
    %510 = llvm.mlir.addressof @constant_170 : !llvm.ptr<array<13 x i8>>
    %511 = llvm.mlir.constant(0 : i64) : i64
    %512 = llvm.getelementptr %510[%511, %511] : (!llvm.ptr<array<13 x i8>>, i64, i64) -> !llvm.ptr<i8>
    call @read_tensor_f32(%512, %cast_487) : (!llvm.ptr<i8>, memref<*xf32>) -> ()
    %alloc_488 = memref.alloc() {alignment = 16 : i64} : memref<1024x3072xf32>
    %cast_489 = memref.cast %alloc_488 : memref<1024x3072xf32> to memref<*xf32>
    %513 = llvm.mlir.addressof @constant_171 : !llvm.ptr<array<13 x i8>>
    %514 = llvm.mlir.constant(0 : i64) : i64
    %515 = llvm.getelementptr %513[%514, %514] : (!llvm.ptr<array<13 x i8>>, i64, i64) -> !llvm.ptr<i8>
    call @read_tensor_f32(%515, %cast_489) : (!llvm.ptr<i8>, memref<*xf32>) -> ()
    %alloc_490 = memref.alloc() {alignment = 16 : i64} : memref<3072xf32>
    %cast_491 = memref.cast %alloc_490 : memref<3072xf32> to memref<*xf32>
    %516 = llvm.mlir.addressof @constant_172 : !llvm.ptr<array<13 x i8>>
    %517 = llvm.mlir.constant(0 : i64) : i64
    %518 = llvm.getelementptr %516[%517, %517] : (!llvm.ptr<array<13 x i8>>, i64, i64) -> !llvm.ptr<i8>
    call @read_tensor_f32(%518, %cast_491) : (!llvm.ptr<i8>, memref<*xf32>) -> ()
    %alloc_492 = memref.alloc() {alignment = 16 : i64} : memref<1024x1024xf32>
    %cast_493 = memref.cast %alloc_492 : memref<1024x1024xf32> to memref<*xf32>
    %519 = llvm.mlir.addressof @constant_173 : !llvm.ptr<array<13 x i8>>
    %520 = llvm.mlir.constant(0 : i64) : i64
    %521 = llvm.getelementptr %519[%520, %520] : (!llvm.ptr<array<13 x i8>>, i64, i64) -> !llvm.ptr<i8>
    call @read_tensor_f32(%521, %cast_493) : (!llvm.ptr<i8>, memref<*xf32>) -> ()
    %alloc_494 = memref.alloc() {alignment = 16 : i64} : memref<1024xf32>
    %cast_495 = memref.cast %alloc_494 : memref<1024xf32> to memref<*xf32>
    %522 = llvm.mlir.addressof @constant_174 : !llvm.ptr<array<13 x i8>>
    %523 = llvm.mlir.constant(0 : i64) : i64
    %524 = llvm.getelementptr %522[%523, %523] : (!llvm.ptr<array<13 x i8>>, i64, i64) -> !llvm.ptr<i8>
    call @read_tensor_f32(%524, %cast_495) : (!llvm.ptr<i8>, memref<*xf32>) -> ()
    %alloc_496 = memref.alloc() {alignment = 16 : i64} : memref<1024xf32>
    %cast_497 = memref.cast %alloc_496 : memref<1024xf32> to memref<*xf32>
    %525 = llvm.mlir.addressof @constant_175 : !llvm.ptr<array<13 x i8>>
    %526 = llvm.mlir.constant(0 : i64) : i64
    %527 = llvm.getelementptr %525[%526, %526] : (!llvm.ptr<array<13 x i8>>, i64, i64) -> !llvm.ptr<i8>
    call @read_tensor_f32(%527, %cast_497) : (!llvm.ptr<i8>, memref<*xf32>) -> ()
    %alloc_498 = memref.alloc() {alignment = 16 : i64} : memref<1024xf32>
    %cast_499 = memref.cast %alloc_498 : memref<1024xf32> to memref<*xf32>
    %528 = llvm.mlir.addressof @constant_176 : !llvm.ptr<array<13 x i8>>
    %529 = llvm.mlir.constant(0 : i64) : i64
    %530 = llvm.getelementptr %528[%529, %529] : (!llvm.ptr<array<13 x i8>>, i64, i64) -> !llvm.ptr<i8>
    call @read_tensor_f32(%530, %cast_499) : (!llvm.ptr<i8>, memref<*xf32>) -> ()
    %alloc_500 = memref.alloc() {alignment = 16 : i64} : memref<1024x4096xf32>
    %cast_501 = memref.cast %alloc_500 : memref<1024x4096xf32> to memref<*xf32>
    %531 = llvm.mlir.addressof @constant_177 : !llvm.ptr<array<13 x i8>>
    %532 = llvm.mlir.constant(0 : i64) : i64
    %533 = llvm.getelementptr %531[%532, %532] : (!llvm.ptr<array<13 x i8>>, i64, i64) -> !llvm.ptr<i8>
    call @read_tensor_f32(%533, %cast_501) : (!llvm.ptr<i8>, memref<*xf32>) -> ()
    %alloc_502 = memref.alloc() {alignment = 16 : i64} : memref<4096xf32>
    %cast_503 = memref.cast %alloc_502 : memref<4096xf32> to memref<*xf32>
    %534 = llvm.mlir.addressof @constant_178 : !llvm.ptr<array<13 x i8>>
    %535 = llvm.mlir.constant(0 : i64) : i64
    %536 = llvm.getelementptr %534[%535, %535] : (!llvm.ptr<array<13 x i8>>, i64, i64) -> !llvm.ptr<i8>
    call @read_tensor_f32(%536, %cast_503) : (!llvm.ptr<i8>, memref<*xf32>) -> ()
    %alloc_504 = memref.alloc() {alignment = 16 : i64} : memref<4096x1024xf32>
    %cast_505 = memref.cast %alloc_504 : memref<4096x1024xf32> to memref<*xf32>
    %537 = llvm.mlir.addressof @constant_179 : !llvm.ptr<array<13 x i8>>
    %538 = llvm.mlir.constant(0 : i64) : i64
    %539 = llvm.getelementptr %537[%538, %538] : (!llvm.ptr<array<13 x i8>>, i64, i64) -> !llvm.ptr<i8>
    call @read_tensor_f32(%539, %cast_505) : (!llvm.ptr<i8>, memref<*xf32>) -> ()
    %alloc_506 = memref.alloc() {alignment = 16 : i64} : memref<1024xf32>
    %cast_507 = memref.cast %alloc_506 : memref<1024xf32> to memref<*xf32>
    %540 = llvm.mlir.addressof @constant_180 : !llvm.ptr<array<13 x i8>>
    %541 = llvm.mlir.constant(0 : i64) : i64
    %542 = llvm.getelementptr %540[%541, %541] : (!llvm.ptr<array<13 x i8>>, i64, i64) -> !llvm.ptr<i8>
    call @read_tensor_f32(%542, %cast_507) : (!llvm.ptr<i8>, memref<*xf32>) -> ()
    %alloc_508 = memref.alloc() {alignment = 16 : i64} : memref<1024xf32>
    %cast_509 = memref.cast %alloc_508 : memref<1024xf32> to memref<*xf32>
    %543 = llvm.mlir.addressof @constant_181 : !llvm.ptr<array<13 x i8>>
    %544 = llvm.mlir.constant(0 : i64) : i64
    %545 = llvm.getelementptr %543[%544, %544] : (!llvm.ptr<array<13 x i8>>, i64, i64) -> !llvm.ptr<i8>
    call @read_tensor_f32(%545, %cast_509) : (!llvm.ptr<i8>, memref<*xf32>) -> ()
    %alloc_510 = memref.alloc() {alignment = 16 : i64} : memref<1024xf32>
    %cast_511 = memref.cast %alloc_510 : memref<1024xf32> to memref<*xf32>
    %546 = llvm.mlir.addressof @constant_182 : !llvm.ptr<array<13 x i8>>
    %547 = llvm.mlir.constant(0 : i64) : i64
    %548 = llvm.getelementptr %546[%547, %547] : (!llvm.ptr<array<13 x i8>>, i64, i64) -> !llvm.ptr<i8>
    call @read_tensor_f32(%548, %cast_511) : (!llvm.ptr<i8>, memref<*xf32>) -> ()
    %alloc_512 = memref.alloc() {alignment = 16 : i64} : memref<1024x3072xf32>
    %cast_513 = memref.cast %alloc_512 : memref<1024x3072xf32> to memref<*xf32>
    %549 = llvm.mlir.addressof @constant_183 : !llvm.ptr<array<13 x i8>>
    %550 = llvm.mlir.constant(0 : i64) : i64
    %551 = llvm.getelementptr %549[%550, %550] : (!llvm.ptr<array<13 x i8>>, i64, i64) -> !llvm.ptr<i8>
    call @read_tensor_f32(%551, %cast_513) : (!llvm.ptr<i8>, memref<*xf32>) -> ()
    %alloc_514 = memref.alloc() {alignment = 16 : i64} : memref<3072xf32>
    %cast_515 = memref.cast %alloc_514 : memref<3072xf32> to memref<*xf32>
    %552 = llvm.mlir.addressof @constant_184 : !llvm.ptr<array<13 x i8>>
    %553 = llvm.mlir.constant(0 : i64) : i64
    %554 = llvm.getelementptr %552[%553, %553] : (!llvm.ptr<array<13 x i8>>, i64, i64) -> !llvm.ptr<i8>
    call @read_tensor_f32(%554, %cast_515) : (!llvm.ptr<i8>, memref<*xf32>) -> ()
    %alloc_516 = memref.alloc() {alignment = 16 : i64} : memref<1024x1024xf32>
    %cast_517 = memref.cast %alloc_516 : memref<1024x1024xf32> to memref<*xf32>
    %555 = llvm.mlir.addressof @constant_185 : !llvm.ptr<array<13 x i8>>
    %556 = llvm.mlir.constant(0 : i64) : i64
    %557 = llvm.getelementptr %555[%556, %556] : (!llvm.ptr<array<13 x i8>>, i64, i64) -> !llvm.ptr<i8>
    call @read_tensor_f32(%557, %cast_517) : (!llvm.ptr<i8>, memref<*xf32>) -> ()
    %alloc_518 = memref.alloc() {alignment = 16 : i64} : memref<1024xf32>
    %cast_519 = memref.cast %alloc_518 : memref<1024xf32> to memref<*xf32>
    %558 = llvm.mlir.addressof @constant_186 : !llvm.ptr<array<13 x i8>>
    %559 = llvm.mlir.constant(0 : i64) : i64
    %560 = llvm.getelementptr %558[%559, %559] : (!llvm.ptr<array<13 x i8>>, i64, i64) -> !llvm.ptr<i8>
    call @read_tensor_f32(%560, %cast_519) : (!llvm.ptr<i8>, memref<*xf32>) -> ()
    %alloc_520 = memref.alloc() {alignment = 16 : i64} : memref<1024xf32>
    %cast_521 = memref.cast %alloc_520 : memref<1024xf32> to memref<*xf32>
    %561 = llvm.mlir.addressof @constant_187 : !llvm.ptr<array<13 x i8>>
    %562 = llvm.mlir.constant(0 : i64) : i64
    %563 = llvm.getelementptr %561[%562, %562] : (!llvm.ptr<array<13 x i8>>, i64, i64) -> !llvm.ptr<i8>
    call @read_tensor_f32(%563, %cast_521) : (!llvm.ptr<i8>, memref<*xf32>) -> ()
    %alloc_522 = memref.alloc() {alignment = 16 : i64} : memref<1024xf32>
    %cast_523 = memref.cast %alloc_522 : memref<1024xf32> to memref<*xf32>
    %564 = llvm.mlir.addressof @constant_188 : !llvm.ptr<array<13 x i8>>
    %565 = llvm.mlir.constant(0 : i64) : i64
    %566 = llvm.getelementptr %564[%565, %565] : (!llvm.ptr<array<13 x i8>>, i64, i64) -> !llvm.ptr<i8>
    call @read_tensor_f32(%566, %cast_523) : (!llvm.ptr<i8>, memref<*xf32>) -> ()
    %alloc_524 = memref.alloc() {alignment = 16 : i64} : memref<1024x4096xf32>
    %cast_525 = memref.cast %alloc_524 : memref<1024x4096xf32> to memref<*xf32>
    %567 = llvm.mlir.addressof @constant_189 : !llvm.ptr<array<13 x i8>>
    %568 = llvm.mlir.constant(0 : i64) : i64
    %569 = llvm.getelementptr %567[%568, %568] : (!llvm.ptr<array<13 x i8>>, i64, i64) -> !llvm.ptr<i8>
…
                %1982 = arith.addi %1980, %c0_3540 : index
                %1983 = memref.load %alloc_3465[%1981, %1982] : memref<32x256xf32>
                %1984 = vector.broadcast %1983 : f32 to vector<16xf32>
                %1985 = arith.addi %1980, %c0_3541 : index
                %1986 = arith.addi %c0_3549, %1897 : index
                %1987 = vector.load %alloc_3466[%1985, %1986] : memref<256x64xf32>, vector<16xf32>
                %1988 = affine.load %alloca[%c1] : memref<4xvector<16xf32>>
                %1989 = vector.fma %1984, %1987, %1988 : vector<16xf32>
                affine.store %1989, %alloca[%c1] : memref<4xvector<16xf32>>
                %1990 = affine.apply #map7(%arg54)
                %1991 = arith.addi %c1, %1896 : index
                %1992 = arith.addi %1990, %c0_3540 : index
                %1993 = memref.load %alloc_3465[%1991, %1992] : memref<32x256xf32>
                %1994 = vector.broadcast %1993 : f32 to vector<16xf32>
                %1995 = arith.addi %1990, %c0_3541 : index
                %1996 = arith.addi %c0_3549, %1897 : index
                %1997 = vector.load %alloc_3466[%1995, %1996] : memref<256x64xf32>, vector<16xf32>
                %1998 = affine.load %alloca[%c1] : memref<4xvector<16xf32>>
                %1999 = vector.fma %1994, %1997, %1998 : vector<16xf32>
                affine.store %1999, %alloca[%c1] : memref<4xvector<16xf32>>
                %2000 = arith.addi %c2, %1896 : index
                %2001 = arith.addi %arg54, %c0_3540 : index
                %2002 = memref.load %alloc_3465[%2000, %2001] : memref<32x256xf32>
                %2003 = vector.broadcast %2002 : f32 to vector<16xf32>
                %2004 = arith.addi %arg54, %c0_3541 : index
                %2005 = arith.addi %c0_3549, %1897 : index
                %2006 = vector.load %alloc_3466[%2004, %2005] : memref<256x64xf32>, vector<16xf32>
                %2007 = affine.load %alloca[%c2] : memref<4xvector<16xf32>>
                %2008 = vector.fma %2003, %2006, %2007 : vector<16xf32>
                affine.store %2008, %alloca[%c2] : memref<4xvector<16xf32>>
                %2009 = affine.apply #map5(%arg54)
                %2010 = arith.addi %c2, %1896 : index
                %2011 = arith.addi %2009, %c0_3540 : index
                %2012 = memref.load %alloc_3465[%2010, %2011] : memref<32x256xf32>
                %2013 = vector.broadcast %2012 : f32 to vector<16xf32>
                %2014 = arith.addi %2009, %c0_3541 : index
                %2015 = arith.addi %c0_3549, %1897 : index
                %2016 = vector.load %alloc_3466[%2014, %2015] : memref<256x64xf32>, vector<16xf32>
                %2017 = affine.load %alloca[%c2] : memref<4xvector<16xf32>>
                %2018 = vector.fma %2013, %2016, %2017 : vector<16xf32>
                affine.store %2018, %alloca[%c2] : memref<4xvector<16xf32>>
                %2019 = affine.apply #map6(%arg54)
                %2020 = arith.addi %c2, %1896 : index
                %2021 = arith.addi %2019, %c0_3540 : index
                %2022 = memref.load %alloc_3465[%2020, %2021] : memref<32x256xf32>
                %2023 = vector.broadcast %2022 : f32 to vector<16xf32>
                %2024 = arith.addi %2019, %c0_3541 : index
                %2025 = arith.addi %c0_3549, %1897 : index
                %2026 = vector.load %alloc_3466[%2024, %2025] : memref<256x64xf32>, vector<16xf32>
                %2027 = affine.load %alloca[%c2] : memref<4xvector<16xf32>>
                %2028 = vector.fma %2023, %2026, %2027 : vector<16xf32>
                affine.store %2028, %alloca[%c2] : memref<4xvector<16xf32>>
                %2029 = affine.apply #map7(%arg54)
                %2030 = arith.addi %c2, %1896 : index
                %2031 = arith.addi %2029, %c0_3540 : index
                %2032 = memref.load %alloc_3465[%2030, %2031] : memref<32x256xf32>
                %2033 = vector.broadcast %2032 : f32 to vector<16xf32>
                %2034 = arith.addi %2029, %c0_3541 : index
                %2035 = arith.addi %c0_3549, %1897 : index
                %2036 = vector.load %alloc_3466[%2034, %2035] : memref<256x64xf32>, vector<16xf32>
                %2037 = affine.load %alloca[%c2] : memref<4xvector<16xf32>>
                %2038 = vector.fma %2033, %2036, %2037 : vector<16xf32>
                affine.store %2038, %alloca[%c2] : memref<4xvector<16xf32>>
                %2039 = arith.addi %c3, %1896 : index
                %2040 = arith.addi %arg54, %c0_3540 : index
                %2041 = memref.load %alloc_3465[%2039, %2040] : memref<32x256xf32>
                %2042 = vector.broadcast %2041 : f32 to vector<16xf32>
                %2043 = arith.addi %arg54, %c0_3541 : index
                %2044 = arith.addi %c0_3549, %1897 : index
                %2045 = vector.load %alloc_3466[%2043, %2044] : memref<256x64xf32>, vector<16xf32>
                %2046 = affine.load %alloca[%c3] : memref<4xvector<16xf32>>
                %2047 = vector.fma %2042, %2045, %2046 : vector<16xf32>
                affine.store %2047, %alloca[%c3] : memref<4xvector<16xf32>>
                %2048 = affine.apply #map5(%arg54)
                %2049 = arith.addi %c3, %1896 : index
                %2050 = arith.addi %2048, %c0_3540 : index
                %2051 = memref.load %alloc_3465[%2049, %2050] : memref<32x256xf32>
                %2052 = vector.broadcast %2051 : f32 to vector<16xf32>
                %2053 = arith.addi %2048, %c0_3541 : index
                %2054 = arith.addi %c0_3549, %1897 : index
                %2055 = vector.load %alloc_3466[%2053, %2054] : memref<256x64xf32>, vector<16xf32>
                %2056 = affine.load %alloca[%c3] : memref<4xvector<16xf32>>
                %2057 = vector.fma %2052, %2055, %2056 : vector<16xf32>
                affine.store %2057, %alloca[%c3] : memref<4xvector<16xf32>>
                %2058 = affine.apply #map6(%arg54)
                %2059 = arith.addi %c3, %1896 : index
                %2060 = arith.addi %2058, %c0_3540 : index
                %2061 = memref.load %alloc_3465[%2059, %2060] : memref<32x256xf32>
                %2062 = vector.broadcast %2061 : f32 to vector<16xf32>
                %2063 = arith.addi %2058, %c0_3541 : index
                %2064 = arith.addi %c0_3549, %1897 : index
                %2065 = vector.load %alloc_3466[%2063, %2064] : memref<256x64xf32>, vector<16xf32>
                %2066 = affine.load %alloca[%c3] : memref<4xvector<16xf32>>
                %2067 = vector.fma %2062, %2065, %2066 : vector<16xf32>
                affine.store %2067, %alloca[%c3] : memref<4xvector<16xf32>>
                %2068 = affine.apply #map7(%arg54)
                %2069 = arith.addi %c3, %1896 : index
                %2070 = arith.addi %2068, %c0_3540 : index
                %2071 = memref.load %alloc_3465[%2069, %2070] : memref<32x256xf32>
                %2072 = vector.broadcast %2071 : f32 to vector<16xf32>
                %2073 = arith.addi %2068, %c0_3541 : index
                %2074 = arith.addi %c0_3549, %1897 : index
                %2075 = vector.load %alloc_3466[%2073, %2074] : memref<256x64xf32>, vector<16xf32>
                %2076 = affine.load %alloca[%c3] : memref<4xvector<16xf32>>
                %2077 = vector.fma %2072, %2075, %2076 : vector<16xf32>
                affine.store %2077, %alloca[%c3] : memref<4xvector<16xf32>>
              }
              %1910 = affine.load %alloca[%c0_1] : memref<4xvector<16xf32>>
              %1911 = arith.addi %c0_1, %arg53 : index
              %1912 = arith.addi %c0_3549, %arg52 : index
              vector.store %1910, %alloc_3461[%1911, %1912] : memref<64x4096xf32>, vector<16xf32>
              %1913 = affine.load %alloca[%c1] : memref<4xvector<16xf32>>
              %1914 = arith.addi %c1, %arg53 : index
              %1915 = arith.addi %c0_3549, %arg52 : index
              vector.store %1913, %alloc_3461[%1914, %1915] : memref<64x4096xf32>, vector<16xf32>
              %1916 = affine.load %alloca[%c2] : memref<4xvector<16xf32>>
              %1917 = arith.addi %c2, %arg53 : index
              %1918 = arith.addi %c0_3549, %arg52 : index
              vector.store %1916, %alloc_3461[%1917, %1918] : memref<64x4096xf32>, vector<16xf32>
              %1919 = affine.load %alloca[%c3] : memref<4xvector<16xf32>>
              %1920 = arith.addi %c3, %arg53 : index
              %1921 = arith.addi %c0_3549, %arg52 : index
              vector.store %1919, %alloc_3461[%1920, %1921] : memref<64x4096xf32>, vector<16xf32>
            }
          }
        }
      }
    }
    affine.for %arg49 = 0 to 64 {
      affine.for %arg50 = 0 to 4096 {
        %1896 = affine.load %alloc_3461[%arg49, %arg50] : memref<64x4096xf32>
        %1897 = affine.load %alloc_718[%arg50] : memref<4096xf32>
        %1898 = arith.addf %1896, %1897 : f32
        affine.store %1898, %alloc_3461[%arg49, %arg50] : memref<64x4096xf32>
      }
    }
    %reinterpret_cast_3467 = memref.reinterpret_cast %alloc_3461 to offset: [0], sizes: [64, 1, 4096], strides: [4096, 4096, 1] : memref<64x4096xf32> to memref<64x1x4096xf32>
    %alloc_3468 = memref.alloc() : memref<f32>
    %cast_3469 = memref.cast %alloc_3468 : memref<f32> to memref<*xf32>
    %1875 = llvm.mlir.addressof @constant_888 : !llvm.ptr<array<13 x i8>>
    %1876 = llvm.mlir.constant(0 : i64) : i64
    %1877 = llvm.getelementptr %1875[%1876, %1876] : (!llvm.ptr<array<13 x i8>>, i64, i64) -> !llvm.ptr<i8>
    call @read_tensor_f32(%1877, %cast_3469) : (!llvm.ptr<i8>, memref<*xf32>) -> ()
    %alloc_3470 = memref.alloc() : memref<f32>
    %cast_3471 = memref.cast %alloc_3470 : memref<f32> to memref<*xf32>
    %1878 = llvm.mlir.addressof @constant_889 : !llvm.ptr<array<13 x i8>>
    %1879 = llvm.mlir.constant(0 : i64) : i64
    %1880 = llvm.getelementptr %1878[%1879, %1879] : (!llvm.ptr<array<13 x i8>>, i64, i64) -> !llvm.ptr<i8>
    call @read_tensor_f32(%1880, %cast_3471) : (!llvm.ptr<i8>, memref<*xf32>) -> ()
    %alloc_3472 = memref.alloc() {alignment = 16 : i64} : memref<64x1x4096xf32>
    affine.for %arg49 = 0 to 64 {
      affine.for %arg50 = 0 to 1 {
        affine.for %arg51 = 0 to 4096 {
          %1896 = affine.load %reinterpret_cast_3467[%arg49, %arg50, %arg51] : memref<64x1x4096xf32>
          %1897 = affine.load %alloc_3470[] : memref<f32>
          %1898 = math.powf %1896, %1897 : f32
          affine.store %1898, %alloc_3472[%arg49, %arg50, %arg51] : memref<64x1x4096xf32>
        }
      }
    }
    %alloc_3473 = memref.alloc() : memref<f32>
    %cast_3474 = memref.cast %alloc_3473 : memref<f32> to memref<*xf32>
    %1881 = llvm.mlir.addressof @constant_890 : !llvm.ptr<array<13 x i8>>
    %1882 = llvm.mlir.constant(0 : i64) : i64
    %1883 = llvm.getelementptr %1881[%1882, %1882] : (!llvm.ptr<array<13 x i8>>, i64, i64) -> !llvm.ptr<i8>
    call @read_tensor_f32(%1883, %cast_3474) : (!llvm.ptr<i8>, memref<*xf32>) -> ()
    %alloc_3475 = memref.alloc() {alignment = 16 : i64} : memref<64x1x4096xf32>
    affine.for %arg49 = 0 to 64 {
      affine.for %arg50 = 0 to 1 {
        affine.for %arg51 = 0 to 4096 {
          %1896 = affine.load %alloc_3472[%arg49, %arg50, %arg51] : memref<64x1x4096xf32>
          %1897 = affine.load %alloc_3473[] : memref<f32>
          %1898 = arith.mulf %1896, %1897 : f32
          affine.store %1898, %alloc_3475[%arg49, %arg50, %arg51] : memref<64x1x4096xf32>
        }
      }
    }
    %alloc_3476 = memref.alloc() {alignment = 16 : i64} : memref<64x1x4096xf32>
    affine.for %arg49 = 0 to 64 {
      affine.for %arg50 = 0 to 1 {
        affine.for %arg51 = 0 to 4096 {
          %1896 = affine.load %reinterpret_cast_3467[%arg49, %arg50, %arg51] : memref<64x1x4096xf32>
          %1897 = affine.load %alloc_3475[%arg49, %arg50, %arg51] : memref<64x1x4096xf32>
          %1898 = arith.addf %1896, %1897 : f32
          affine.store %1898, %alloc_3476[%arg49, %arg50, %arg51] : memref<64x1x4096xf32>
        }
      }
    }
    %alloc_3477 = memref.alloc() : memref<f32>
    %cast_3478 = memref.cast %alloc_3477 : memref<f32> to memref<*xf32>
    %1884 = llvm.mlir.addressof @constant_891 : !llvm.ptr<array<13 x i8>>
    %1885 = llvm.mlir.constant(0 : i64) : i64
    %1886 = llvm.getelementptr %1884[%1885, %1885] : (!llvm.ptr<array<13 x i8>>, i64, i64) -> !llvm.ptr<i8>
    call @read_tensor_f32(%1886, %cast_3478) : (!llvm.ptr<i8>, memref<*xf32>) -> ()
    %alloc_3479 = memref.alloc() {alignment = 16 : i64} : memref<64x1x4096xf32>
    affine.for %arg49 = 0 to 64 {
      affine.for %arg50 = 0 to 1 {
        affine.for %arg51 = 0 to 4096 {
          %1896 = affine.load %alloc_3476[%arg49, %arg50, %arg51] : memref<64x1x4096xf32>
          %1897 = affine.load %alloc_3477[] : memref<f32>
          %1898 = arith.mulf %1896, %1897 : f32
          affine.store %1898, %alloc_3479[%arg49, %arg50, %arg51] : memref<64x1x4096xf32>
        }
      }
    }
    %alloc_3480 = memref.alloc() {alignment = 16 : i64} : memref<64x1x4096xf32>
    affine.for %arg49 = 0 to 64 {
      affine.for %arg50 = 0 to 1 {
        affine.for %arg51 = 0 to 4096 {
          %1896 = affine.load %alloc_3479[%arg49, %arg50, %arg51] : memref<64x1x4096xf32>
          %1897 = math.tanh %1896 : f32
          affine.store %1897, %alloc_3480[%arg49, %arg50, %arg51] : memref<64x1x4096xf32>
        }
      }
    }
    %alloc_3481 = memref.alloc() : memref<f32>
    %cast_3482 = memref.cast %alloc_3481 : memref<f32> to memref<*xf32>
    %1887 = llvm.mlir.addressof @constant_892 : !llvm.ptr<array<13 x i8>>
    %1888 = llvm.mlir.constant(0 : i64) : i64
    %1889 = llvm.getelementptr %1887[%1888, %1888] : (!llvm.ptr<array<13 x i8>>, i64, i64) -> !llvm.ptr<i8>
    call @read_tensor_f32(%1889, %cast_3482) : (!llvm.ptr<i8>, memref<*xf32>) -> ()
    %alloc_3483 = memref.alloc() {alignment = 16 : i64} : memref<64x1x4096xf32>
    affine.for %arg49 = 0 to 64 {
      affine.for %arg50 = 0 to 1 {
        affine.for %arg51 = 0 to 4096 {
          %1896 = affine.load %alloc_3480[%arg49, %arg50, %arg51] : memref<64x1x4096xf32>
          %1897 = affine.load %alloc_3481[] : memref<f32>
          %1898 = arith.addf %1896, %1897 : f32
          affine.store %1898, %alloc_3483[%arg49, %arg50, %arg51] : memref<64x1x4096xf32>
        }
      }
    }
    %alloc_3484 = memref.alloc() {alignment = 16 : i64} : memref<64x1x4096xf32>
    affine.for %arg49 = 0 to 64 {
      affine.for %arg50 = 0 to 1 {
        affine.for %arg51 = 0 to 4096 {
          %1896 = affine.load %reinterpret_cast_3467[%arg49, %arg50, %arg51] : memref<64x1x4096xf32>
          %1897 = affine.load %alloc_3483[%arg49, %arg50, %arg51] : memref<64x1x4096xf32>
          %1898 = arith.mulf %1896, %1897 : f32
          affine.store %1898, %alloc_3484[%arg49, %arg50, %arg51] : memref<64x1x4096xf32>
        }
      }
    }
    %alloc_3485 = memref.alloc() {alignment = 16 : i64} : memref<64x1x4096xf32>
    affine.for %arg49 = 0 to 64 {
      affine.for %arg50 = 0 to 1 {
        affine.for %arg51 = 0 to 4096 {
          %1896 = affine.load %alloc_3484[%arg49, %arg50, %arg51] : memref<64x1x4096xf32>
          %1897 = affine.load %alloc_3468[] : memref<f32>
          %1898 = arith.mulf %1896, %1897 : f32
          affine.store %1898, %alloc_3485[%arg49, %arg50, %arg51] : memref<64x1x4096xf32>
        }
      }
    }
    %reinterpret_cast_3486 = memref.reinterpret_cast %alloc_3485 to offset: [0], sizes: [64, 4096], strides: [4096, 1] : memref<64x1x4096xf32> to memref<64x4096xf32>
    %alloc_3487 = memref.alloc() {alignment = 128 : i64} : memref<64x1024xf32>
    %c64_3488 = arith.constant 64 : index
    %c1024_3489 = arith.constant 1024 : index
    %c0_3490 = arith.constant 0 : index
    affine.for %arg49 = 0 to 64 {
      affine.for %arg50 = 0 to 1024 {
        affine.store %cst_145, %alloc_3487[%arg49, %arg50] : memref<64x1024xf32>
      }
    }
    %alloc_3491 = memref.alloc() {alignment = 128 : i64} : memref<32x256xf32>
    %alloc_3492 = memref.alloc() {alignment = 128 : i64} : memref<256x64xf32>
    affine.for %arg49 = 0 to 1024 step 64 {
      affine.for %arg50 = 0 to 4096 step 256 {
        %c256_3514 = arith.constant 256 : index
        %c64_3515 = arith.constant 64 : index
        %c4096_3516 = arith.constant 4096 : index
        %c1024_3517 = arith.constant 1024 : index
        %c1_3518 = arith.constant 1 : index
        %c1_3519 = arith.constant 1 : index
        %c0_3520 = arith.constant 0 : index
        affine.for %arg51 = 0 to 256 {
          affine.for %arg52 = 0 to 64 {
            %1896 = affine.apply #map(%arg50, %arg51)
            %1897 = affine.apply #map(%arg49, %arg52)
            %1898 = affine.load %alloc_720[%1896, %1897] : memref<4096x1024xf32>
            affine.store %1898, %alloc_3492[%arg51, %arg52] : memref<256x64xf32>
          }
        }
        affine.for %arg51 = 0 to 64 step 32 {
          %c32 = arith.constant 32 : index
          %c256_3521 = arith.constant 256 : index
          %c64_3522 = arith.constant 64 : index
          %c4096_3523 = arith.constant 4096 : index
          %c1_3524 = arith.constant 1 : index
          %c1_3525 = arith.constant 1 : index
          %c0_3526 = arith.constant 0 : index
          affine.for %arg52 = 0 to 32 {
            affine.for %arg53 = 0 to 256 {
              %1896 = affine.apply #map(%arg51, %arg52)
              %1897 = affine.apply #map(%arg50, %arg53)
              %1898 = affine.load %reinterpret_cast_3486[%1896, %1897] : memref<64x4096xf32>
              affine.store %1898, %alloc_3491[%arg52, %arg53] : memref<32x256xf32>
            }
          }
          affine.for %arg52 = #map1(%arg49) to #map2(%arg49) step 16 {
            affine.for %arg53 = #map1(%arg51) to #map3(%arg51) step 4 {
              %c32_3527 = arith.constant 32 : index
              %c256_3528 = arith.constant 256 : index
              %c256_3529 = arith.constant 256 : index
              %c64_3530 = arith.constant 64 : index
              %c64_3531 = arith.constant 64 : index
              %c1024_3532 = arith.constant 1024 : index
              %c4_3533 = arith.constant 4 : index
              %c16_3534 = arith.constant 16 : index
              %c256_3535 = arith.constant 256 : index
              %c64_3536 = arith.constant 64 : index
              %c1024_3537 = arith.constant 1024 : index
              %c4096_3538 = arith.constant 4096 : index
              %c1_3539 = arith.constant 1 : index
              %1896 = affine.apply #map4(%arg51, %arg53)
              %c0_3540 = arith.constant 0 : index
              %c0_3541 = arith.constant 0 : index
              %1897 = affine.apply #map4(%arg49, %arg52)
              %c0_3542 = arith.constant 0 : index
              %c0_3543 = arith.constant 0 : index
              %c1_3544 = arith.constant 1 : index
              %c1_3545 = arith.constant 1 : index
              %c1_3546 = arith.constant 1 : index
              %c0_3547 = arith.constant 0 : index
              %alloca = memref.alloca() {alignment = 64 : i64} : memref<4xvector<16xf32>>
              %c0_3548 = arith.constant 0 : index
              %c0_3549 = arith.constant 0 : index
              %1898 = arith.addi %c0_0, %arg53 : index
              %1899 = arith.addi %c0_3549, %arg52 : index
              %1900 = vector.load %alloc_3487[%1898, %1899] : memref<64x1024xf32>, vector<16xf32>
              affine.store %1900, %alloca[%c0_0] : memref<4xvector<16xf32>>
              %1901 = arith.addi %c1, %arg53 : index
              %1902 = arith.addi %c0_3549, %arg52 : index
              %1903 = vector.load %alloc_3487[%1901, %1902] : memref<64x1024xf32>, vector<16xf32>
              affine.store %1903, %alloca[%c1] : memref<4xvector<16xf32>>
              %1904 = arith.addi %c2, %arg53 : index
              %1905 = arith.addi %c0_3549, %arg52 : index
              %1906 = vector.load %alloc_3487[%1904, %1905] : memref<64x1024xf32>, vector<16xf32>
              affine.store %1906, %alloca[%c2] : memref<4xvector<16xf32>>
              %1907 = arith.addi %c3, %arg53 : index
              %1908 = arith.addi %c0_3549, %arg52 : index
              %1909 = vector.load %alloc_3487[%1907, %1908] : memref<64x1024xf32>, vector<16xf32>
              affine.store %1909, %alloca[%c3] : memref<4xvector<16xf32>>
              affine.for %arg54 = 0 to 256 step 4 {
                %1922 = arith.addi %c0_0, %1896 : index
                %1923 = arith.addi %arg54, %c0_3540 : index
                %1924 = memref.load %alloc_3491[%1922, %1923] : memref<32x256xf32>
                %1925 = vector.broadcast %1924 : f32 to vector<16xf32>
                %1926 = arith.addi %arg54, %c0_3541 : index
                %1927 = arith.addi %c0_3549, %1897 : index
                %1928 = vector.load %alloc_3492[%1926, %1927] : memref<256x64xf32>, vector<16xf32>
                %1929 = affine.load %alloca[%c0_0] : memref<4xvector<16xf32>>
                %1930 = vector.fma %1925, %1928, %1929 : vector<16xf32>
                affine.store %1930, %alloca[%c0_0] : memref<4xvector<16xf32>>
                %1931 = affine.apply #map5(%arg54)
                %1932 = arith.addi %c0_0, %1896 : index
                %1933 = arith.addi %1931, %c0_3540 : index
                %1934 = memref.load %alloc_3491[%1932, %1933] : memref<32x256xf32>
                %1935 = vector.broadcast %1934 : f32 to vector<16xf32>
                %1936 = arith.addi %1931, %c0_3541 : index
                %1937 = arith.addi %c0_3549, %1897 : index
                %1938 = vector.load %alloc_3492[%1936, %1937] : memref<256x64xf32>, vector<16xf32>
                %1939 = affine.load %alloca[%c0_0] : memref<4xvector<16xf32>>
                %1940 = vector.fma %1935, %1938, %1939 : vector<16xf32>
                affine.store %1940, %alloca[%c0_0] : memref<4xvector<16xf32>>
                %1941 = affine.apply #map6(%arg54)
                %1942 = arith.addi %c0_0, %1896 : index
                %1943 = arith.addi %1941, %c0_3540 : index
                %1944 = memref.load %alloc_3491[%1942, %1943] : memref<32x256xf32>
                %1945 = vector.broadcast %1944 : f32 to vector<16xf32>
                %1946 = arith.addi %1941, %c0_3541 : index
                %1947 = arith.addi %c0_3549, %1897 : index
                %1948 = vector.load %alloc_3492[%1946, %1947] : memref<256x64xf32>, vector<16xf32>
                %1949 = affine.load %alloca[%c0_0] : memref<4xvector<16xf32>>
                %1950 = vector.fma %1945, %1948, %1949 : vector<16xf32>
                affine.store %1950, %alloca[%c0_0] : memref<4xvector<16xf32>>
                %1951 = affine.apply #map7(%arg54)
                %1952 = arith.addi %c0_0, %1896 : index
                %1953 = arith.addi %1951, %c0_3540 : index
                %1954 = memref.load %alloc_3491[%1952, %1953] : memref<32x256xf32>
                %1955 = vector.broadcast %1954 : f32 to vector<16xf32>
                %1956 = arith.addi %1951, %c0_3541 : index
                %1957 = arith.addi %c0_3549, %1897 : index
                %1958 = vector.load %alloc_3492[%1956, %1957] : memref<256x64xf32>, vector<16xf32>
                %1959 = affine.load %alloca[%c0_0] : memref<4xvector<16xf32>>
                %1960 = vector.fma %1955, %1958, %1959 : vector<16xf32>
                affine.store %1960, %alloca[%c0_0] : memref<4xvector<16xf32>>
                %1961 = arith.addi %c1, %1896 : index
                %1962 = arith.addi %arg54, %c0_3540 : index
                %1963 = memref.load %alloc_3491[%1961, %1962] : memref<32x256xf32>
                %1964 = vector.broadcast %1963 : f32 to vector<16xf32>
                %1965 = arith.addi %arg54, %c0_3541 : index
                %1966 = arith.addi %c0_3549, %1897 : index
                %1967 = vector.load %alloc_3492[%1965, %1966] : memref<256x64xf32>, vector<16xf32>
                %1968 = affine.load %alloca[%c1] : memref<4xvector<16xf32>>
                %1969 = vector.fma %1964, %1967, %1968 : vector<16xf32>
                affine.store %1969, %alloca[%c1] : memref<4xvector<16xf32>>
                %1970 = affine.apply #map5(%arg54)
                %1971 = arith.addi %c1, %1896 : index
                %1972 = arith.addi %1970, %c0_3540 : index
                %1973 = memref.load %alloc_3491[%1971, %1972] : memref<32x256xf32>
                %1974 = vector.broadcast %1973 : f32 to vector<16xf32>
                %1975 = arith.addi %1970, %c0_3541 : index
                %1976 = arith.addi %c0_3549, %1897 : index
                %1977 = vector.load %alloc_3492[%1975, %1976] : memref<256x64xf32>, vector<16xf32>
                %1978 = affine.load %alloca[%c1] : memref<4xvector<16xf32>>
                %1979 = vector.fma %1974, %1977, %1978 : vector<16xf32>
                affine.store %1979, %alloca[%c1] : memref<4xvector<16xf32>>
                %1980 = affine.apply #map6(%arg54)
                %1981 = arith.addi %c1, %1896 : index
                %1982 = arith.addi %1980, %c0_3540 : index
                %1983 = memref.load %alloc_3491[%1981, %1982] : memref<32x256xf32>
                %1984 = vector.broadcast %1983 : f32 to vector<16xf32>
                %1985 = arith.addi %1980, %c0_3541 : index
                %1986 = arith.addi %c0_3549, %1897 : index
                %1987 = vector.load %alloc_3492[%1985, %1986] : memref<256x64xf32>, vector<16xf32>
                %1988 = affine.load %alloca[%c1] : memref<4xvector<16xf32>>
                %1989 = vector.fma %1984, %1987, %1988 : vector<16xf32>
                affine.store %1989, %alloca[%c1] : memref<4xvector<16xf32>>
                %1990 = affine.apply #map7(%arg54)
                %1991 = arith.addi %c1, %1896 : index
                %1992 = arith.addi %1990, %c0_3540 : index
                %1993 = memref.load %alloc_3491[%1991, %1992] : memref<32x256xf32>
                %1994 = vector.broadcast %1993 : f32 to vector<16xf32>
                %1995 = arith.addi %1990, %c0_3541 : index
                %1996 = arith.addi %c0_3549, %1897 : index
                %1997 = vector.load %alloc_3492[%1995, %1996] : memref<256x64xf32>, vector<16xf32>
                %1998 = affine.load %alloca[%c1] : memref<4xvector<16xf32>>
                %1999 = vector.fma %1994, %1997, %1998 : vector<16xf32>
                affine.store %1999, %alloca[%c1] : memref<4xvector<16xf32>>
                %2000 = arith.addi %c2, %1896 : index
                %2001 = arith.addi %arg54, %c0_3540 : index
                %2002 = memref.load %alloc_3491[%2000, %2001] : memref<32x256xf32>
                %2003 = vector.broadcast %2002 : f32 to vector<16xf32>
                %2004 = arith.addi %arg54, %c0_3541 : index
                %2005 = arith.addi %c0_3549, %1897 : index
                %2006 = vector.load %alloc_3492[%2004, %2005] : memref<256x64xf32>, vector<16xf32>
                %2007 = affine.load %alloca[%c2] : memref<4xvector<16xf32>>
                %2008 = vector.fma %2003, %2006, %2007 : vector<16xf32>
                affine.store %2008, %alloca[%c2] : memref<4xvector<16xf32>>
                %2009 = affine.apply #map5(%arg54)
                %2010 = arith.addi %c2, %1896 : index
                %2011 = arith.addi %2009, %c0_3540 : index
                %2012 = memref.load %alloc_3491[%2010, %2011] : memref<32x256xf32>
                %2013 = vector.broadcast %2012 : f32 to vector<16xf32>
                %2014 = arith.addi %2009, %c0_3541 : index
                %2015 = arith.addi %c0_3549, %1897 : index
                %2016 = vector.load %alloc_3492[%2014, %2015] : memref<256x64xf32>, vector<16xf32>
                %2017 = affine.load %alloca[%c2] : memref<4xvector<16xf32>>
                %2018 = vector.fma %2013, %2016, %2017 : vector<16xf32>
                affine.store %2018, %alloca[%c2] : memref<4xvector<16xf32>>
                %2019 = affine.apply #map6(%arg54)
                %2020 = arith.addi %c2, %1896 : index
                %2021 = arith.addi %2019, %c0_3540 : index
                %2022 = memref.load %alloc_3491[%2020, %2021] : memref<32x256xf32>
                %2023 = vector.broadcast %2022 : f32 to vector<16xf32>
                %2024 = arith.addi %2019, %c0_3541 : index
                %2025 = arith.addi %c0_3549, %1897 : index
                %2026 = vector.load %alloc_3492[%2024, %2025] : memref<256x64xf32>, vector<16xf32>
                %2027 = affine.load %alloca[%c2] : memref<4xvector<16xf32>>
                %2028 = vector.fma %2023, %2026, %2027 : vector<16xf32>
                affine.store %2028, %alloca[%c2] : memref<4xvector<16xf32>>
                %2029 = affine.apply #map7(%arg54)
                %2030 = arith.addi %c2, %1896 : index
                %2031 = arith.addi %2029, %c0_3540 : index
                %2032 = memref.load %alloc_3491[%2030, %2031] : memref<32x256xf32>
                %2033 = vector.broadcast %2032 : f32 to vector<16xf32>
                %2034 = arith.addi %2029, %c0_3541 : index
                %2035 = arith.addi %c0_3549, %1897 : index
                %2036 = vector.load %alloc_3492[%2034, %2035] : memref<256x64xf32>, vector<16xf32>
                %2037 = affine.load %alloca[%c2] : memref<4xvector<16xf32>>
                %2038 = vector.fma %2033, %2036, %2037 : vector<16xf32>
                affine.store %2038, %alloca[%c2] : memref<4xvector<16xf32>>
                %2039 = arith.addi %c3, %1896 : index
                %2040 = arith.addi %arg54, %c0_3540 : index
                %2041 = memref.load %alloc_3491[%2039, %2040] : memref<32x256xf32>
                %2042 = vector.broadcast %2041 : f32 to vector<16xf32>
                %2043 = arith.addi %arg54, %c0_3541 : index
                %2044 = arith.addi %c0_3549, %1897 : index
                %2045 = vector.load %alloc_3492[%2043, %2044] : memref<256x64xf32>, vector<16xf32>
                %2046 = affine.load %alloca[%c3] : memref<4xvector<16xf32>>
                %2047 = vector.fma %2042, %2045, %2046 : vector<16xf32>
                affine.store %2047, %alloca[%c3] : memref<4xvector<16xf32>>
                %2048 = affine.apply #map5(%arg54)
                %2049 = arith.addi %c3, %1896 : index
                %2050 = arith.addi %2048, %c0_3540 : index
                %2051 = memref.load %alloc_3491[%2049, %2050] : memref<32x256xf32>
                %2052 = vector.broadcast %2051 : f32 to vector<16xf32>
                %2053 = arith.addi %2048, %c0_3541 : index
                %2054 = arith.addi %c0_3549, %1897 : index
                %2055 = vector.load %alloc_3492[%2053, %2054] : memref<256x64xf32>, vector<16xf32>
                %2056 = affine.load %alloca[%c3] : memref<4xvector<16xf32>>
                %2057 = vector.fma %2052, %2055, %2056 : vector<16xf32>
                affine.store %2057, %alloca[%c3] : memref<4xvector<16xf32>>
                %2058 = affine.apply #map6(%arg54)
                %2059 = arith.addi %c3, %1896 : index
                %2060 = arith.addi %2058, %c0_3540 : index
                %2061 = memref.load %alloc_3491[%2059, %2060] : memref<32x256xf32>
                %2062 = vector.broadcast %2061 : f32 to vector<16xf32>
                %2063 = arith.addi %2058, %c0_3541 : index
                %2064 = arith.addi %c0_3549, %1897 : index
                %2065 = vector.load %alloc_3492[%2063, %2064] : memref<256x64xf32>, vector<16xf32>
                %2066 = affine.load %alloca[%c3] : memref<4xvector<16xf32>>
                %2067 = vector.fma %2062, %2065, %2066 : vector<16xf32>
                affine.store %2067, %alloca[%c3] : memref<4xvector<16xf32>>
                %2068 = affine.apply #map7(%arg54)
                %2069 = arith.addi %c3, %1896 : index
                %2070 = arith.addi %2068, %c0_3540 : index
                %2071 = memref.load %alloc_3491[%2069, %2070] : memref<32x256xf32>
                %2072 = vector.broadcast %2071 : f32 to vector<16xf32>
                %2073 = arith.addi %2068, %c0_3541 : index
                %2074 = arith.addi %c0_3549, %1897 : index
                %2075 = vector.load %alloc_3492[%2073, %2074] : memref<256x64xf32>, vector<16xf32>
                %2076 = affine.load %alloca[%c3] : memref<4xvector<16xf32>>
                %2077 = vector.fma %2072, %2075, %2076 : vector<16xf32>
                affine.store %2077, %alloca[%c3] : memref<4xvector<16xf32>>
              }
              %1910 = affine.load %alloca[%c0_0] : memref<4xvector<16xf32>>
              %1911 = arith.addi %c0_0, %arg53 : index
              %1912 = arith.addi %c0_3549, %arg52 : index
              vector.store %1910, %alloc_3487[%1911, %1912] : memref<64x1024xf32>, vector<16xf32>
              %1913 = affine.load %alloca[%c1] : memref<4xvector<16xf32>>
              %1914 = arith.addi %c1, %arg53 : index
              %1915 = arith.addi %c0_3549, %arg52 : index
              vector.store %1913, %alloc_3487[%1914, %1915] : memref<64x1024xf32>, vector<16xf32>
              %1916 = affine.load %alloca[%c2] : memref<4xvector<16xf32>>
              %1917 = arith.addi %c2, %arg53 : index
              %1918 = arith.addi %c0_3549, %arg52 : index
              vector.store %1916, %alloc_3487[%1917, %1918] : memref<64x1024xf32>, vector<16xf32>
              %1919 = affine.load %alloca[%c3] : memref<4xvector<16xf32>>
              %1920 = arith.addi %c3, %arg53 : index
              %1921 = arith.addi %c0_3549, %arg52 : index
              vector.store %1919, %alloc_3487[%1920, %1921] : memref<64x1024xf32>, vector<16xf32>
            }
          }
        }
      }
    }
    affine.for %arg49 = 0 to 64 {
      affine.for %arg50 = 0 to 1024 {
        %1896 = affine.load %alloc_3487[%arg49, %arg50] : memref<64x1024xf32>
        %1897 = affine.load %alloc_722[%arg50] : memref<1024xf32>
        %1898 = arith.addf %1896, %1897 : f32
        affine.store %1898, %alloc_3487[%arg49, %arg50] : memref<64x1024xf32>
      }
    }
    %reinterpret_cast_3493 = memref.reinterpret_cast %alloc_3487 to offset: [0], sizes: [64, 1, 1024], strides: [1024, 1024, 1] : memref<64x1024xf32> to memref<64x1x1024xf32>
    %alloc_3494 = memref.alloc() {alignment = 16 : i64} : memref<64x1x1024xf32>
    affine.for %arg49 = 0 to 64 {
      affine.for %arg50 = 0 to 1 {
        affine.for %arg51 = 0 to 1024 {
          %1896 = affine.load %alloc_3445[%arg49, %arg50, %arg51] : memref<64x1x1024xf32>
          %1897 = affine.load %reinterpret_cast_3493[%arg49, %arg50, %arg51] : memref<64x1x1024xf32>
          %1898 = arith.addf %1896, %1897 : f32
          affine.store %1898, %alloc_3494[%arg49, %arg50, %arg51] : memref<64x1x1024xf32>
        }
      }
    }
    %alloc_3495 = memref.alloc() {alignment = 16 : i64} : memref<64x1x1024xf32>
    affine.for %arg49 = 0 to 64 {
      affine.for %arg50 = 0 to 1 {
        affine.for %arg51 = 0 to 1024 {
          %1896 = affine.load %alloc_3494[%arg49, %arg50, %arg51] : memref<64x1x1024xf32>
          %1897 = affine.load %alloc_731[%c0_146, %arg50, %arg51] : memref<1x1x1024xf32>
          %1898 = arith.addf %1896, %1897 : f32
          affine.store %1898, %alloc_3495[%arg49, %arg50, %arg51] : memref<64x1x1024xf32>
        }
      }
    }
    %alloc_3496 = memref.alloc() {alignment = 16 : i64} : memref<64x1x1xf32>
    affine.for %arg49 = 0 to 64 {
      affine.for %arg50 = 0 to 1 {
        affine.for %arg51 = 0 to 1 {
          affine.store %cst_145, %alloc_3496[%arg49, %arg50, %arg51] : memref<64x1x1xf32>
        }
      }
    }
    affine.for %arg49 = 0 to 64 {
      affine.for %arg50 = 0 to 1 {
        affine.for %arg51 = 0 to 1024 {
          %1896 = affine.load %alloc_3495[%arg49, %arg50, %arg51] : memref<64x1x1024xf32>
          %1897 = affine.load %alloc_3496[%arg49, %arg50, %c0_146] : memref<64x1x1xf32>
          %1898 = arith.addf %1897, %1896 : f32
          affine.store %1898, %alloc_3496[%arg49, %arg50, %c0_146] : memref<64x1x1xf32>
        }
      }
    }
    affine.for %arg49 = 0 to 64 {
      affine.for %arg50 = 0 to 1 {
        affine.for %arg51 = 0 to 1 {
          %1896 = affine.load %alloc_3496[%arg49, %arg50, %arg51] : memref<64x1x1xf32>
          %1897 = arith.divf %1896, %cst : f32
          affine.store %1897, %alloc_3496[%arg49, %arg50, %arg51] : memref<64x1x1xf32>
        }
      }
    }
    %alloc_3497 = memref.alloc() {alignment = 16 : i64} : memref<64x1x1024xf32>
    affine.for %arg49 = 0 to 64 {
      affine.for %arg50 = 0 to 1 {
        affine.for %arg51 = 0 to 1024 {
          %1896 = affine.load %alloc_3495[%arg49, %arg50, %arg51] : memref<64x1x1024xf32>
          %1897 = affine.load %alloc_3496[%arg49, %arg50, %c0_146] : memref<64x1x1xf32>
          %1898 = arith.subf %1896, %1897 : f32
          affine.store %1898, %alloc_3497[%arg49, %arg50, %arg51] : memref<64x1x1024xf32>
        }
      }
    }
    %alloc_3498 = memref.alloc() : memref<f32>
    %cast_3499 = memref.cast %alloc_3498 : memref<f32> to memref<*xf32>
    %1890 = llvm.mlir.addressof @constant_895 : !llvm.ptr<array<13 x i8>>
    %1891 = llvm.mlir.constant(0 : i64) : i64
    %1892 = llvm.getelementptr %1890[%1891, %1891] : (!llvm.ptr<array<13 x i8>>, i64, i64) -> !llvm.ptr<i8>
    call @read_tensor_f32(%1892, %cast_3499) : (!llvm.ptr<i8>, memref<*xf32>) -> ()
    %alloc_3500 = memref.alloc() {alignment = 16 : i64} : memref<64x1x1024xf32>
    affine.for %arg49 = 0 to 64 {
      affine.for %arg50 = 0 to 1 {
        affine.for %arg51 = 0 to 1024 {
          %1896 = affine.load %alloc_3497[%arg49, %arg50, %arg51] : memref<64x1x1024xf32>
          %1897 = affine.load %alloc_3498[] : memref<f32>
          %1898 = math.powf %1896, %1897 : f32
          affine.store %1898, %alloc_3500[%arg49, %arg50, %arg51] : memref<64x1x1024xf32>
        }
      }
    }
    %alloc_3501 = memref.alloc() {alignment = 16 : i64} : memref<64x1x1xf32>
    affine.for %arg49 = 0 to 64 {
      affine.for %arg50 = 0 to 1 {
        affine.for %arg51 = 0 to 1 {
          affine.store %cst_145, %alloc_3501[%arg49, %arg50, %arg51] : memref<64x1x1xf32>
        }
      }
    }
    affine.for %arg49 = 0 to 64 {
      affine.for %arg50 = 0 to 1 {
        affine.for %arg51 = 0 to 1024 {
          %1896 = affine.load %alloc_3500[%arg49, %arg50, %arg51] : memref<64x1x1024xf32>
          %1897 = affine.load %alloc_3501[%arg49, %arg50, %c0_146] : memref<64x1x1xf32>
          %1898 = arith.addf %1897, %1896 : f32
          affine.store %1898, %alloc_3501[%arg49, %arg50, %c0_146] : memref<64x1x1xf32>
        }
      }
    }
    affine.for %arg49 = 0 to 64 {
      affine.for %arg50 = 0 to 1 {
        affine.for %arg51 = 0 to 1 {
          %1896 = affine.load %alloc_3501[%arg49, %arg50, %arg51] : memref<64x1x1xf32>
          %1897 = arith.divf %1896, %cst : f32
          affine.store %1897, %alloc_3501[%arg49, %arg50, %arg51] : memref<64x1x1xf32>
        }
      }
    }
    %alloc_3502 = memref.alloc() : memref<f32>
    %cast_3503 = memref.cast %alloc_3502 : memref<f32> to memref<*xf32>
    %1893 = llvm.mlir.addressof @constant_896 : !llvm.ptr<array<13 x i8>>
    %1894 = llvm.mlir.constant(0 : i64) : i64
    %1895 = llvm.getelementptr %1893[%1894, %1894] : (!llvm.ptr<array<13 x i8>>, i64, i64) -> !llvm.ptr<i8>
    call @read_tensor_f32(%1895, %cast_3503) : (!llvm.ptr<i8>, memref<*xf32>) -> ()
    %alloc_3504 = memref.alloc() {alignment = 16 : i64} : memref<64x1x1xf32>
    affine.for %arg49 = 0 to 64 {
      affine.for %arg50 = 0 to 1 {
        affine.for %arg51 = 0 to 1 {
          %1896 = affine.load %alloc_3501[%arg49, %arg50, %arg51] : memref<64x1x1xf32>
          %1897 = affine.load %alloc_3502[] : memref<f32>
          %1898 = arith.addf %1896, %1897 : f32
          affine.store %1898, %alloc_3504[%arg49, %arg50, %arg51] : memref<64x1x1xf32>
        }
      }
    }
    %alloc_3505 = memref.alloc() {alignment = 16 : i64} : memref<64x1x1xf32>
    affine.for %arg49 = 0 to 64 {
      affine.for %arg50 = 0 to 1 {
        affine.for %arg51 = 0 to 1 {
          %1896 = affine.load %alloc_3504[%arg49, %arg50, %arg51] : memref<64x1x1xf32>
          %1897 = math.sqrt %1896 : f32
          affine.store %1897, %alloc_3505[%arg49, %arg50, %arg51] : memref<64x1x1xf32>
        }
      }
    }
    %alloc_3506 = memref.alloc() {alignment = 16 : i64} : memref<64x1x1024xf32>
    affine.for %arg49 = 0 to 64 {
      affine.for %arg50 = 0 to 1 {
        affine.for %arg51 = 0 to 1024 {
          %1896 = affine.load %alloc_3497[%arg49, %arg50, %arg51] : memref<64x1x1024xf32>
          %1897 = affine.load %alloc_3505[%arg49, %arg50, %c0_146] : memref<64x1x1xf32>
          %1898 = arith.divf %1896, %1897 : f32
          affine.store %1898, %alloc_3506[%arg49, %arg50, %arg51] : memref<64x1x1024xf32>
        }
      }
    }
    %alloc_3507 = memref.alloc() {alignment = 16 : i64} : memref<64x1x1024xf32>
    affine.for %arg49 = 0 to 64 {
      affine.for %arg50 = 0 to 1 {
        affine.for %arg51 = 0 to 1024 {
          %1896 = affine.load %alloc_3506[%arg49, %arg50, %arg51] : memref<64x1x1024xf32>
          %1897 = affine.load %alloc_724[%arg51] : memref<1024xf32>
          %1898 = arith.mulf %1896, %1897 : f32
          affine.store %1898, %alloc_3507[%arg49, %arg50, %arg51] : memref<64x1x1024xf32>
        }
      }
    }
    %alloc_3508 = memref.alloc() {alignment = 16 : i64} : memref<64x1x1024xf32>
    affine.for %arg49 = 0 to 64 {
      affine.for %arg50 = 0 to 1 {
        affine.for %arg51 = 0 to 1024 {
          %1896 = affine.load %alloc_3507[%arg49, %arg50, %arg51] : memref<64x1x1024xf32>
          %1897 = affine.load %alloc_726[%arg51] : memref<1024xf32>
          %1898 = arith.addf %1896, %1897 : f32
          affine.store %1898, %alloc_3508[%arg49, %arg50, %arg51] : memref<64x1x1024xf32>
        }
      }
    }
    %alloc_3509 = memref.alloc() {alignment = 16 : i64} : memref<64x1x50264xf32>
    %c64_3510 = arith.constant 64 : index
    %c1_3511 = arith.constant 1 : index
    %c50264_3512 = arith.constant 50264 : index
    %c0_3513 = arith.constant 0 : index
    affine.for %arg49 = 0 to 64 {
      affine.for %arg50 = 0 to 1 {
        affine.for %arg51 = 0 to 50264 {
          affine.store %cst_145, %alloc_3509[%arg49, %arg50, %arg51] : memref<64x1x50264xf32>
        }
      }
    }
    affine.for %arg49 = 0 to 64 {
      affine.for %arg50 = 0 to 1 {
        affine.for %arg51 = 0 to 50264 step 8 {
          affine.for %arg52 = 0 to 1024 step 8 {
            %c64_3514 = arith.constant 64 : index
            %c1_3515 = arith.constant 1 : index
            %c1024_3516 = arith.constant 1024 : index
            %c1024_3517 = arith.constant 1024 : index
            %c50264_3518 = arith.constant 50264 : index
            %c64_3519 = arith.constant 64 : index
            %c1_3520 = arith.constant 1 : index
            %c50264_3521 = arith.constant 50264 : index
            %c1_3522 = arith.constant 1 : index
            %c8 = arith.constant 8 : index
            %c8_3523 = arith.constant 8 : index
            %c1_3524 = arith.constant 1 : index
            %c50264_3525 = arith.constant 50264 : index
            %c1024_3526 = arith.constant 1024 : index
            %c1_3527 = arith.constant 1 : index
            %c0_3528 = arith.constant 0 : index
            %c0_3529 = arith.constant 0 : index
            %c0_3530 = arith.constant 0 : index
            %c0_3531 = arith.constant 0 : index
            %c0_3532 = arith.constant 0 : index
            %c0_3533 = arith.constant 0 : index
            %c1_3534 = arith.constant 1 : index
            %c1_3535 = arith.constant 1 : index
            %c1_3536 = arith.constant 1 : index
            %c0_3537 = arith.constant 0 : index
            %alloca = memref.alloca() {alignment = 64 : i64} : memref<1xvector<8xf32>>
            %c0_3538 = arith.constant 0 : index
            %c0_3539 = arith.constant 0 : index
            affine.for %arg53 = 0 to 1 {
              %1896 = arith.addi %arg53, %arg50 : index
              %1897 = arith.addi %c0_3539, %arg51 : index
              %1898 = vector.load %alloc_3509[%arg49, %1896, %1897] : memref<64x1x50264xf32>, vector<8xf32>
              affine.store %1898, %alloca[%c0_3538] : memref<1xvector<8xf32>>
              %1899 = arith.addi %arg53, %arg50 : index
              %1900 = arith.addi %c0, %arg52 : index
              %1901 = memref.load %alloc_3508[%arg49, %1899, %1900] : memref<64x1x1024xf32>
              %1902 = vector.broadcast %1901 : f32 to vector<8xf32>
              %1903 = arith.addi %c0, %arg52 : index
              %1904 = arith.addi %c0_3539, %arg51 : index
              %1905 = vector.load %alloc_728[%1903, %1904] : memref<1024x50264xf32>, vector<8xf32>
              %1906 = affine.load %alloca[%c0_3538] : memref<1xvector<8xf32>>
              %1907 = vector.fma %1902, %1905, %1906 : vector<8xf32>
              affine.store %1907, %alloca[%c0_3538] : memref<1xvector<8xf32>>
              %1908 = arith.addi %arg53, %arg50 : index
              %1909 = arith.addi %c1, %arg52 : index
              %1910 = memref.load %alloc_3508[%arg49, %1908, %1909] : memref<64x1x1024xf32>
              %1911 = vector.broadcast %1910 : f32 to vector<8xf32>
              %1912 = arith.addi %c1, %arg52 : index
              %1913 = arith.addi %c0_3539, %arg51 : index
              %1914 = vector.load %alloc_728[%1912, %1913] : memref<1024x50264xf32>, vector<8xf32>
              %1915 = affine.load %alloca[%c0_3538] : memref<1xvector<8xf32>>
              %1916 = vector.fma %1911, %1914, %1915 : vector<8xf32>
              affine.store %1916, %alloca[%c0_3538] : memref<1xvector<8xf32>>
              %1917 = arith.addi %arg53, %arg50 : index
              %1918 = arith.addi %c2, %arg52 : index
              %1919 = memref.load %alloc_3508[%arg49, %1917, %1918] : memref<64x1x1024xf32>
              %1920 = vector.broadcast %1919 : f32 to vector<8xf32>
              %1921 = arith.addi %c2, %arg52 : index
              %1922 = arith.addi %c0_3539, %arg51 : index
              %1923 = vector.load %alloc_728[%1921, %1922] : memref<1024x50264xf32>, vector<8xf32>
              %1924 = affine.load %alloca[%c0_3538] : memref<1xvector<8xf32>>
              %1925 = vector.fma %1920, %1923, %1924 : vector<8xf32>
              affine.store %1925, %alloca[%c0_3538] : memref<1xvector<8xf32>>
              %1926 = arith.addi %arg53, %arg50 : index
              %1927 = arith.addi %c3, %arg52 : index
              %1928 = memref.load %alloc_3508[%arg49, %1926, %1927] : memref<64x1x1024xf32>
              %1929 = vector.broadcast %1928 : f32 to vector<8xf32>
              %1930 = arith.addi %c3, %arg52 : index
              %1931 = arith.addi %c0_3539, %arg51 : index
              %1932 = vector.load %alloc_728[%1930, %1931] : memref<1024x50264xf32>, vector<8xf32>
              %1933 = affine.load %alloca[%c0_3538] : memref<1xvector<8xf32>>
              %1934 = vector.fma %1929, %1932, %1933 : vector<8xf32>
              affine.store %1934, %alloca[%c0_3538] : memref<1xvector<8xf32>>
              %1935 = arith.addi %arg53, %arg50 : index
              %1936 = arith.addi %c4, %arg52 : index
              %1937 = memref.load %alloc_3508[%arg49, %1935, %1936] : memref<64x1x1024xf32>
              %1938 = vector.broadcast %1937 : f32 to vector<8xf32>
              %1939 = arith.addi %c4, %arg52 : index
              %1940 = arith.addi %c0_3539, %arg51 : index
              %1941 = vector.load %alloc_728[%1939, %1940] : memref<1024x50264xf32>, vector<8xf32>
              %1942 = affine.load %alloca[%c0_3538] : memref<1xvector<8xf32>>
              %1943 = vector.fma %1938, %1941, %1942 : vector<8xf32>
              affine.store %1943, %alloca[%c0_3538] : memref<1xvector<8xf32>>
              %1944 = arith.addi %arg53, %arg50 : index
              %1945 = arith.addi %c5, %arg52 : index
              %1946 = memref.load %alloc_3508[%arg49, %1944, %1945] : memref<64x1x1024xf32>
              %1947 = vector.broadcast %1946 : f32 to vector<8xf32>
              %1948 = arith.addi %c5, %arg52 : index
              %1949 = arith.addi %c0_3539, %arg51 : index
              %1950 = vector.load %alloc_728[%1948, %1949] : memref<1024x50264xf32>, vector<8xf32>
              %1951 = affine.load %alloca[%c0_3538] : memref<1xvector<8xf32>>
              %1952 = vector.fma %1947, %1950, %1951 : vector<8xf32>
              affine.store %1952, %alloca[%c0_3538] : memref<1xvector<8xf32>>
              %1953 = arith.addi %arg53, %arg50 : index
              %1954 = arith.addi %c6, %arg52 : index
              %1955 = memref.load %alloc_3508[%arg49, %1953, %1954] : memref<64x1x1024xf32>
              %1956 = vector.broadcast %1955 : f32 to vector<8xf32>
              %1957 = arith.addi %c6, %arg52 : index
              %1958 = arith.addi %c0_3539, %arg51 : index
              %1959 = vector.load %alloc_728[%1957, %1958] : memref<1024x50264xf32>, vector<8xf32>
              %1960 = affine.load %alloca[%c0_3538] : memref<1xvector<8xf32>>
              %1961 = vector.fma %1956, %1959, %1960 : vector<8xf32>
              affine.store %1961, %alloca[%c0_3538] : memref<1xvector<8xf32>>
              %1962 = arith.addi %arg53, %arg50 : index
              %1963 = arith.addi %c7, %arg52 : index
              %1964 = memref.load %alloc_3508[%arg49, %1962, %1963] : memref<64x1x1024xf32>
              %1965 = vector.broadcast %1964 : f32 to vector<8xf32>
              %1966 = arith.addi %c7, %arg52 : index
              %1967 = arith.addi %c0_3539, %arg51 : index
              %1968 = vector.load %alloc_728[%1966, %1967] : memref<1024x50264xf32>, vector<8xf32>
              %1969 = affine.load %alloca[%c0_3538] : memref<1xvector<8xf32>>
              %1970 = vector.fma %1965, %1968, %1969 : vector<8xf32>
              affine.store %1970, %alloca[%c0_3538] : memref<1xvector<8xf32>>
              %1971 = affine.load %alloca[%c0_3538] : memref<1xvector<8xf32>>
              %1972 = arith.addi %arg53, %arg50 : index
              %1973 = arith.addi %c0_3539, %arg51 : index
              vector.store %1971, %alloc_3509[%arg49, %1972, %1973] : memref<64x1x50264xf32>, vector<8xf32>
            }
          }
        }
      }
    }
    return %alloc_3509 : memref<64x1x50264xf32>
  }
}

