#map = affine_map<(d0) -> (d0)>
#map1 = affine_map<(d0) -> (d0 + 64)>
#map2 = affine_map<(d0) -> (d0 + 32)>
#map3 = affine_map<(d0, d1) -> (-d0 + d1)>
#map4 = affine_map<(d0) -> (d0 + 1)>
#map5 = affine_map<(d0) -> (d0 + 2)>
#map6 = affine_map<(d0) -> (d0 + 3)>
#map7 = affine_map<(d0, d1, d2, d3) -> (d0, d1, d2, d3)>
#map8 = affine_map<(d0, d1, d2, d3) -> (d0, d1, d2 + 255, d3)>
#map9 = affine_map<(d0, d1, d2) -> (d0, d1, d2)>

#amap0 = affine_map<(d0) -> (d0 * 195840)>
#amap1 = affine_map<(d0) -> (d0 * 196608)>
#amap2 = affine_map<(d0) -> (d0 * 50264)>

module attributes {llvm.data_layout = "e-m:e-p270:32:32-p271:32:32-p272:64:64-i64:64-f80:128-n8:16:32:64-S128", llvm.target_triple = "x86_64-unknown-linux-gnu",
  rmem.templates = {
  // "t" = [rbase,     l_ofst,   r_ofst,   SizeInEle, eleType, bSize,  nBlock, type],
    // "t0" = ["ref0",         0,      0,      12533760,  f32,     195840,   64,   1],
    // "t1" = ["ref1",  67108864,      0,      12533760,  f32,     195840,   64,   1],
    "t2" = ["ref2", 134217728,      0,      12582912,  f32,     196608,   64,   1],
    "t3" = ["ref3", 201326592,      0,      12582912,  f32,     196608,   64,   1],
    "t4" = ["ref4", 268435456,      0,      12582912,  f32,     196608,   64,   1],
    "t5" = ["ref5", 335544320,      0,      3216896,   f32,      50264,   64,   1]
  }
} {
  llvm.mlir.global internal constant @constant_45("constant_45\00") {addr_space = 0 : i32}
  llvm.mlir.global internal constant @constant_44("constant_44\00") {addr_space = 0 : i32}
  llvm.mlir.global internal constant @constant_41("constant_41\00") {addr_space = 0 : i32}
  llvm.mlir.global internal constant @constant_40("constant_40\00") {addr_space = 0 : i32}
  llvm.mlir.global internal constant @constant_39("constant_39\00") {addr_space = 0 : i32}
  llvm.mlir.global internal constant @constant_38("constant_38\00") {addr_space = 0 : i32}
  llvm.mlir.global internal constant @constant_37("constant_37\00") {addr_space = 0 : i32}
  llvm.mlir.global internal constant @constant_34("constant_34\00") {addr_space = 0 : i32}
  llvm.mlir.global internal constant @constant_33("constant_33\00") {addr_space = 0 : i32}
  llvm.mlir.global internal constant @constant_30("constant_30\00") {addr_space = 0 : i32}
  llvm.mlir.global internal constant @constant_28("constant_28\00") {addr_space = 0 : i32}
  llvm.mlir.global internal constant @constant_27("constant_27\00") {addr_space = 0 : i32}
  llvm.mlir.global internal constant @constant_20("constant_20\00") {addr_space = 0 : i32}
  llvm.mlir.global internal constant @constant_19("constant_19\00") {addr_space = 0 : i32}
  llvm.mlir.global internal constant @constant_18("constant_18\00") {addr_space = 0 : i32}
  llvm.mlir.global internal constant @constant_16("constant_16\00") {addr_space = 0 : i32}
  func.func private @read_tensor_i1(!llvm.ptr<i8>, memref<*xi1>) attributes {llvm.emit_c_interface}
  llvm.mlir.global internal constant @constant_15("constant_15\00") {addr_space = 0 : i32}
  llvm.mlir.global internal constant @constant_14("constant_14\00") {addr_space = 0 : i32}
  llvm.mlir.global internal constant @constant_13("constant_13\00") {addr_space = 0 : i32}
  llvm.mlir.global internal constant @constant_12("constant_12\00") {addr_space = 0 : i32}
  llvm.mlir.global internal constant @constant_11("constant_11\00") {addr_space = 0 : i32}
  llvm.mlir.global internal constant @constant_10("constant_10\00") {addr_space = 0 : i32}
  llvm.mlir.global internal constant @constant_9("constant_9\00") {addr_space = 0 : i32}
  llvm.mlir.global internal constant @constant_8("constant_8\00") {addr_space = 0 : i32}
  llvm.mlir.global internal constant @constant_7("constant_7\00") {addr_space = 0 : i32}
  llvm.mlir.global internal constant @constant_6("constant_6\00") {addr_space = 0 : i32}
  llvm.mlir.global internal constant @constant_5("constant_5\00") {addr_space = 0 : i32}
  llvm.mlir.global internal constant @constant_4("constant_4\00") {addr_space = 0 : i32}
  llvm.mlir.global internal constant @constant_3("constant_3\00") {addr_space = 0 : i32}
  llvm.mlir.global internal constant @constant_2("constant_2\00") {addr_space = 0 : i32}
  llvm.mlir.global internal constant @constant_1("constant_1\00") {addr_space = 0 : i32}
  func.func private @read_tensor_f32(!llvm.ptr<i8>, memref<*xf32>) attributes {llvm.emit_c_interface}
  llvm.mlir.global internal constant @constant_0("constant_0\00") {addr_space = 0 : i32}
  func.func @main_graph(%arg0: memref<64x1xi64>, %arg1: memref<64x12x255x64xf32>, %arg2: memref<64x12x255x64xf32>) -> memref<64x1x50264xf32> attributes {input_names = ["input_ids", "past.0.key", "past.0.value"], llvm.emit_c_interface, output_names = ["logits"]} {
    %c50264 = arith.constant 50264 : index
    %cst = arith.constant 0.000000e+00 : f32
    %cst_0 = arith.constant 0xFF800000 : f32
    %cst_1 = arith.constant 7.680000e+02 : f32
    %c0 = arith.constant 0 : index
    %c7 = arith.constant 7 : index
    %c6 = arith.constant 6 : index
    %c5 = arith.constant 5 : index
    %c4 = arith.constant 4 : index
    %c3 = arith.constant 3 : index
    %c2 = arith.constant 2 : index
    %c1 = arith.constant 1 : index
    %alloc = memref.alloc() {alignment = 16 : i64} : memref<64x1x50264xf32>
    %alloc_2 = memref.alloc() {alignment = 16 : i64} : memref<50264x768xf32>
    %cast = memref.cast %alloc_2 : memref<50264x768xf32> to memref<*xf32>
    %0 = llvm.mlir.addressof @constant_0 : !llvm.ptr<array<11 x i8>>
    %1 = llvm.getelementptr %0[0, 0] : (!llvm.ptr<array<11 x i8>>) -> !llvm.ptr<i8>
    call @read_tensor_f32(%1, %cast) : (!llvm.ptr<i8>, memref<*xf32>) -> ()
    %alloc_3 = memref.alloc() {alignment = 16 : i64} : memref<768xf32>
    %cast_4 = memref.cast %alloc_3 : memref<768xf32> to memref<*xf32>
    %2 = llvm.mlir.addressof @constant_1 : !llvm.ptr<array<11 x i8>>
    %3 = llvm.getelementptr %2[0, 0] : (!llvm.ptr<array<11 x i8>>) -> !llvm.ptr<i8>
    call @read_tensor_f32(%3, %cast_4) : (!llvm.ptr<i8>, memref<*xf32>) -> ()
    %alloc_5 = memref.alloc() {alignment = 16 : i64} : memref<768xf32>
    %cast_6 = memref.cast %alloc_5 : memref<768xf32> to memref<*xf32>
    %4 = llvm.mlir.addressof @constant_2 : !llvm.ptr<array<11 x i8>>
    %5 = llvm.getelementptr %4[0, 0] : (!llvm.ptr<array<11 x i8>>) -> !llvm.ptr<i8>
    call @read_tensor_f32(%5, %cast_6) : (!llvm.ptr<i8>, memref<*xf32>) -> ()
    %alloc_7 = memref.alloc() : memref<768x2304xf32>
    %cast_8 = memref.cast %alloc_7 : memref<768x2304xf32> to memref<*xf32>
    %6 = llvm.mlir.addressof @constant_3 : !llvm.ptr<array<11 x i8>>
    %7 = llvm.getelementptr %6[0, 0] : (!llvm.ptr<array<11 x i8>>) -> !llvm.ptr<i8>
    call @read_tensor_f32(%7, %cast_8) : (!llvm.ptr<i8>, memref<*xf32>) -> ()
    %alloc_9 = memref.alloc() {alignment = 16 : i64} : memref<2304xf32>
    %cast_10 = memref.cast %alloc_9 : memref<2304xf32> to memref<*xf32>
    %8 = llvm.mlir.addressof @constant_4 : !llvm.ptr<array<11 x i8>>
    %9 = llvm.getelementptr %8[0, 0] : (!llvm.ptr<array<11 x i8>>) -> !llvm.ptr<i8>
    call @read_tensor_f32(%9, %cast_10) : (!llvm.ptr<i8>, memref<*xf32>) -> ()
    %alloc_11 = memref.alloc() {alignment = 16 : i64} : memref<768x768xf32>
    %cast_12 = memref.cast %alloc_11 : memref<768x768xf32> to memref<*xf32>
    %10 = llvm.mlir.addressof @constant_5 : !llvm.ptr<array<11 x i8>>
    %11 = llvm.getelementptr %10[0, 0] : (!llvm.ptr<array<11 x i8>>) -> !llvm.ptr<i8>
    call @read_tensor_f32(%11, %cast_12) : (!llvm.ptr<i8>, memref<*xf32>) -> ()
    %alloc_13 = memref.alloc() {alignment = 16 : i64} : memref<768xf32>
    %cast_14 = memref.cast %alloc_13 : memref<768xf32> to memref<*xf32>
    %12 = llvm.mlir.addressof @constant_6 : !llvm.ptr<array<11 x i8>>
    %13 = llvm.getelementptr %12[0, 0] : (!llvm.ptr<array<11 x i8>>) -> !llvm.ptr<i8>
    call @read_tensor_f32(%13, %cast_14) : (!llvm.ptr<i8>, memref<*xf32>) -> ()
    %alloc_15 = memref.alloc() {alignment = 16 : i64} : memref<768xf32>
    %cast_16 = memref.cast %alloc_15 : memref<768xf32> to memref<*xf32>
    %14 = llvm.mlir.addressof @constant_7 : !llvm.ptr<array<11 x i8>>
    %15 = llvm.getelementptr %14[0, 0] : (!llvm.ptr<array<11 x i8>>) -> !llvm.ptr<i8>
    call @read_tensor_f32(%15, %cast_16) : (!llvm.ptr<i8>, memref<*xf32>) -> ()
    %alloc_17 = memref.alloc() {alignment = 16 : i64} : memref<768xf32>
    %cast_18 = memref.cast %alloc_17 : memref<768xf32> to memref<*xf32>
    %16 = llvm.mlir.addressof @constant_8 : !llvm.ptr<array<11 x i8>>
    %17 = llvm.getelementptr %16[0, 0] : (!llvm.ptr<array<11 x i8>>) -> !llvm.ptr<i8>
    call @read_tensor_f32(%17, %cast_18) : (!llvm.ptr<i8>, memref<*xf32>) -> ()
    %alloc_19 = memref.alloc() {alignment = 16 : i64} : memref<768x3072xf32>
    %cast_20 = memref.cast %alloc_19 : memref<768x3072xf32> to memref<*xf32>
    %18 = llvm.mlir.addressof @constant_9 : !llvm.ptr<array<11 x i8>>
    %19 = llvm.getelementptr %18[0, 0] : (!llvm.ptr<array<11 x i8>>) -> !llvm.ptr<i8>
    call @read_tensor_f32(%19, %cast_20) : (!llvm.ptr<i8>, memref<*xf32>) -> ()
    %alloc_21 = memref.alloc() {alignment = 16 : i64} : memref<3072xf32>
    %cast_22 = memref.cast %alloc_21 : memref<3072xf32> to memref<*xf32>
    %20 = llvm.mlir.addressof @constant_10 : !llvm.ptr<array<12 x i8>>
    %21 = llvm.getelementptr %20[0, 0] : (!llvm.ptr<array<12 x i8>>) -> !llvm.ptr<i8>
    call @read_tensor_f32(%21, %cast_22) : (!llvm.ptr<i8>, memref<*xf32>) -> ()
    %alloc_23 = memref.alloc() {alignment = 16 : i64} : memref<3072x768xf32>
    %cast_24 = memref.cast %alloc_23 : memref<3072x768xf32> to memref<*xf32>
    %22 = llvm.mlir.addressof @constant_11 : !llvm.ptr<array<12 x i8>>
    %23 = llvm.getelementptr %22[0, 0] : (!llvm.ptr<array<12 x i8>>) -> !llvm.ptr<i8>
    call @read_tensor_f32(%23, %cast_24) : (!llvm.ptr<i8>, memref<*xf32>) -> ()
    %alloc_25 = memref.alloc() {alignment = 16 : i64} : memref<768xf32>
    %cast_26 = memref.cast %alloc_25 : memref<768xf32> to memref<*xf32>
    %24 = llvm.mlir.addressof @constant_12 : !llvm.ptr<array<12 x i8>>
    %25 = llvm.getelementptr %24[0, 0] : (!llvm.ptr<array<12 x i8>>) -> !llvm.ptr<i8>
    call @read_tensor_f32(%25, %cast_26) : (!llvm.ptr<i8>, memref<*xf32>) -> ()
    %alloc_27 = memref.alloc() {alignment = 16 : i64} : memref<768xf32>
    %cast_28 = memref.cast %alloc_27 : memref<768xf32> to memref<*xf32>
    %26 = llvm.mlir.addressof @constant_13 : !llvm.ptr<array<12 x i8>>
    %27 = llvm.getelementptr %26[0, 0] : (!llvm.ptr<array<12 x i8>>) -> !llvm.ptr<i8>
    call @read_tensor_f32(%27, %cast_28) : (!llvm.ptr<i8>, memref<*xf32>) -> ()
    %alloc_29 = memref.alloc() {alignment = 16 : i64} : memref<768xf32>
    %cast_30 = memref.cast %alloc_29 : memref<768xf32> to memref<*xf32>
    %28 = llvm.mlir.addressof @constant_14 : !llvm.ptr<array<12 x i8>>
    %29 = llvm.getelementptr %28[0, 0] : (!llvm.ptr<array<12 x i8>>) -> !llvm.ptr<i8>
    call @read_tensor_f32(%29, %cast_30) : (!llvm.ptr<i8>, memref<*xf32>) -> ()
    %alloc_31 = memref.alloc() {alignment = 16 : i64} : memref<1x1x1x256xi1>
    %cast_32 = memref.cast %alloc_31 : memref<1x1x1x256xi1> to memref<*xi1>
    %30 = llvm.mlir.addressof @constant_15 : !llvm.ptr<array<12 x i8>>
    %31 = llvm.getelementptr %30[0, 0] : (!llvm.ptr<array<12 x i8>>) -> !llvm.ptr<i8>
    call @read_tensor_i1(%31, %cast_32) : (!llvm.ptr<i8>, memref<*xi1>) -> ()
    %alloc_33 = memref.alloc() {alignment = 16 : i64} : memref<768x50264xf32>
    %cast_34 = memref.cast %alloc_33 : memref<768x50264xf32> to memref<*xf32>
    %32 = llvm.mlir.addressof @constant_16 : !llvm.ptr<array<12 x i8>>
    %33 = llvm.getelementptr %32[0, 0] : (!llvm.ptr<array<12 x i8>>) -> !llvm.ptr<i8>
    call @read_tensor_f32(%33, %cast_34) : (!llvm.ptr<i8>, memref<*xf32>) -> ()
    %reinterpret_cast = memref.reinterpret_cast %arg0 to offset: [0], sizes: [64, 1], strides: [1, 1] : memref<64x1xi64> to memref<64x1xi64>
    %alloc_35 = memref.alloc() {alignment = 16 : i64} : memref<64x1x768xf32>
    affine.for %arg3 = 0 to 64 {
      affine.for %arg4 = 0 to 1 {
        affine.for %arg5 = 0 to 768 {
          %74 = affine.load %reinterpret_cast[%arg3, %arg4] : memref<64x1xi64>
          %75 = arith.index_cast %74 : i64 to index
          %76 = arith.addi %75, %c50264 : index
          %77 = arith.cmpi slt, %75, %c0 : index
          %78 = arith.select %77, %76, %75 : index
          %79 = memref.load %alloc_2[%78, %arg5] : memref<50264x768xf32>
          affine.store %79, %alloc_35[%arg3, %arg4, %arg5] : memref<64x1x768xf32>
        }
      }
    }
    %alloc_36 = memref.alloc() {alignment = 16 : i64} : memref<1x1x768xf32>
    %cast_37 = memref.cast %alloc_36 : memref<1x1x768xf32> to memref<*xf32>
    %34 = llvm.mlir.addressof @constant_18 : !llvm.ptr<array<12 x i8>>
    %35 = llvm.getelementptr %34[0, 0] : (!llvm.ptr<array<12 x i8>>) -> !llvm.ptr<i8>
    call @read_tensor_f32(%35, %cast_37) : (!llvm.ptr<i8>, memref<*xf32>) -> ()
    %alloc_38 = memref.alloc() {alignment = 16 : i64} : memref<64x1x768xf32>
    affine.for %arg3 = 0 to 64 {
      affine.for %arg4 = 0 to 1 {
        affine.for %arg5 = 0 to 768 {
          %74 = affine.load %alloc_35[%arg3, %arg4, %arg5] : memref<64x1x768xf32>
          %75 = affine.load %alloc_36[0, %arg4, %arg5] : memref<1x1x768xf32>
          %76 = arith.addf %74, %75 : f32
          affine.store %76, %alloc_38[%arg3, %arg4, %arg5] : memref<64x1x768xf32>
        }
      }
    }
    %alloc_39 = memref.alloc() {alignment = 16 : i64} : memref<64x1x1xf32>
    affine.for %arg3 = 0 to 64 {
      affine.for %arg4 = 0 to 1 {
        affine.for %arg5 = 0 to 1 {
          affine.store %cst, %alloc_39[%arg3, %arg4, %arg5] : memref<64x1x1xf32>
        }
      }
    }
    affine.for %arg3 = 0 to 64 {
      affine.for %arg4 = 0 to 1 {
        affine.for %arg5 = 0 to 768 {
          %74 = affine.load %alloc_38[%arg3, %arg4, %arg5] : memref<64x1x768xf32>
          %75 = affine.load %alloc_39[%arg3, %arg4, 0] : memref<64x1x1xf32>
          %76 = arith.addf %75, %74 : f32
          affine.store %76, %alloc_39[%arg3, %arg4, 0] : memref<64x1x1xf32>
        }
      }
    }
    affine.for %arg3 = 0 to 64 {
      affine.for %arg4 = 0 to 1 {
        affine.for %arg5 = 0 to 1 {
          %74 = affine.load %alloc_39[%arg3, %arg4, %arg5] : memref<64x1x1xf32>
          %75 = arith.divf %74, %cst_1 : f32
          affine.store %75, %alloc_39[%arg3, %arg4, %arg5] : memref<64x1x1xf32>
        }
      }
    }
    %alloc_40 = memref.alloc() {alignment = 16 : i64} : memref<64x1x768xf32>
    affine.for %arg3 = 0 to 64 {
      affine.for %arg4 = 0 to 1 {
        affine.for %arg5 = 0 to 768 {
          %74 = affine.load %alloc_38[%arg3, %arg4, %arg5] : memref<64x1x768xf32>
          %75 = affine.load %alloc_39[%arg3, %arg4, 0] : memref<64x1x1xf32>
          %76 = arith.subf %74, %75 : f32
          affine.store %76, %alloc_40[%arg3, %arg4, %arg5] : memref<64x1x768xf32>
        }
      }
    }
    %alloc_41 = memref.alloc() : memref<f32>
    %cast_42 = memref.cast %alloc_41 : memref<f32> to memref<*xf32>
    %36 = llvm.mlir.addressof @constant_19 : !llvm.ptr<array<12 x i8>>
    %37 = llvm.getelementptr %36[0, 0] : (!llvm.ptr<array<12 x i8>>) -> !llvm.ptr<i8>
    call @read_tensor_f32(%37, %cast_42) : (!llvm.ptr<i8>, memref<*xf32>) -> ()
    %alloc_43 = memref.alloc() {alignment = 16 : i64} : memref<64x1x768xf32>
    affine.for %arg3 = 0 to 64 {
      affine.for %arg4 = 0 to 1 {
        affine.for %arg5 = 0 to 768 {
          %74 = affine.load %alloc_40[%arg3, %arg4, %arg5] : memref<64x1x768xf32>
          %75 = affine.load %alloc_41[] : memref<f32>
          %76 = math.powf %74, %75 : f32
          affine.store %76, %alloc_43[%arg3, %arg4, %arg5] : memref<64x1x768xf32>
        }
      }
    }
    %alloc_44 = memref.alloc() {alignment = 16 : i64} : memref<64x1x1xf32>
    affine.for %arg3 = 0 to 64 {
      affine.for %arg4 = 0 to 1 {
        affine.for %arg5 = 0 to 1 {
          affine.store %cst, %alloc_44[%arg3, %arg4, %arg5] : memref<64x1x1xf32>
        }
      }
    }
    affine.for %arg3 = 0 to 64 {
      affine.for %arg4 = 0 to 1 {
        affine.for %arg5 = 0 to 768 {
          %74 = affine.load %alloc_43[%arg3, %arg4, %arg5] : memref<64x1x768xf32>
          %75 = affine.load %alloc_44[%arg3, %arg4, 0] : memref<64x1x1xf32>
          %76 = arith.addf %75, %74 : f32
          affine.store %76, %alloc_44[%arg3, %arg4, 0] : memref<64x1x1xf32>
        }
      }
    }
    affine.for %arg3 = 0 to 64 {
      affine.for %arg4 = 0 to 1 {
        affine.for %arg5 = 0 to 1 {
          %74 = affine.load %alloc_44[%arg3, %arg4, %arg5] : memref<64x1x1xf32>
          %75 = arith.divf %74, %cst_1 : f32
          affine.store %75, %alloc_44[%arg3, %arg4, %arg5] : memref<64x1x1xf32>
        }
      }
    }
    %alloc_45 = memref.alloc() : memref<f32>
    %cast_46 = memref.cast %alloc_45 : memref<f32> to memref<*xf32>
    %38 = llvm.mlir.addressof @constant_20 : !llvm.ptr<array<12 x i8>>
    %39 = llvm.getelementptr %38[0, 0] : (!llvm.ptr<array<12 x i8>>) -> !llvm.ptr<i8>
    call @read_tensor_f32(%39, %cast_46) : (!llvm.ptr<i8>, memref<*xf32>) -> ()
    %alloc_47 = memref.alloc() {alignment = 16 : i64} : memref<64x1x1xf32>
    affine.for %arg3 = 0 to 64 {
      affine.for %arg4 = 0 to 1 {
        affine.for %arg5 = 0 to 1 {
          %74 = affine.load %alloc_44[%arg3, %arg4, %arg5] : memref<64x1x1xf32>
          %75 = affine.load %alloc_45[] : memref<f32>
          %76 = arith.addf %74, %75 : f32
          affine.store %76, %alloc_47[%arg3, %arg4, %arg5] : memref<64x1x1xf32>
        }
      }
    }
    %alloc_48 = memref.alloc() {alignment = 16 : i64} : memref<64x1x1xf32>
    affine.for %arg3 = 0 to 64 {
      affine.for %arg4 = 0 to 1 {
        affine.for %arg5 = 0 to 1 {
          %74 = affine.load %alloc_47[%arg3, %arg4, %arg5] : memref<64x1x1xf32>
          %75 = math.sqrt %74 : f32
          affine.store %75, %alloc_48[%arg3, %arg4, %arg5] : memref<64x1x1xf32>
        }
      }
    }
    %alloc_49 = memref.alloc() {alignment = 16 : i64} : memref<64x1x768xf32>
    affine.for %arg3 = 0 to 64 {
      affine.for %arg4 = 0 to 1 {
        affine.for %arg5 = 0 to 768 {
          %74 = affine.load %alloc_40[%arg3, %arg4, %arg5] : memref<64x1x768xf32>
          %75 = affine.load %alloc_48[%arg3, %arg4, 0] : memref<64x1x1xf32>
          %76 = arith.divf %74, %75 : f32
          affine.store %76, %alloc_49[%arg3, %arg4, %arg5] : memref<64x1x768xf32>
        }
      }
    }
    %alloc_50 = memref.alloc() {alignment = 16 : i64} : memref<64x1x768xf32>
    affine.for %arg3 = 0 to 64 {
      affine.for %arg4 = 0 to 1 {
        affine.for %arg5 = 0 to 768 {
          %74 = affine.load %alloc_49[%arg3, %arg4, %arg5] : memref<64x1x768xf32>
          %75 = affine.load %alloc_3[%arg5] : memref<768xf32>
          %76 = arith.mulf %74, %75 : f32
          affine.store %76, %alloc_50[%arg3, %arg4, %arg5] : memref<64x1x768xf32>
        }
      }
    }
    %alloc_51 = memref.alloc() {alignment = 16 : i64} : memref<64x1x768xf32>
    affine.for %arg3 = 0 to 64 {
      affine.for %arg4 = 0 to 1 {
        affine.for %arg5 = 0 to 768 {
          %74 = affine.load %alloc_50[%arg3, %arg4, %arg5] : memref<64x1x768xf32>
          %75 = affine.load %alloc_5[%arg5] : memref<768xf32>
          %76 = arith.addf %74, %75 : f32
          affine.store %76, %alloc_51[%arg3, %arg4, %arg5] : memref<64x1x768xf32>
        }
      }
    }
    %reinterpret_cast_52 = memref.reinterpret_cast %alloc_51 to offset: [0], sizes: [64, 768], strides: [768, 1] : memref<64x1x768xf32> to memref<64x768xf32>
    %alloc_53 = memref.alloc() {alignment = 128 : i64} : memref<64x2304xf32>
    affine.for %arg3 = 0 to 64 {
      affine.for %arg4 = 0 to 2304 {
        affine.store %cst, %alloc_53[%arg3, %arg4] : memref<64x2304xf32>
      }
    }
    %alloc_54 = memref.alloc() {alignment = 128 : i64} : memref<32x256xf32>
    %alloc_55 = memref.alloc() {alignment = 128 : i64} : memref<256x64xf32>
    affine.for %arg3 = 0 to 2304 step 64 {
      affine.for %arg4 = 0 to 768 step 256 {
        affine.for %arg5 = 0 to 256 {
          affine.for %arg6 = 0 to 64 {
            %74 = affine.load %alloc_7[%arg4 + %arg5, %arg3 + %arg6] : memref<768x2304xf32>
            affine.store %74, %alloc_55[%arg5, %arg6] : memref<256x64xf32>
          }
        }
        affine.for %arg5 = 0 to 64 step 32 {
          affine.for %arg6 = 0 to 32 {
            affine.for %arg7 = 0 to 256 {
              %74 = affine.load %reinterpret_cast_52[%arg5 + %arg6, %arg4 + %arg7] : memref<64x768xf32>
              affine.store %74, %alloc_54[%arg6, %arg7] : memref<32x256xf32>
            }
          }
          affine.for %arg6 = #map(%arg3) to #map1(%arg3) step 16 {
            affine.for %arg7 = #map(%arg5) to #map2(%arg5) step 4 {
              %74 = affine.apply #map3(%arg5, %arg7)
              %75 = affine.apply #map3(%arg3, %arg6)
              %alloca = memref.alloca() {alignment = 64 : i64} : memref<4xvector<16xf32>>
              %76 = vector.load %alloc_53[%arg7, %arg6] : memref<64x2304xf32>, vector<16xf32>
              affine.store %76, %alloca[0] : memref<4xvector<16xf32>>
              %77 = arith.addi %arg7, %c1 : index
              %78 = vector.load %alloc_53[%77, %arg6] : memref<64x2304xf32>, vector<16xf32>
              affine.store %78, %alloca[1] : memref<4xvector<16xf32>>
              %79 = arith.addi %arg7, %c2 : index
              %80 = vector.load %alloc_53[%79, %arg6] : memref<64x2304xf32>, vector<16xf32>
              affine.store %80, %alloca[2] : memref<4xvector<16xf32>>
              %81 = arith.addi %arg7, %c3 : index
              %82 = vector.load %alloc_53[%81, %arg6] : memref<64x2304xf32>, vector<16xf32>
              affine.store %82, %alloca[3] : memref<4xvector<16xf32>>
              affine.for %arg8 = 0 to 256 step 4 {
                %87 = memref.load %alloc_54[%74, %arg8] : memref<32x256xf32>
                %88 = vector.broadcast %87 : f32 to vector<16xf32>
                %89 = vector.load %alloc_55[%arg8, %75] : memref<256x64xf32>, vector<16xf32>
                %90 = affine.load %alloca[0] : memref<4xvector<16xf32>>
                %91 = vector.fma %88, %89, %90 : vector<16xf32>
                affine.store %91, %alloca[0] : memref<4xvector<16xf32>>
                %92 = affine.apply #map4(%arg8)
                %93 = memref.load %alloc_54[%74, %92] : memref<32x256xf32>
                %94 = vector.broadcast %93 : f32 to vector<16xf32>
                %95 = vector.load %alloc_55[%92, %75] : memref<256x64xf32>, vector<16xf32>
                %96 = affine.load %alloca[0] : memref<4xvector<16xf32>>
                %97 = vector.fma %94, %95, %96 : vector<16xf32>
                affine.store %97, %alloca[0] : memref<4xvector<16xf32>>
                %98 = affine.apply #map5(%arg8)
                %99 = memref.load %alloc_54[%74, %98] : memref<32x256xf32>
                %100 = vector.broadcast %99 : f32 to vector<16xf32>
                %101 = vector.load %alloc_55[%98, %75] : memref<256x64xf32>, vector<16xf32>
                %102 = affine.load %alloca[0] : memref<4xvector<16xf32>>
                %103 = vector.fma %100, %101, %102 : vector<16xf32>
                affine.store %103, %alloca[0] : memref<4xvector<16xf32>>
                %104 = affine.apply #map6(%arg8)
                %105 = memref.load %alloc_54[%74, %104] : memref<32x256xf32>
                %106 = vector.broadcast %105 : f32 to vector<16xf32>
                %107 = vector.load %alloc_55[%104, %75] : memref<256x64xf32>, vector<16xf32>
                %108 = affine.load %alloca[0] : memref<4xvector<16xf32>>
                %109 = vector.fma %106, %107, %108 : vector<16xf32>
                affine.store %109, %alloca[0] : memref<4xvector<16xf32>>
                %110 = arith.addi %74, %c1 : index
                %111 = memref.load %alloc_54[%110, %arg8] : memref<32x256xf32>
                %112 = vector.broadcast %111 : f32 to vector<16xf32>
                %113 = vector.load %alloc_55[%arg8, %75] : memref<256x64xf32>, vector<16xf32>
                %114 = affine.load %alloca[1] : memref<4xvector<16xf32>>
                %115 = vector.fma %112, %113, %114 : vector<16xf32>
                affine.store %115, %alloca[1] : memref<4xvector<16xf32>>
                %116 = memref.load %alloc_54[%110, %92] : memref<32x256xf32>
                %117 = vector.broadcast %116 : f32 to vector<16xf32>
                %118 = vector.load %alloc_55[%92, %75] : memref<256x64xf32>, vector<16xf32>
                %119 = affine.load %alloca[1] : memref<4xvector<16xf32>>
                %120 = vector.fma %117, %118, %119 : vector<16xf32>
                affine.store %120, %alloca[1] : memref<4xvector<16xf32>>
                %121 = memref.load %alloc_54[%110, %98] : memref<32x256xf32>
                %122 = vector.broadcast %121 : f32 to vector<16xf32>
                %123 = vector.load %alloc_55[%98, %75] : memref<256x64xf32>, vector<16xf32>
                %124 = affine.load %alloca[1] : memref<4xvector<16xf32>>
                %125 = vector.fma %122, %123, %124 : vector<16xf32>
                affine.store %125, %alloca[1] : memref<4xvector<16xf32>>
                %126 = memref.load %alloc_54[%110, %104] : memref<32x256xf32>
                %127 = vector.broadcast %126 : f32 to vector<16xf32>
                %128 = vector.load %alloc_55[%104, %75] : memref<256x64xf32>, vector<16xf32>
                %129 = affine.load %alloca[1] : memref<4xvector<16xf32>>
                %130 = vector.fma %127, %128, %129 : vector<16xf32>
                affine.store %130, %alloca[1] : memref<4xvector<16xf32>>
                %131 = arith.addi %74, %c2 : index
                %132 = memref.load %alloc_54[%131, %arg8] : memref<32x256xf32>
                %133 = vector.broadcast %132 : f32 to vector<16xf32>
                %134 = vector.load %alloc_55[%arg8, %75] : memref<256x64xf32>, vector<16xf32>
                %135 = affine.load %alloca[2] : memref<4xvector<16xf32>>
                %136 = vector.fma %133, %134, %135 : vector<16xf32>
                affine.store %136, %alloca[2] : memref<4xvector<16xf32>>
                %137 = memref.load %alloc_54[%131, %92] : memref<32x256xf32>
                %138 = vector.broadcast %137 : f32 to vector<16xf32>
                %139 = vector.load %alloc_55[%92, %75] : memref<256x64xf32>, vector<16xf32>
                %140 = affine.load %alloca[2] : memref<4xvector<16xf32>>
                %141 = vector.fma %138, %139, %140 : vector<16xf32>
                affine.store %141, %alloca[2] : memref<4xvector<16xf32>>
                %142 = memref.load %alloc_54[%131, %98] : memref<32x256xf32>
                %143 = vector.broadcast %142 : f32 to vector<16xf32>
                %144 = vector.load %alloc_55[%98, %75] : memref<256x64xf32>, vector<16xf32>
                %145 = affine.load %alloca[2] : memref<4xvector<16xf32>>
                %146 = vector.fma %143, %144, %145 : vector<16xf32>
                affine.store %146, %alloca[2] : memref<4xvector<16xf32>>
                %147 = memref.load %alloc_54[%131, %104] : memref<32x256xf32>
                %148 = vector.broadcast %147 : f32 to vector<16xf32>
                %149 = vector.load %alloc_55[%104, %75] : memref<256x64xf32>, vector<16xf32>
                %150 = affine.load %alloca[2] : memref<4xvector<16xf32>>
                %151 = vector.fma %148, %149, %150 : vector<16xf32>
                affine.store %151, %alloca[2] : memref<4xvector<16xf32>>
                %152 = arith.addi %74, %c3 : index
                %153 = memref.load %alloc_54[%152, %arg8] : memref<32x256xf32>
                %154 = vector.broadcast %153 : f32 to vector<16xf32>
                %155 = vector.load %alloc_55[%arg8, %75] : memref<256x64xf32>, vector<16xf32>
                %156 = affine.load %alloca[3] : memref<4xvector<16xf32>>
                %157 = vector.fma %154, %155, %156 : vector<16xf32>
                affine.store %157, %alloca[3] : memref<4xvector<16xf32>>
                %158 = memref.load %alloc_54[%152, %92] : memref<32x256xf32>
                %159 = vector.broadcast %158 : f32 to vector<16xf32>
                %160 = vector.load %alloc_55[%92, %75] : memref<256x64xf32>, vector<16xf32>
                %161 = affine.load %alloca[3] : memref<4xvector<16xf32>>
                %162 = vector.fma %159, %160, %161 : vector<16xf32>
                affine.store %162, %alloca[3] : memref<4xvector<16xf32>>
                %163 = memref.load %alloc_54[%152, %98] : memref<32x256xf32>
                %164 = vector.broadcast %163 : f32 to vector<16xf32>
                %165 = vector.load %alloc_55[%98, %75] : memref<256x64xf32>, vector<16xf32>
                %166 = affine.load %alloca[3] : memref<4xvector<16xf32>>
                %167 = vector.fma %164, %165, %166 : vector<16xf32>
                affine.store %167, %alloca[3] : memref<4xvector<16xf32>>
                %168 = memref.load %alloc_54[%152, %104] : memref<32x256xf32>
                %169 = vector.broadcast %168 : f32 to vector<16xf32>
                %170 = vector.load %alloc_55[%104, %75] : memref<256x64xf32>, vector<16xf32>
                %171 = affine.load %alloca[3] : memref<4xvector<16xf32>>
                %172 = vector.fma %169, %170, %171 : vector<16xf32>
                affine.store %172, %alloca[3] : memref<4xvector<16xf32>>
              }
              %83 = affine.load %alloca[0] : memref<4xvector<16xf32>>
              vector.store %83, %alloc_53[%arg7, %arg6] : memref<64x2304xf32>, vector<16xf32>
              %84 = affine.load %alloca[1] : memref<4xvector<16xf32>>
              vector.store %84, %alloc_53[%77, %arg6] : memref<64x2304xf32>, vector<16xf32>
              %85 = affine.load %alloca[2] : memref<4xvector<16xf32>>
              vector.store %85, %alloc_53[%79, %arg6] : memref<64x2304xf32>, vector<16xf32>
              %86 = affine.load %alloca[3] : memref<4xvector<16xf32>>
              vector.store %86, %alloc_53[%81, %arg6] : memref<64x2304xf32>, vector<16xf32>
            }
          }
        }
      }
    }
    affine.for %arg3 = 0 to 64 {
      affine.for %arg4 = 0 to 2304 {
        %74 = affine.load %alloc_53[%arg3, %arg4] : memref<64x2304xf32>
        %75 = affine.load %alloc_9[%arg4] : memref<2304xf32>
        %76 = arith.addf %74, %75 : f32
        affine.store %76, %alloc_53[%arg3, %arg4] : memref<64x2304xf32>
      }
    }
    %reinterpret_cast_56 = memref.reinterpret_cast %alloc_53 to offset: [0], sizes: [64, 1, 2304], strides: [2304, 2304, 1] : memref<64x2304xf32> to memref<64x1x2304xf32>
    %alloc_57 = memref.alloc() {alignment = 16 : i64} : memref<64x1x768xf32>
    %alloc_58 = memref.alloc() {alignment = 16 : i64} : memref<64x1x768xf32>
    %alloc_59 = memref.alloc() {alignment = 16 : i64} : memref<64x1x768xf32>
    affine.for %arg3 = 0 to 64 {
      affine.for %arg4 = 0 to 1 {
        affine.for %arg5 = 0 to 768 {
          %74 = affine.load %reinterpret_cast_56[%arg3, %arg4, %arg5] : memref<64x1x2304xf32>
          affine.store %74, %alloc_57[%arg3, %arg4, %arg5] : memref<64x1x768xf32>
        }
      }
    }
    affine.for %arg3 = 0 to 64 {
      affine.for %arg4 = 0 to 1 {
        affine.for %arg5 = 0 to 768 {
          %74 = affine.load %reinterpret_cast_56[%arg3, %arg4, %arg5 + 768] : memref<64x1x2304xf32>
          affine.store %74, %alloc_58[%arg3, %arg4, %arg5] : memref<64x1x768xf32>
        }
      }
    }
    affine.for %arg3 = 0 to 64 {
      affine.for %arg4 = 0 to 1 {
        affine.for %arg5 = 0 to 768 {
          %74 = affine.load %reinterpret_cast_56[%arg3, %arg4, %arg5 + 1536] : memref<64x1x2304xf32>
          affine.store %74, %alloc_59[%arg3, %arg4, %arg5] : memref<64x1x768xf32>
        }
      }
    }
    %reinterpret_cast_60 = memref.reinterpret_cast %alloc_57 to offset: [0], sizes: [64, 12, 1, 64], strides: [768, 64, 64, 1] : memref<64x1x768xf32> to memref<64x12x1x64xf32>
    %reinterpret_cast_61 = memref.reinterpret_cast %alloc_58 to offset: [0], sizes: [64, 12, 1, 64], strides: [768, 64, 64, 1] : memref<64x1x768xf32> to memref<64x12x1x64xf32>
    %reinterpret_cast_62 = memref.reinterpret_cast %alloc_59 to offset: [0], sizes: [64, 12, 1, 64], strides: [768, 64, 64, 1] : memref<64x1x768xf32> to memref<64x12x1x64xf32>
    %40 = rmem.alloc_memref(2, ) {alignment = 16 : i64, 
      access_mem_catcher = [["ref2", 0]]  
    } : <1, memref<64x12x256x64xf32>>
    affine.for %arg3 = 0 to 64 {
      affine.for %arg4 = 0 to 12 {
        affine.for %arg5 = 0 to 255 {
          affine.for %arg6 = 0 to 64 {
            %74 = affine.load %arg1[%arg3, %arg4, %arg5, %arg6] : memref<64x12x255x64xf32>
            rmem.affine.store %74 -> %40[%arg3, %arg4, %arg5, %arg6] {map = #map7} : f32, !rmem.rmref<1, memref<64x12x256x64xf32>>, index, index, index, index
          }
        }
      }
    } {"pf_target" = 1, "nahead" = 4, "batch" = 4,
    "access_mem" = [
      ["ref2", #amap1, 196608, "t2"]
    ]}
    affine.for %arg3 = 0 to 64 {
      affine.for %arg4 = 0 to 12 {
        affine.for %arg5 = 0 to 1 {
          affine.for %arg6 = 0 to 64 {
            %74 = affine.load %reinterpret_cast_61[%arg3, %arg4, %arg5, %arg6] : memref<64x12x1x64xf32>
            rmem.affine.store %74 -> %40[%arg3, %arg4, %arg5, %arg6] {map = #map8} : f32, !rmem.rmref<1, memref<64x12x256x64xf32>>, index, index, index, index
          }
        }
      }
    } {"pf_target" = 1, "nahead" = 4, "batch" = 4,
    "access_mem" = [
      ["ref2", #amap1, 196608, "t2"]
    ]}
    %41 = rmem.alloc_memref(2, ) {alignment = 16 : i64,
      access_mem_catcher = [["ref3", 0]]  
    } : <1, memref<64x12x256x64xf32>>
    affine.for %arg3 = 0 to 64 {
      affine.for %arg4 = 0 to 12 {
        affine.for %arg5 = 0 to 255 {
          affine.for %arg6 = 0 to 64 {
            %74 = affine.load %arg2[%arg3, %arg4, %arg5, %arg6] : memref<64x12x255x64xf32>
            rmem.affine.store %74 -> %41[%arg3, %arg4, %arg5, %arg6] {map = #map7} : f32, !rmem.rmref<1, memref<64x12x256x64xf32>>, index, index, index, index
          }
        }
      }
    } {"pf_target" = 1, "nahead" = 4, "batch" = 4,
    "access_mem" = [
      ["ref3", #amap1, 196608, "t3"]
    ]}
    affine.for %arg3 = 0 to 64 {
      affine.for %arg4 = 0 to 12 {
        affine.for %arg5 = 0 to 1 {
          affine.for %arg6 = 0 to 64 {
            %74 = affine.load %reinterpret_cast_62[%arg3, %arg4, %arg5, %arg6] : memref<64x12x1x64xf32>
            rmem.affine.store %74 -> %41[%arg3, %arg4, %arg5, %arg6] {map = #map8} : f32, !rmem.rmref<1, memref<64x12x256x64xf32>>, index, index, index, index
          }
        }
      }
    } {"pf_target" = 1, "nahead" = 4, "batch" = 4,
    "access_mem" = [
      ["ref3", #amap1, 196608, "t3"]
    ]}
    // %42 = rmem.alloc_memref(2, ) {alignment = 16 : i64} : <1, memref<64x12x64x256xf32>>
    // affine.for %arg3 = 0 to 64 {
    //   affine.for %arg4 = 0 to 12 {
    //     affine.for %arg5 = 0 to 256 {
    //       affine.for %arg6 = 0 to 64 {
    //         %74 = rmem.affine.load %40[%arg3, %arg4, %arg5, %arg6] {map = #map7} : (!rmem.rmref<1, memref<64x12x256x64xf32>>, index, index, index, index) -> f32
    //         rmem.affine.store %74 -> %42[%arg3, %arg4, %arg6, %arg5] {map = #map7} : f32, !rmem.rmref<1, memref<64x12x64x256xf32>>, index, index, index, index
    //       }
    //     }
    //   }
    // }
    // %alloc_63 = memref.alloc() {alignment = 16 : i64} : memref<64x12x1x256xf32>
    // affine.for %arg3 = 0 to 64 {
    //   affine.for %arg4 = 0 to 12 {
    //     affine.for %arg5 = 0 to 1 {
    //       affine.for %arg6 = 0 to 256 {
    //         affine.store %cst, %alloc_63[%arg3, %arg4, %arg5, %arg6] : memref<64x12x1x256xf32>
    //       }
    //     }
    //   }
    // }
    // affine.for %arg3 = 0 to 64 {
    //   affine.for %arg4 = 0 to 12 {
    //     affine.for %arg5 = 0 to 1 {
    //       affine.for %arg6 = 0 to 256 step 8 {
    //         affine.for %arg7 = 0 to 64 step 8 {
    //           %alloca = memref.alloca() {alignment = 64 : i64} : memref<1xvector<8xf32>>
    //           affine.for %arg8 = 0 to 1 {
    //             %74 = arith.addi %arg8, %arg5 : index
    //             %75 = vector.load %alloc_63[%arg3, %arg4, %74, %arg6] : memref<64x12x1x256xf32>, vector<8xf32>
    //             affine.store %75, %alloca[0] : memref<1xvector<8xf32>>
    //             %76 = memref.load %reinterpret_cast_60[%arg3, %arg4, %74, %arg7] : memref<64x12x1x64xf32>
    //             %77 = vector.broadcast %76 : f32 to vector<8xf32>
    //             %78 = rmem.vec.load %42[%arg3, %arg4, %arg7, %arg6] : !rmem.rmref<1, memref<64x12x64x256xf32>>, vector<8xf32>
    //             %79 = affine.load %alloca[0] : memref<1xvector<8xf32>>
    //             %80 = vector.fma %77, %78, %79 : vector<8xf32>
    //             affine.store %80, %alloca[0] : memref<1xvector<8xf32>>
    //             %81 = arith.addi %arg7, %c1 : index
    //             %82 = memref.load %reinterpret_cast_60[%arg3, %arg4, %74, %81] : memref<64x12x1x64xf32>
    //             %83 = vector.broadcast %82 : f32 to vector<8xf32>
    //             %84 = rmem.vec.load %42[%arg3, %arg4, %81, %arg6] : !rmem.rmref<1, memref<64x12x64x256xf32>>, vector<8xf32>
    //             %85 = affine.load %alloca[0] : memref<1xvector<8xf32>>
    //             %86 = vector.fma %83, %84, %85 : vector<8xf32>
    //             affine.store %86, %alloca[0] : memref<1xvector<8xf32>>
    //             %87 = arith.addi %arg7, %c2 : index
    //             %88 = memref.load %reinterpret_cast_60[%arg3, %arg4, %74, %87] : memref<64x12x1x64xf32>
    //             %89 = vector.broadcast %88 : f32 to vector<8xf32>
    //             %90 = rmem.vec.load %42[%arg3, %arg4, %87, %arg6] : !rmem.rmref<1, memref<64x12x64x256xf32>>, vector<8xf32>
    //             %91 = affine.load %alloca[0] : memref<1xvector<8xf32>>
    //             %92 = vector.fma %89, %90, %91 : vector<8xf32>
    //             affine.store %92, %alloca[0] : memref<1xvector<8xf32>>
    //             %93 = arith.addi %arg7, %c3 : index
    //             %94 = memref.load %reinterpret_cast_60[%arg3, %arg4, %74, %93] : memref<64x12x1x64xf32>
    //             %95 = vector.broadcast %94 : f32 to vector<8xf32>
    //             %96 = rmem.vec.load %42[%arg3, %arg4, %93, %arg6] : !rmem.rmref<1, memref<64x12x64x256xf32>>, vector<8xf32>
    //             %97 = affine.load %alloca[0] : memref<1xvector<8xf32>>
    //             %98 = vector.fma %95, %96, %97 : vector<8xf32>
    //             affine.store %98, %alloca[0] : memref<1xvector<8xf32>>
    //             %99 = arith.addi %arg7, %c4 : index
    //             %100 = memref.load %reinterpret_cast_60[%arg3, %arg4, %74, %99] : memref<64x12x1x64xf32>
    //             %101 = vector.broadcast %100 : f32 to vector<8xf32>
    //             %102 = rmem.vec.load %42[%arg3, %arg4, %99, %arg6] : !rmem.rmref<1, memref<64x12x64x256xf32>>, vector<8xf32>
    //             %103 = affine.load %alloca[0] : memref<1xvector<8xf32>>
    //             %104 = vector.fma %101, %102, %103 : vector<8xf32>
    //             affine.store %104, %alloca[0] : memref<1xvector<8xf32>>
    //             %105 = arith.addi %arg7, %c5 : index
    //             %106 = memref.load %reinterpret_cast_60[%arg3, %arg4, %74, %105] : memref<64x12x1x64xf32>
    //             %107 = vector.broadcast %106 : f32 to vector<8xf32>
    //             %108 = rmem.vec.load %42[%arg3, %arg4, %105, %arg6] : !rmem.rmref<1, memref<64x12x64x256xf32>>, vector<8xf32>
    //             %109 = affine.load %alloca[0] : memref<1xvector<8xf32>>
    //             %110 = vector.fma %107, %108, %109 : vector<8xf32>
    //             affine.store %110, %alloca[0] : memref<1xvector<8xf32>>
    //             %111 = arith.addi %arg7, %c6 : index
    //             %112 = memref.load %reinterpret_cast_60[%arg3, %arg4, %74, %111] : memref<64x12x1x64xf32>
    //             %113 = vector.broadcast %112 : f32 to vector<8xf32>
    //             %114 = rmem.vec.load %42[%arg3, %arg4, %111, %arg6] : !rmem.rmref<1, memref<64x12x64x256xf32>>, vector<8xf32>
    //             %115 = affine.load %alloca[0] : memref<1xvector<8xf32>>
    //             %116 = vector.fma %113, %114, %115 : vector<8xf32>
    //             affine.store %116, %alloca[0] : memref<1xvector<8xf32>>
    //             %117 = arith.addi %arg7, %c7 : index
    //             %118 = memref.load %reinterpret_cast_60[%arg3, %arg4, %74, %117] : memref<64x12x1x64xf32>
    //             %119 = vector.broadcast %118 : f32 to vector<8xf32>
    //             %120 = rmem.vec.load %42[%arg3, %arg4, %117, %arg6] : !rmem.rmref<1, memref<64x12x64x256xf32>>, vector<8xf32>
    //             %121 = affine.load %alloca[0] : memref<1xvector<8xf32>>
    //             %122 = vector.fma %119, %120, %121 : vector<8xf32>
    //             affine.store %122, %alloca[0] : memref<1xvector<8xf32>>
    //             %123 = affine.load %alloca[0] : memref<1xvector<8xf32>>
    //             vector.store %123, %alloc_63[%arg3, %arg4, %74, %arg6] : memref<64x12x1x256xf32>, vector<8xf32>
    //           }
    //         }
    //       }
    //     }
    //   }
    // }
    // %alloc_64 = memref.alloc() : memref<f32>
    // %cast_65 = memref.cast %alloc_64 : memref<f32> to memref<*xf32>
    // %43 = llvm.mlir.addressof @constant_27 : !llvm.ptr<array<12 x i8>>
    // %44 = llvm.getelementptr %43[0, 0] : (!llvm.ptr<array<12 x i8>>) -> !llvm.ptr<i8>
    // call @read_tensor_f32(%44, %cast_65) : (!llvm.ptr<i8>, memref<*xf32>) -> ()
    // %alloc_66 = memref.alloc() : memref<f32>
    // %cast_67 = memref.cast %alloc_66 : memref<f32> to memref<*xf32>
    // %45 = llvm.mlir.addressof @constant_28 : !llvm.ptr<array<12 x i8>>
    // %46 = llvm.getelementptr %45[0, 0] : (!llvm.ptr<array<12 x i8>>) -> !llvm.ptr<i8>
    // call @read_tensor_f32(%46, %cast_67) : (!llvm.ptr<i8>, memref<*xf32>) -> ()
    // %alloc_68 = memref.alloc() : memref<f32>
    // %47 = affine.load %alloc_64[] : memref<f32>
    // %48 = affine.load %alloc_66[] : memref<f32>
    // %49 = math.powf %47, %48 : f32
    // affine.store %49, %alloc_68[] : memref<f32>
    // %alloc_69 = memref.alloc() : memref<f32>
    // affine.store %cst, %alloc_69[] : memref<f32>
    // %alloc_70 = memref.alloc() : memref<f32>
    // %50 = affine.load %alloc_69[] : memref<f32>
    // %51 = affine.load %alloc_68[] : memref<f32>
    // %52 = arith.addf %50, %51 : f32
    // affine.store %52, %alloc_70[] : memref<f32>
    // %alloc_71 = memref.alloc() {alignment = 16 : i64} : memref<64x12x1x256xf32>
    // affine.for %arg3 = 0 to 64 {
    //   affine.for %arg4 = 0 to 12 {
    //     affine.for %arg5 = 0 to 1 {
    //       affine.for %arg6 = 0 to 256 {
    //         %74 = affine.load %alloc_63[%arg3, %arg4, %arg5, %arg6] : memref<64x12x1x256xf32>
    //         %75 = affine.load %alloc_70[] : memref<f32>
    //         %76 = arith.divf %74, %75 : f32
    //         affine.store %76, %alloc_71[%arg3, %arg4, %arg5, %arg6] : memref<64x12x1x256xf32>
    //       }
    //     }
    //   }
    // }
    // %alloc_72 = memref.alloc() : memref<f32>
    // %cast_73 = memref.cast %alloc_72 : memref<f32> to memref<*xf32>
    // %53 = llvm.mlir.addressof @constant_30 : !llvm.ptr<array<12 x i8>>
    // %54 = llvm.getelementptr %53[0, 0] : (!llvm.ptr<array<12 x i8>>) -> !llvm.ptr<i8>
    // call @read_tensor_f32(%54, %cast_73) : (!llvm.ptr<i8>, memref<*xf32>) -> ()
    // %alloc_74 = memref.alloc() {alignment = 16 : i64} : memref<64x12x1x256xf32>
    // affine.for %arg3 = 0 to 64 {
    //   affine.for %arg4 = 0 to 12 {
    //     affine.for %arg5 = 0 to 1 {
    //       affine.for %arg6 = 0 to 256 {
    //         %74 = affine.load %alloc_31[0, 0, %arg5, %arg6] : memref<1x1x1x256xi1>
    //         %75 = affine.load %alloc_71[%arg3, %arg4, %arg5, %arg6] : memref<64x12x1x256xf32>
    //         %76 = affine.load %alloc_72[] : memref<f32>
    //         %77 = arith.select %74, %75, %76 : f32
    //         affine.store %77, %alloc_74[%arg3, %arg4, %arg5, %arg6] : memref<64x12x1x256xf32>
    //       }
    //     }
    //   }
    // }
    // %alloc_75 = memref.alloc() {alignment = 16 : i64} : memref<64x12x1x256xf32>
    // %alloc_76 = memref.alloc() : memref<f32>
    // %alloc_77 = memref.alloc() : memref<f32>
    // affine.for %arg3 = 0 to 64 {
    //   affine.for %arg4 = 0 to 12 {
    //     affine.for %arg5 = 0 to 1 {
    //       affine.store %cst, %alloc_76[] : memref<f32>
    //       affine.store %cst_0, %alloc_77[] : memref<f32>
    //       affine.for %arg6 = 0 to 256 {
    //         %76 = affine.load %alloc_77[] : memref<f32>
    //         %77 = affine.load %alloc_74[%arg3, %arg4, %arg5, %arg6] : memref<64x12x1x256xf32>
    //         %78 = arith.cmpf ogt, %76, %77 : f32
    //         %79 = arith.select %78, %76, %77 : f32
    //         affine.store %79, %alloc_77[] : memref<f32>
    //       }
    //       %74 = affine.load %alloc_77[] : memref<f32>
    //       affine.for %arg6 = 0 to 256 {
    //         %76 = affine.load %alloc_76[] : memref<f32>
    //         %77 = affine.load %alloc_74[%arg3, %arg4, %arg5, %arg6] : memref<64x12x1x256xf32>
    //         %78 = arith.subf %77, %74 : f32
    //         %79 = math.exp %78 : f32
    //         %80 = arith.addf %76, %79 : f32
    //         affine.store %80, %alloc_76[] : memref<f32>
    //         affine.store %79, %alloc_75[%arg3, %arg4, %arg5, %arg6] : memref<64x12x1x256xf32>
    //       }
    //       %75 = affine.load %alloc_76[] : memref<f32>
    //       affine.for %arg6 = 0 to 256 {
    //         %76 = affine.load %alloc_75[%arg3, %arg4, %arg5, %arg6] : memref<64x12x1x256xf32>
    //         %77 = arith.divf %76, %75 : f32
    //         affine.store %77, %alloc_75[%arg3, %arg4, %arg5, %arg6] : memref<64x12x1x256xf32>
    //       }
    //     }
    //   }
    // }
    // %alloc_78 = memref.alloc() {alignment = 16 : i64} : memref<64x12x1x64xf32>
    // affine.for %arg3 = 0 to 64 {
    //   affine.for %arg4 = 0 to 12 {
    //     affine.for %arg5 = 0 to 1 {
    //       affine.for %arg6 = 0 to 64 {
    //         affine.store %cst, %alloc_78[%arg3, %arg4, %arg5, %arg6] : memref<64x12x1x64xf32>
    //       }
    //     }
    //   }
    // }
    // affine.for %arg3 = 0 to 64 {
    //   affine.for %arg4 = 0 to 12 {
    //     affine.for %arg5 = 0 to 1 {
    //       affine.for %arg6 = 0 to 64 step 8 {
    //         affine.for %arg7 = 0 to 256 step 8 {
    //           %alloca = memref.alloca() {alignment = 64 : i64} : memref<1xvector<8xf32>>
    //           affine.for %arg8 = 0 to 1 {
    //             %74 = arith.addi %arg8, %arg5 : index
    //             %75 = vector.load %alloc_78[%arg3, %arg4, %74, %arg6] : memref<64x12x1x64xf32>, vector<8xf32>
    //             affine.store %75, %alloca[0] : memref<1xvector<8xf32>>
    //             %76 = memref.load %alloc_75[%arg3, %arg4, %74, %arg7] : memref<64x12x1x256xf32>
    //             %77 = vector.broadcast %76 : f32 to vector<8xf32>
    //             %78 = rmem.vec.load %41[%arg3, %arg4, %arg7, %arg6] : !rmem.rmref<1, memref<64x12x256x64xf32>>, vector<8xf32>
    //             %79 = affine.load %alloca[0] : memref<1xvector<8xf32>>
    //             %80 = vector.fma %77, %78, %79 : vector<8xf32>
    //             affine.store %80, %alloca[0] : memref<1xvector<8xf32>>
    //             %81 = arith.addi %arg7, %c1 : index
    //             %82 = memref.load %alloc_75[%arg3, %arg4, %74, %81] : memref<64x12x1x256xf32>
    //             %83 = vector.broadcast %82 : f32 to vector<8xf32>
    //             %84 = rmem.vec.load %41[%arg3, %arg4, %81, %arg6] : !rmem.rmref<1, memref<64x12x256x64xf32>>, vector<8xf32>
    //             %85 = affine.load %alloca[0] : memref<1xvector<8xf32>>
    //             %86 = vector.fma %83, %84, %85 : vector<8xf32>
    //             affine.store %86, %alloca[0] : memref<1xvector<8xf32>>
    //             %87 = arith.addi %arg7, %c2 : index
    //             %88 = memref.load %alloc_75[%arg3, %arg4, %74, %87] : memref<64x12x1x256xf32>
    //             %89 = vector.broadcast %88 : f32 to vector<8xf32>
    //             %90 = rmem.vec.load %41[%arg3, %arg4, %87, %arg6] : !rmem.rmref<1, memref<64x12x256x64xf32>>, vector<8xf32>
    //             %91 = affine.load %alloca[0] : memref<1xvector<8xf32>>
    //             %92 = vector.fma %89, %90, %91 : vector<8xf32>
    //             affine.store %92, %alloca[0] : memref<1xvector<8xf32>>
    //             %93 = arith.addi %arg7, %c3 : index
    //             %94 = memref.load %alloc_75[%arg3, %arg4, %74, %93] : memref<64x12x1x256xf32>
    //             %95 = vector.broadcast %94 : f32 to vector<8xf32>
    //             %96 = rmem.vec.load %41[%arg3, %arg4, %93, %arg6] : !rmem.rmref<1, memref<64x12x256x64xf32>>, vector<8xf32>
    //             %97 = affine.load %alloca[0] : memref<1xvector<8xf32>>
    //             %98 = vector.fma %95, %96, %97 : vector<8xf32>
    //             affine.store %98, %alloca[0] : memref<1xvector<8xf32>>
    //             %99 = arith.addi %arg7, %c4 : index
    //             %100 = memref.load %alloc_75[%arg3, %arg4, %74, %99] : memref<64x12x1x256xf32>
    //             %101 = vector.broadcast %100 : f32 to vector<8xf32>
    //             %102 = rmem.vec.load %41[%arg3, %arg4, %99, %arg6] : !rmem.rmref<1, memref<64x12x256x64xf32>>, vector<8xf32>
    //             %103 = affine.load %alloca[0] : memref<1xvector<8xf32>>
    //             %104 = vector.fma %101, %102, %103 : vector<8xf32>
    //             affine.store %104, %alloca[0] : memref<1xvector<8xf32>>
    //             %105 = arith.addi %arg7, %c5 : index
    //             %106 = memref.load %alloc_75[%arg3, %arg4, %74, %105] : memref<64x12x1x256xf32>
    //             %107 = vector.broadcast %106 : f32 to vector<8xf32>
    //             %108 = rmem.vec.load %41[%arg3, %arg4, %105, %arg6] : !rmem.rmref<1, memref<64x12x256x64xf32>>, vector<8xf32>
    //             %109 = affine.load %alloca[0] : memref<1xvector<8xf32>>
    //             %110 = vector.fma %107, %108, %109 : vector<8xf32>
    //             affine.store %110, %alloca[0] : memref<1xvector<8xf32>>
    //             %111 = arith.addi %arg7, %c6 : index
    //             %112 = memref.load %alloc_75[%arg3, %arg4, %74, %111] : memref<64x12x1x256xf32>
    //             %113 = vector.broadcast %112 : f32 to vector<8xf32>
    //             %114 = rmem.vec.load %41[%arg3, %arg4, %111, %arg6] : !rmem.rmref<1, memref<64x12x256x64xf32>>, vector<8xf32>
    //             %115 = affine.load %alloca[0] : memref<1xvector<8xf32>>
    //             %116 = vector.fma %113, %114, %115 : vector<8xf32>
    //             affine.store %116, %alloca[0] : memref<1xvector<8xf32>>
    //             %117 = arith.addi %arg7, %c7 : index
    //             %118 = memref.load %alloc_75[%arg3, %arg4, %74, %117] : memref<64x12x1x256xf32>
    //             %119 = vector.broadcast %118 : f32 to vector<8xf32>
    //             %120 = rmem.vec.load %41[%arg3, %arg4, %117, %arg6] : !rmem.rmref<1, memref<64x12x256x64xf32>>, vector<8xf32>
    //             %121 = affine.load %alloca[0] : memref<1xvector<8xf32>>
    //             %122 = vector.fma %119, %120, %121 : vector<8xf32>
    //             affine.store %122, %alloca[0] : memref<1xvector<8xf32>>
    //             %123 = affine.load %alloca[0] : memref<1xvector<8xf32>>
    //             vector.store %123, %alloc_78[%arg3, %arg4, %74, %arg6] : memref<64x12x1x64xf32>, vector<8xf32>
    //           }
    //         }
    //       }
    //     }
    //   }
    // }
    // %reinterpret_cast_79 = memref.reinterpret_cast %alloc_78 to offset: [0], sizes: [64, 768], strides: [768, 1] : memref<64x12x1x64xf32> to memref<64x768xf32>
    // %alloc_80 = memref.alloc() {alignment = 128 : i64} : memref<64x768xf32>
    // affine.for %arg3 = 0 to 64 {
    //   affine.for %arg4 = 0 to 768 {
    //     affine.store %cst, %alloc_80[%arg3, %arg4] : memref<64x768xf32>
    //   }
    // }
    // %alloc_81 = memref.alloc() {alignment = 128 : i64} : memref<32x256xf32>
    // %alloc_82 = memref.alloc() {alignment = 128 : i64} : memref<256x64xf32>
    // affine.for %arg3 = 0 to 768 step 64 {
    //   affine.for %arg4 = 0 to 768 step 256 {
    //     affine.for %arg5 = 0 to 256 {
    //       affine.for %arg6 = 0 to 64 {
    //         %74 = affine.load %alloc_11[%arg4 + %arg5, %arg3 + %arg6] : memref<768x768xf32>
    //         affine.store %74, %alloc_82[%arg5, %arg6] : memref<256x64xf32>
    //       }
    //     }
    //     affine.for %arg5 = 0 to 64 step 32 {
    //       affine.for %arg6 = 0 to 32 {
    //         affine.for %arg7 = 0 to 256 {
    //           %74 = affine.load %reinterpret_cast_79[%arg5 + %arg6, %arg4 + %arg7] : memref<64x768xf32>
    //           affine.store %74, %alloc_81[%arg6, %arg7] : memref<32x256xf32>
    //         }
    //       }
    //       affine.for %arg6 = #map(%arg3) to #map1(%arg3) step 16 {
    //         affine.for %arg7 = #map(%arg5) to #map2(%arg5) step 4 {
    //           %74 = affine.apply #map3(%arg5, %arg7)
    //           %75 = affine.apply #map3(%arg3, %arg6)
    //           %alloca = memref.alloca() {alignment = 64 : i64} : memref<4xvector<16xf32>>
    //           %76 = vector.load %alloc_80[%arg7, %arg6] : memref<64x768xf32>, vector<16xf32>
    //           affine.store %76, %alloca[0] : memref<4xvector<16xf32>>
    //           %77 = arith.addi %arg7, %c1 : index
    //           %78 = vector.load %alloc_80[%77, %arg6] : memref<64x768xf32>, vector<16xf32>
    //           affine.store %78, %alloca[1] : memref<4xvector<16xf32>>
    //           %79 = arith.addi %arg7, %c2 : index
    //           %80 = vector.load %alloc_80[%79, %arg6] : memref<64x768xf32>, vector<16xf32>
    //           affine.store %80, %alloca[2] : memref<4xvector<16xf32>>
    //           %81 = arith.addi %arg7, %c3 : index
    //           %82 = vector.load %alloc_80[%81, %arg6] : memref<64x768xf32>, vector<16xf32>
    //           affine.store %82, %alloca[3] : memref<4xvector<16xf32>>
    //           affine.for %arg8 = 0 to 256 step 4 {
    //             %87 = memref.load %alloc_81[%74, %arg8] : memref<32x256xf32>
    //             %88 = vector.broadcast %87 : f32 to vector<16xf32>
    //             %89 = vector.load %alloc_82[%arg8, %75] : memref<256x64xf32>, vector<16xf32>
    //             %90 = affine.load %alloca[0] : memref<4xvector<16xf32>>
    //             %91 = vector.fma %88, %89, %90 : vector<16xf32>
    //             affine.store %91, %alloca[0] : memref<4xvector<16xf32>>
    //             %92 = affine.apply #map4(%arg8)
    //             %93 = memref.load %alloc_81[%74, %92] : memref<32x256xf32>
    //             %94 = vector.broadcast %93 : f32 to vector<16xf32>
    //             %95 = vector.load %alloc_82[%92, %75] : memref<256x64xf32>, vector<16xf32>
    //             %96 = affine.load %alloca[0] : memref<4xvector<16xf32>>
    //             %97 = vector.fma %94, %95, %96 : vector<16xf32>
    //             affine.store %97, %alloca[0] : memref<4xvector<16xf32>>
    //             %98 = affine.apply #map5(%arg8)
    //             %99 = memref.load %alloc_81[%74, %98] : memref<32x256xf32>
    //             %100 = vector.broadcast %99 : f32 to vector<16xf32>
    //             %101 = vector.load %alloc_82[%98, %75] : memref<256x64xf32>, vector<16xf32>
    //             %102 = affine.load %alloca[0] : memref<4xvector<16xf32>>
    //             %103 = vector.fma %100, %101, %102 : vector<16xf32>
    //             affine.store %103, %alloca[0] : memref<4xvector<16xf32>>
    //             %104 = affine.apply #map6(%arg8)
    //             %105 = memref.load %alloc_81[%74, %104] : memref<32x256xf32>
    //             %106 = vector.broadcast %105 : f32 to vector<16xf32>
    //             %107 = vector.load %alloc_82[%104, %75] : memref<256x64xf32>, vector<16xf32>
    //             %108 = affine.load %alloca[0] : memref<4xvector<16xf32>>
    //             %109 = vector.fma %106, %107, %108 : vector<16xf32>
    //             affine.store %109, %alloca[0] : memref<4xvector<16xf32>>
    //             %110 = arith.addi %74, %c1 : index
    //             %111 = memref.load %alloc_81[%110, %arg8] : memref<32x256xf32>
    //             %112 = vector.broadcast %111 : f32 to vector<16xf32>
    //             %113 = vector.load %alloc_82[%arg8, %75] : memref<256x64xf32>, vector<16xf32>
    //             %114 = affine.load %alloca[1] : memref<4xvector<16xf32>>
    //             %115 = vector.fma %112, %113, %114 : vector<16xf32>
    //             affine.store %115, %alloca[1] : memref<4xvector<16xf32>>
    //             %116 = memref.load %alloc_81[%110, %92] : memref<32x256xf32>
    //             %117 = vector.broadcast %116 : f32 to vector<16xf32>
    //             %118 = vector.load %alloc_82[%92, %75] : memref<256x64xf32>, vector<16xf32>
    //             %119 = affine.load %alloca[1] : memref<4xvector<16xf32>>
    //             %120 = vector.fma %117, %118, %119 : vector<16xf32>
    //             affine.store %120, %alloca[1] : memref<4xvector<16xf32>>
    //             %121 = memref.load %alloc_81[%110, %98] : memref<32x256xf32>
    //             %122 = vector.broadcast %121 : f32 to vector<16xf32>
    //             %123 = vector.load %alloc_82[%98, %75] : memref<256x64xf32>, vector<16xf32>
    //             %124 = affine.load %alloca[1] : memref<4xvector<16xf32>>
    //             %125 = vector.fma %122, %123, %124 : vector<16xf32>
    //             affine.store %125, %alloca[1] : memref<4xvector<16xf32>>
    //             %126 = memref.load %alloc_81[%110, %104] : memref<32x256xf32>
    //             %127 = vector.broadcast %126 : f32 to vector<16xf32>
    //             %128 = vector.load %alloc_82[%104, %75] : memref<256x64xf32>, vector<16xf32>
    //             %129 = affine.load %alloca[1] : memref<4xvector<16xf32>>
    //             %130 = vector.fma %127, %128, %129 : vector<16xf32>
    //             affine.store %130, %alloca[1] : memref<4xvector<16xf32>>
    //             %131 = arith.addi %74, %c2 : index
    //             %132 = memref.load %alloc_81[%131, %arg8] : memref<32x256xf32>
    //             %133 = vector.broadcast %132 : f32 to vector<16xf32>
    //             %134 = vector.load %alloc_82[%arg8, %75] : memref<256x64xf32>, vector<16xf32>
    //             %135 = affine.load %alloca[2] : memref<4xvector<16xf32>>
    //             %136 = vector.fma %133, %134, %135 : vector<16xf32>
    //             affine.store %136, %alloca[2] : memref<4xvector<16xf32>>
    //             %137 = memref.load %alloc_81[%131, %92] : memref<32x256xf32>
    //             %138 = vector.broadcast %137 : f32 to vector<16xf32>
    //             %139 = vector.load %alloc_82[%92, %75] : memref<256x64xf32>, vector<16xf32>
    //             %140 = affine.load %alloca[2] : memref<4xvector<16xf32>>
    //             %141 = vector.fma %138, %139, %140 : vector<16xf32>
    //             affine.store %141, %alloca[2] : memref<4xvector<16xf32>>
    //             %142 = memref.load %alloc_81[%131, %98] : memref<32x256xf32>
    //             %143 = vector.broadcast %142 : f32 to vector<16xf32>
    //             %144 = vector.load %alloc_82[%98, %75] : memref<256x64xf32>, vector<16xf32>
    //             %145 = affine.load %alloca[2] : memref<4xvector<16xf32>>
    //             %146 = vector.fma %143, %144, %145 : vector<16xf32>
    //             affine.store %146, %alloca[2] : memref<4xvector<16xf32>>
    //             %147 = memref.load %alloc_81[%131, %104] : memref<32x256xf32>
    //             %148 = vector.broadcast %147 : f32 to vector<16xf32>
    //             %149 = vector.load %alloc_82[%104, %75] : memref<256x64xf32>, vector<16xf32>
    //             %150 = affine.load %alloca[2] : memref<4xvector<16xf32>>
    //             %151 = vector.fma %148, %149, %150 : vector<16xf32>
    //             affine.store %151, %alloca[2] : memref<4xvector<16xf32>>
    //             %152 = arith.addi %74, %c3 : index
    //             %153 = memref.load %alloc_81[%152, %arg8] : memref<32x256xf32>
    //             %154 = vector.broadcast %153 : f32 to vector<16xf32>
    //             %155 = vector.load %alloc_82[%arg8, %75] : memref<256x64xf32>, vector<16xf32>
    //             %156 = affine.load %alloca[3] : memref<4xvector<16xf32>>
    //             %157 = vector.fma %154, %155, %156 : vector<16xf32>
    //             affine.store %157, %alloca[3] : memref<4xvector<16xf32>>
    //             %158 = memref.load %alloc_81[%152, %92] : memref<32x256xf32>
    //             %159 = vector.broadcast %158 : f32 to vector<16xf32>
    //             %160 = vector.load %alloc_82[%92, %75] : memref<256x64xf32>, vector<16xf32>
    //             %161 = affine.load %alloca[3] : memref<4xvector<16xf32>>
    //             %162 = vector.fma %159, %160, %161 : vector<16xf32>
    //             affine.store %162, %alloca[3] : memref<4xvector<16xf32>>
    //             %163 = memref.load %alloc_81[%152, %98] : memref<32x256xf32>
    //             %164 = vector.broadcast %163 : f32 to vector<16xf32>
    //             %165 = vector.load %alloc_82[%98, %75] : memref<256x64xf32>, vector<16xf32>
    //             %166 = affine.load %alloca[3] : memref<4xvector<16xf32>>
    //             %167 = vector.fma %164, %165, %166 : vector<16xf32>
    //             affine.store %167, %alloca[3] : memref<4xvector<16xf32>>
    //             %168 = memref.load %alloc_81[%152, %104] : memref<32x256xf32>
    //             %169 = vector.broadcast %168 : f32 to vector<16xf32>
    //             %170 = vector.load %alloc_82[%104, %75] : memref<256x64xf32>, vector<16xf32>
    //             %171 = affine.load %alloca[3] : memref<4xvector<16xf32>>
    //             %172 = vector.fma %169, %170, %171 : vector<16xf32>
    //             affine.store %172, %alloca[3] : memref<4xvector<16xf32>>
    //           }
    //           %83 = affine.load %alloca[0] : memref<4xvector<16xf32>>
    //           vector.store %83, %alloc_80[%arg7, %arg6] : memref<64x768xf32>, vector<16xf32>
    //           %84 = affine.load %alloca[1] : memref<4xvector<16xf32>>
    //           vector.store %84, %alloc_80[%77, %arg6] : memref<64x768xf32>, vector<16xf32>
    //           %85 = affine.load %alloca[2] : memref<4xvector<16xf32>>
    //           vector.store %85, %alloc_80[%79, %arg6] : memref<64x768xf32>, vector<16xf32>
    //           %86 = affine.load %alloca[3] : memref<4xvector<16xf32>>
    //           vector.store %86, %alloc_80[%81, %arg6] : memref<64x768xf32>, vector<16xf32>
    //         }
    //       }
    //     }
    //   }
    // }
    // affine.for %arg3 = 0 to 64 {
    //   affine.for %arg4 = 0 to 768 {
    //     %74 = affine.load %alloc_80[%arg3, %arg4] : memref<64x768xf32>
    //     %75 = affine.load %alloc_13[%arg4] : memref<768xf32>
    //     %76 = arith.addf %74, %75 : f32
    //     affine.store %76, %alloc_80[%arg3, %arg4] : memref<64x768xf32>
    //   }
    // }
    // %reinterpret_cast_83 = memref.reinterpret_cast %alloc_80 to offset: [0], sizes: [64, 1, 768], strides: [768, 768, 1] : memref<64x768xf32> to memref<64x1x768xf32>
    // %alloc_84 = memref.alloc() {alignment = 16 : i64} : memref<64x1x768xf32>
    // affine.for %arg3 = 0 to 64 {
    //   affine.for %arg4 = 0 to 1 {
    //     affine.for %arg5 = 0 to 768 {
    //       %74 = affine.load %reinterpret_cast_83[%arg3, %arg4, %arg5] : memref<64x1x768xf32>
    //       %75 = affine.load %alloc_35[%arg3, %arg4, %arg5] : memref<64x1x768xf32>
    //       %76 = arith.addf %74, %75 : f32
    //       affine.store %76, %alloc_84[%arg3, %arg4, %arg5] : memref<64x1x768xf32>
    //     }
    //   }
    // }
    // %alloc_85 = memref.alloc() {alignment = 16 : i64} : memref<64x1x768xf32>
    // affine.for %arg3 = 0 to 64 {
    //   affine.for %arg4 = 0 to 1 {
    //     affine.for %arg5 = 0 to 768 {
    //       %74 = affine.load %alloc_84[%arg3, %arg4, %arg5] : memref<64x1x768xf32>
    //       %75 = affine.load %alloc_36[0, %arg4, %arg5] : memref<1x1x768xf32>
    //       %76 = arith.addf %74, %75 : f32
    //       affine.store %76, %alloc_85[%arg3, %arg4, %arg5] : memref<64x1x768xf32>
    //     }
    //   }
    // }
    // %alloc_86 = memref.alloc() {alignment = 16 : i64} : memref<64x1x1xf32>
    // affine.for %arg3 = 0 to 64 {
    //   affine.for %arg4 = 0 to 1 {
    //     affine.for %arg5 = 0 to 1 {
    //       affine.store %cst, %alloc_86[%arg3, %arg4, %arg5] : memref<64x1x1xf32>
    //     }
    //   }
    // }
    // affine.for %arg3 = 0 to 64 {
    //   affine.for %arg4 = 0 to 1 {
    //     affine.for %arg5 = 0 to 768 {
    //       %74 = affine.load %alloc_85[%arg3, %arg4, %arg5] : memref<64x1x768xf32>
    //       %75 = affine.load %alloc_86[%arg3, %arg4, 0] : memref<64x1x1xf32>
    //       %76 = arith.addf %75, %74 : f32
    //       affine.store %76, %alloc_86[%arg3, %arg4, 0] : memref<64x1x1xf32>
    //     }
    //   }
    // }
    // affine.for %arg3 = 0 to 64 {
    //   affine.for %arg4 = 0 to 1 {
    //     affine.for %arg5 = 0 to 1 {
    //       %74 = affine.load %alloc_86[%arg3, %arg4, %arg5] : memref<64x1x1xf32>
    //       %75 = arith.divf %74, %cst_1 : f32
    //       affine.store %75, %alloc_86[%arg3, %arg4, %arg5] : memref<64x1x1xf32>
    //     }
    //   }
    // }
    // %alloc_87 = memref.alloc() {alignment = 16 : i64} : memref<64x1x768xf32>
    // affine.for %arg3 = 0 to 64 {
    //   affine.for %arg4 = 0 to 1 {
    //     affine.for %arg5 = 0 to 768 {
    //       %74 = affine.load %alloc_85[%arg3, %arg4, %arg5] : memref<64x1x768xf32>
    //       %75 = affine.load %alloc_86[%arg3, %arg4, 0] : memref<64x1x1xf32>
    //       %76 = arith.subf %74, %75 : f32
    //       affine.store %76, %alloc_87[%arg3, %arg4, %arg5] : memref<64x1x768xf32>
    //     }
    //   }
    // }
    // %alloc_88 = memref.alloc() : memref<f32>
    // %cast_89 = memref.cast %alloc_88 : memref<f32> to memref<*xf32>
    // %55 = llvm.mlir.addressof @constant_33 : !llvm.ptr<array<12 x i8>>
    // %56 = llvm.getelementptr %55[0, 0] : (!llvm.ptr<array<12 x i8>>) -> !llvm.ptr<i8>
    // call @read_tensor_f32(%56, %cast_89) : (!llvm.ptr<i8>, memref<*xf32>) -> ()
    // %alloc_90 = memref.alloc() {alignment = 16 : i64} : memref<64x1x768xf32>
    // affine.for %arg3 = 0 to 64 {
    //   affine.for %arg4 = 0 to 1 {
    //     affine.for %arg5 = 0 to 768 {
    //       %74 = affine.load %alloc_87[%arg3, %arg4, %arg5] : memref<64x1x768xf32>
    //       %75 = affine.load %alloc_88[] : memref<f32>
    //       %76 = math.powf %74, %75 : f32
    //       affine.store %76, %alloc_90[%arg3, %arg4, %arg5] : memref<64x1x768xf32>
    //     }
    //   }
    // }
    // %alloc_91 = memref.alloc() {alignment = 16 : i64} : memref<64x1x1xf32>
    // affine.for %arg3 = 0 to 64 {
    //   affine.for %arg4 = 0 to 1 {
    //     affine.for %arg5 = 0 to 1 {
    //       affine.store %cst, %alloc_91[%arg3, %arg4, %arg5] : memref<64x1x1xf32>
    //     }
    //   }
    // }
    // affine.for %arg3 = 0 to 64 {
    //   affine.for %arg4 = 0 to 1 {
    //     affine.for %arg5 = 0 to 768 {
    //       %74 = affine.load %alloc_90[%arg3, %arg4, %arg5] : memref<64x1x768xf32>
    //       %75 = affine.load %alloc_91[%arg3, %arg4, 0] : memref<64x1x1xf32>
    //       %76 = arith.addf %75, %74 : f32
    //       affine.store %76, %alloc_91[%arg3, %arg4, 0] : memref<64x1x1xf32>
    //     }
    //   }
    // }
    // affine.for %arg3 = 0 to 64 {
    //   affine.for %arg4 = 0 to 1 {
    //     affine.for %arg5 = 0 to 1 {
    //       %74 = affine.load %alloc_91[%arg3, %arg4, %arg5] : memref<64x1x1xf32>
    //       %75 = arith.divf %74, %cst_1 : f32
    //       affine.store %75, %alloc_91[%arg3, %arg4, %arg5] : memref<64x1x1xf32>
    //     }
    //   }
    // }
    // %alloc_92 = memref.alloc() : memref<f32>
    // %cast_93 = memref.cast %alloc_92 : memref<f32> to memref<*xf32>
    // %57 = llvm.mlir.addressof @constant_34 : !llvm.ptr<array<12 x i8>>
    // %58 = llvm.getelementptr %57[0, 0] : (!llvm.ptr<array<12 x i8>>) -> !llvm.ptr<i8>
    // call @read_tensor_f32(%58, %cast_93) : (!llvm.ptr<i8>, memref<*xf32>) -> ()
    // %alloc_94 = memref.alloc() {alignment = 16 : i64} : memref<64x1x1xf32>
    // affine.for %arg3 = 0 to 64 {
    //   affine.for %arg4 = 0 to 1 {
    //     affine.for %arg5 = 0 to 1 {
    //       %74 = affine.load %alloc_91[%arg3, %arg4, %arg5] : memref<64x1x1xf32>
    //       %75 = affine.load %alloc_92[] : memref<f32>
    //       %76 = arith.addf %74, %75 : f32
    //       affine.store %76, %alloc_94[%arg3, %arg4, %arg5] : memref<64x1x1xf32>
    //     }
    //   }
    // }
    // %alloc_95 = memref.alloc() {alignment = 16 : i64} : memref<64x1x1xf32>
    // affine.for %arg3 = 0 to 64 {
    //   affine.for %arg4 = 0 to 1 {
    //     affine.for %arg5 = 0 to 1 {
    //       %74 = affine.load %alloc_94[%arg3, %arg4, %arg5] : memref<64x1x1xf32>
    //       %75 = math.sqrt %74 : f32
    //       affine.store %75, %alloc_95[%arg3, %arg4, %arg5] : memref<64x1x1xf32>
    //     }
    //   }
    // }
    // %alloc_96 = memref.alloc() {alignment = 16 : i64} : memref<64x1x768xf32>
    // affine.for %arg3 = 0 to 64 {
    //   affine.for %arg4 = 0 to 1 {
    //     affine.for %arg5 = 0 to 768 {
    //       %74 = affine.load %alloc_87[%arg3, %arg4, %arg5] : memref<64x1x768xf32>
    //       %75 = affine.load %alloc_95[%arg3, %arg4, 0] : memref<64x1x1xf32>
    //       %76 = arith.divf %74, %75 : f32
    //       affine.store %76, %alloc_96[%arg3, %arg4, %arg5] : memref<64x1x768xf32>
    //     }
    //   }
    // }
    // %alloc_97 = memref.alloc() {alignment = 16 : i64} : memref<64x1x768xf32>
    // affine.for %arg3 = 0 to 64 {
    //   affine.for %arg4 = 0 to 1 {
    //     affine.for %arg5 = 0 to 768 {
    //       %74 = affine.load %alloc_96[%arg3, %arg4, %arg5] : memref<64x1x768xf32>
    //       %75 = affine.load %alloc_15[%arg5] : memref<768xf32>
    //       %76 = arith.mulf %74, %75 : f32
    //       affine.store %76, %alloc_97[%arg3, %arg4, %arg5] : memref<64x1x768xf32>
    //     }
    //   }
    // }
    // %alloc_98 = memref.alloc() {alignment = 16 : i64} : memref<64x1x768xf32>
    // affine.for %arg3 = 0 to 64 {
    //   affine.for %arg4 = 0 to 1 {
    //     affine.for %arg5 = 0 to 768 {
    //       %74 = affine.load %alloc_97[%arg3, %arg4, %arg5] : memref<64x1x768xf32>
    //       %75 = affine.load %alloc_17[%arg5] : memref<768xf32>
    //       %76 = arith.addf %74, %75 : f32
    //       affine.store %76, %alloc_98[%arg3, %arg4, %arg5] : memref<64x1x768xf32>
    //     }
    //   }
    // }
    // %reinterpret_cast_99 = memref.reinterpret_cast %alloc_98 to offset: [0], sizes: [64, 768], strides: [768, 1] : memref<64x1x768xf32> to memref<64x768xf32>
    // %alloc_100 = memref.alloc() {alignment = 128 : i64} : memref<64x3072xf32>
    // affine.for %arg3 = 0 to 64 {
    //   affine.for %arg4 = 0 to 3072 {
    //     affine.store %cst, %alloc_100[%arg3, %arg4] : memref<64x3072xf32>
    //   }
    // }
    // %alloc_101 = memref.alloc() {alignment = 128 : i64} : memref<32x256xf32>
    // %alloc_102 = memref.alloc() {alignment = 128 : i64} : memref<256x64xf32>
    // affine.for %arg3 = 0 to 3072 step 64 {
    //   affine.for %arg4 = 0 to 768 step 256 {
    //     affine.for %arg5 = 0 to 256 {
    //       affine.for %arg6 = 0 to 64 {
    //         %74 = affine.load %alloc_19[%arg4 + %arg5, %arg3 + %arg6] : memref<768x3072xf32>
    //         affine.store %74, %alloc_102[%arg5, %arg6] : memref<256x64xf32>
    //       }
    //     }
    //     affine.for %arg5 = 0 to 64 step 32 {
    //       affine.for %arg6 = 0 to 32 {
    //         affine.for %arg7 = 0 to 256 {
    //           %74 = affine.load %reinterpret_cast_99[%arg5 + %arg6, %arg4 + %arg7] : memref<64x768xf32>
    //           affine.store %74, %alloc_101[%arg6, %arg7] : memref<32x256xf32>
    //         }
    //       }
    //       affine.for %arg6 = #map(%arg3) to #map1(%arg3) step 16 {
    //         affine.for %arg7 = #map(%arg5) to #map2(%arg5) step 4 {
    //           %74 = affine.apply #map3(%arg5, %arg7)
    //           %75 = affine.apply #map3(%arg3, %arg6)
    //           %alloca = memref.alloca() {alignment = 64 : i64} : memref<4xvector<16xf32>>
    //           %76 = vector.load %alloc_100[%arg7, %arg6] : memref<64x3072xf32>, vector<16xf32>
    //           affine.store %76, %alloca[0] : memref<4xvector<16xf32>>
    //           %77 = arith.addi %arg7, %c1 : index
    //           %78 = vector.load %alloc_100[%77, %arg6] : memref<64x3072xf32>, vector<16xf32>
    //           affine.store %78, %alloca[1] : memref<4xvector<16xf32>>
    //           %79 = arith.addi %arg7, %c2 : index
    //           %80 = vector.load %alloc_100[%79, %arg6] : memref<64x3072xf32>, vector<16xf32>
    //           affine.store %80, %alloca[2] : memref<4xvector<16xf32>>
    //           %81 = arith.addi %arg7, %c3 : index
    //           %82 = vector.load %alloc_100[%81, %arg6] : memref<64x3072xf32>, vector<16xf32>
    //           affine.store %82, %alloca[3] : memref<4xvector<16xf32>>
    //           affine.for %arg8 = 0 to 256 step 4 {
    //             %87 = memref.load %alloc_101[%74, %arg8] : memref<32x256xf32>
    //             %88 = vector.broadcast %87 : f32 to vector<16xf32>
    //             %89 = vector.load %alloc_102[%arg8, %75] : memref<256x64xf32>, vector<16xf32>
    //             %90 = affine.load %alloca[0] : memref<4xvector<16xf32>>
    //             %91 = vector.fma %88, %89, %90 : vector<16xf32>
    //             affine.store %91, %alloca[0] : memref<4xvector<16xf32>>
    //             %92 = affine.apply #map4(%arg8)
    //             %93 = memref.load %alloc_101[%74, %92] : memref<32x256xf32>
    //             %94 = vector.broadcast %93 : f32 to vector<16xf32>
    //             %95 = vector.load %alloc_102[%92, %75] : memref<256x64xf32>, vector<16xf32>
    //             %96 = affine.load %alloca[0] : memref<4xvector<16xf32>>
    //             %97 = vector.fma %94, %95, %96 : vector<16xf32>
    //             affine.store %97, %alloca[0] : memref<4xvector<16xf32>>
    //             %98 = affine.apply #map5(%arg8)
    //             %99 = memref.load %alloc_101[%74, %98] : memref<32x256xf32>
    //             %100 = vector.broadcast %99 : f32 to vector<16xf32>
    //             %101 = vector.load %alloc_102[%98, %75] : memref<256x64xf32>, vector<16xf32>
    //             %102 = affine.load %alloca[0] : memref<4xvector<16xf32>>
    //             %103 = vector.fma %100, %101, %102 : vector<16xf32>
    //             affine.store %103, %alloca[0] : memref<4xvector<16xf32>>
    //             %104 = affine.apply #map6(%arg8)
    //             %105 = memref.load %alloc_101[%74, %104] : memref<32x256xf32>
    //             %106 = vector.broadcast %105 : f32 to vector<16xf32>
    //             %107 = vector.load %alloc_102[%104, %75] : memref<256x64xf32>, vector<16xf32>
    //             %108 = affine.load %alloca[0] : memref<4xvector<16xf32>>
    //             %109 = vector.fma %106, %107, %108 : vector<16xf32>
    //             affine.store %109, %alloca[0] : memref<4xvector<16xf32>>
    //             %110 = arith.addi %74, %c1 : index
    //             %111 = memref.load %alloc_101[%110, %arg8] : memref<32x256xf32>
    //             %112 = vector.broadcast %111 : f32 to vector<16xf32>
    //             %113 = vector.load %alloc_102[%arg8, %75] : memref<256x64xf32>, vector<16xf32>
    //             %114 = affine.load %alloca[1] : memref<4xvector<16xf32>>
    //             %115 = vector.fma %112, %113, %114 : vector<16xf32>
    //             affine.store %115, %alloca[1] : memref<4xvector<16xf32>>
    //             %116 = memref.load %alloc_101[%110, %92] : memref<32x256xf32>
    //             %117 = vector.broadcast %116 : f32 to vector<16xf32>
    //             %118 = vector.load %alloc_102[%92, %75] : memref<256x64xf32>, vector<16xf32>
    //             %119 = affine.load %alloca[1] : memref<4xvector<16xf32>>
    //             %120 = vector.fma %117, %118, %119 : vector<16xf32>
    //             affine.store %120, %alloca[1] : memref<4xvector<16xf32>>
    //             %121 = memref.load %alloc_101[%110, %98] : memref<32x256xf32>
    //             %122 = vector.broadcast %121 : f32 to vector<16xf32>
    //             %123 = vector.load %alloc_102[%98, %75] : memref<256x64xf32>, vector<16xf32>
    //             %124 = affine.load %alloca[1] : memref<4xvector<16xf32>>
    //             %125 = vector.fma %122, %123, %124 : vector<16xf32>
    //             affine.store %125, %alloca[1] : memref<4xvector<16xf32>>
    //             %126 = memref.load %alloc_101[%110, %104] : memref<32x256xf32>
    //             %127 = vector.broadcast %126 : f32 to vector<16xf32>
    //             %128 = vector.load %alloc_102[%104, %75] : memref<256x64xf32>, vector<16xf32>
    //             %129 = affine.load %alloca[1] : memref<4xvector<16xf32>>
    //             %130 = vector.fma %127, %128, %129 : vector<16xf32>
    //             affine.store %130, %alloca[1] : memref<4xvector<16xf32>>
    //             %131 = arith.addi %74, %c2 : index
    //             %132 = memref.load %alloc_101[%131, %arg8] : memref<32x256xf32>
    //             %133 = vector.broadcast %132 : f32 to vector<16xf32>
    //             %134 = vector.load %alloc_102[%arg8, %75] : memref<256x64xf32>, vector<16xf32>
    //             %135 = affine.load %alloca[2] : memref<4xvector<16xf32>>
    //             %136 = vector.fma %133, %134, %135 : vector<16xf32>
    //             affine.store %136, %alloca[2] : memref<4xvector<16xf32>>
    //             %137 = memref.load %alloc_101[%131, %92] : memref<32x256xf32>
    //             %138 = vector.broadcast %137 : f32 to vector<16xf32>
    //             %139 = vector.load %alloc_102[%92, %75] : memref<256x64xf32>, vector<16xf32>
    //             %140 = affine.load %alloca[2] : memref<4xvector<16xf32>>
    //             %141 = vector.fma %138, %139, %140 : vector<16xf32>
    //             affine.store %141, %alloca[2] : memref<4xvector<16xf32>>
    //             %142 = memref.load %alloc_101[%131, %98] : memref<32x256xf32>
    //             %143 = vector.broadcast %142 : f32 to vector<16xf32>
    //             %144 = vector.load %alloc_102[%98, %75] : memref<256x64xf32>, vector<16xf32>
    //             %145 = affine.load %alloca[2] : memref<4xvector<16xf32>>
    //             %146 = vector.fma %143, %144, %145 : vector<16xf32>
    //             affine.store %146, %alloca[2] : memref<4xvector<16xf32>>
    //             %147 = memref.load %alloc_101[%131, %104] : memref<32x256xf32>
    //             %148 = vector.broadcast %147 : f32 to vector<16xf32>
    //             %149 = vector.load %alloc_102[%104, %75] : memref<256x64xf32>, vector<16xf32>
    //             %150 = affine.load %alloca[2] : memref<4xvector<16xf32>>
    //             %151 = vector.fma %148, %149, %150 : vector<16xf32>
    //             affine.store %151, %alloca[2] : memref<4xvector<16xf32>>
    //             %152 = arith.addi %74, %c3 : index
    //             %153 = memref.load %alloc_101[%152, %arg8] : memref<32x256xf32>
    //             %154 = vector.broadcast %153 : f32 to vector<16xf32>
    //             %155 = vector.load %alloc_102[%arg8, %75] : memref<256x64xf32>, vector<16xf32>
    //             %156 = affine.load %alloca[3] : memref<4xvector<16xf32>>
    //             %157 = vector.fma %154, %155, %156 : vector<16xf32>
    //             affine.store %157, %alloca[3] : memref<4xvector<16xf32>>
    //             %158 = memref.load %alloc_101[%152, %92] : memref<32x256xf32>
    //             %159 = vector.broadcast %158 : f32 to vector<16xf32>
    //             %160 = vector.load %alloc_102[%92, %75] : memref<256x64xf32>, vector<16xf32>
    //             %161 = affine.load %alloca[3] : memref<4xvector<16xf32>>
    //             %162 = vector.fma %159, %160, %161 : vector<16xf32>
    //             affine.store %162, %alloca[3] : memref<4xvector<16xf32>>
    //             %163 = memref.load %alloc_101[%152, %98] : memref<32x256xf32>
    //             %164 = vector.broadcast %163 : f32 to vector<16xf32>
    //             %165 = vector.load %alloc_102[%98, %75] : memref<256x64xf32>, vector<16xf32>
    //             %166 = affine.load %alloca[3] : memref<4xvector<16xf32>>
    //             %167 = vector.fma %164, %165, %166 : vector<16xf32>
    //             affine.store %167, %alloca[3] : memref<4xvector<16xf32>>
    //             %168 = memref.load %alloc_101[%152, %104] : memref<32x256xf32>
    //             %169 = vector.broadcast %168 : f32 to vector<16xf32>
    //             %170 = vector.load %alloc_102[%104, %75] : memref<256x64xf32>, vector<16xf32>
    //             %171 = affine.load %alloca[3] : memref<4xvector<16xf32>>
    //             %172 = vector.fma %169, %170, %171 : vector<16xf32>
    //             affine.store %172, %alloca[3] : memref<4xvector<16xf32>>
    //           }
    //           %83 = affine.load %alloca[0] : memref<4xvector<16xf32>>
    //           vector.store %83, %alloc_100[%arg7, %arg6] : memref<64x3072xf32>, vector<16xf32>
    //           %84 = affine.load %alloca[1] : memref<4xvector<16xf32>>
    //           vector.store %84, %alloc_100[%77, %arg6] : memref<64x3072xf32>, vector<16xf32>
    //           %85 = affine.load %alloca[2] : memref<4xvector<16xf32>>
    //           vector.store %85, %alloc_100[%79, %arg6] : memref<64x3072xf32>, vector<16xf32>
    //           %86 = affine.load %alloca[3] : memref<4xvector<16xf32>>
    //           vector.store %86, %alloc_100[%81, %arg6] : memref<64x3072xf32>, vector<16xf32>
    //         }
    //       }
    //     }
    //   }
    // }
    // affine.for %arg3 = 0 to 64 {
    //   affine.for %arg4 = 0 to 3072 {
    //     %74 = affine.load %alloc_100[%arg3, %arg4] : memref<64x3072xf32>
    //     %75 = affine.load %alloc_21[%arg4] : memref<3072xf32>
    //     %76 = arith.addf %74, %75 : f32
    //     affine.store %76, %alloc_100[%arg3, %arg4] : memref<64x3072xf32>
    //   }
    // }
    // %reinterpret_cast_103 = memref.reinterpret_cast %alloc_100 to offset: [0], sizes: [64, 1, 3072], strides: [3072, 3072, 1] : memref<64x3072xf32> to memref<64x1x3072xf32>
    // %alloc_104 = memref.alloc() : memref<f32>
    // %cast_105 = memref.cast %alloc_104 : memref<f32> to memref<*xf32>
    // %59 = llvm.mlir.addressof @constant_37 : !llvm.ptr<array<12 x i8>>
    // %60 = llvm.getelementptr %59[0, 0] : (!llvm.ptr<array<12 x i8>>) -> !llvm.ptr<i8>
    // call @read_tensor_f32(%60, %cast_105) : (!llvm.ptr<i8>, memref<*xf32>) -> ()
    // %alloc_106 = memref.alloc() : memref<f32>
    // %cast_107 = memref.cast %alloc_106 : memref<f32> to memref<*xf32>
    // %61 = llvm.mlir.addressof @constant_38 : !llvm.ptr<array<12 x i8>>
    // %62 = llvm.getelementptr %61[0, 0] : (!llvm.ptr<array<12 x i8>>) -> !llvm.ptr<i8>
    // call @read_tensor_f32(%62, %cast_107) : (!llvm.ptr<i8>, memref<*xf32>) -> ()
    // %alloc_108 = memref.alloc() {alignment = 16 : i64} : memref<64x1x3072xf32>
    // affine.for %arg3 = 0 to 64 {
    //   affine.for %arg4 = 0 to 1 {
    //     affine.for %arg5 = 0 to 3072 {
    //       %74 = affine.load %reinterpret_cast_103[%arg3, %arg4, %arg5] : memref<64x1x3072xf32>
    //       %75 = affine.load %alloc_106[] : memref<f32>
    //       %76 = math.powf %74, %75 : f32
    //       affine.store %76, %alloc_108[%arg3, %arg4, %arg5] : memref<64x1x3072xf32>
    //     }
    //   }
    // }
    // %alloc_109 = memref.alloc() : memref<f32>
    // %cast_110 = memref.cast %alloc_109 : memref<f32> to memref<*xf32>
    // %63 = llvm.mlir.addressof @constant_39 : !llvm.ptr<array<12 x i8>>
    // %64 = llvm.getelementptr %63[0, 0] : (!llvm.ptr<array<12 x i8>>) -> !llvm.ptr<i8>
    // call @read_tensor_f32(%64, %cast_110) : (!llvm.ptr<i8>, memref<*xf32>) -> ()
    // %alloc_111 = memref.alloc() {alignment = 16 : i64} : memref<64x1x3072xf32>
    // affine.for %arg3 = 0 to 64 {
    //   affine.for %arg4 = 0 to 1 {
    //     affine.for %arg5 = 0 to 3072 {
    //       %74 = affine.load %alloc_108[%arg3, %arg4, %arg5] : memref<64x1x3072xf32>
    //       %75 = affine.load %alloc_109[] : memref<f32>
    //       %76 = arith.mulf %74, %75 : f32
    //       affine.store %76, %alloc_111[%arg3, %arg4, %arg5] : memref<64x1x3072xf32>
    //     }
    //   }
    // }
    // %alloc_112 = memref.alloc() {alignment = 16 : i64} : memref<64x1x3072xf32>
    // affine.for %arg3 = 0 to 64 {
    //   affine.for %arg4 = 0 to 1 {
    //     affine.for %arg5 = 0 to 3072 {
    //       %74 = affine.load %reinterpret_cast_103[%arg3, %arg4, %arg5] : memref<64x1x3072xf32>
    //       %75 = affine.load %alloc_111[%arg3, %arg4, %arg5] : memref<64x1x3072xf32>
    //       %76 = arith.addf %74, %75 : f32
    //       affine.store %76, %alloc_112[%arg3, %arg4, %arg5] : memref<64x1x3072xf32>
    //     }
    //   }
    // }
    // %alloc_113 = memref.alloc() : memref<f32>
    // %cast_114 = memref.cast %alloc_113 : memref<f32> to memref<*xf32>
    // %65 = llvm.mlir.addressof @constant_40 : !llvm.ptr<array<12 x i8>>
    // %66 = llvm.getelementptr %65[0, 0] : (!llvm.ptr<array<12 x i8>>) -> !llvm.ptr<i8>
    // call @read_tensor_f32(%66, %cast_114) : (!llvm.ptr<i8>, memref<*xf32>) -> ()
    // %alloc_115 = memref.alloc() {alignment = 16 : i64} : memref<64x1x3072xf32>
    // affine.for %arg3 = 0 to 64 {
    //   affine.for %arg4 = 0 to 1 {
    //     affine.for %arg5 = 0 to 3072 {
    //       %74 = affine.load %alloc_112[%arg3, %arg4, %arg5] : memref<64x1x3072xf32>
    //       %75 = affine.load %alloc_113[] : memref<f32>
    //       %76 = arith.mulf %74, %75 : f32
    //       affine.store %76, %alloc_115[%arg3, %arg4, %arg5] : memref<64x1x3072xf32>
    //     }
    //   }
    // }
    // %alloc_116 = memref.alloc() {alignment = 16 : i64} : memref<64x1x3072xf32>
    // affine.for %arg3 = 0 to 64 {
    //   affine.for %arg4 = 0 to 1 {
    //     affine.for %arg5 = 0 to 3072 {
    //       %74 = affine.load %alloc_115[%arg3, %arg4, %arg5] : memref<64x1x3072xf32>
    //       %75 = math.tanh %74 : f32
    //       affine.store %75, %alloc_116[%arg3, %arg4, %arg5] : memref<64x1x3072xf32>
    //     }
    //   }
    // }
    // %alloc_117 = memref.alloc() : memref<f32>
    // %cast_118 = memref.cast %alloc_117 : memref<f32> to memref<*xf32>
    // %67 = llvm.mlir.addressof @constant_41 : !llvm.ptr<array<12 x i8>>
    // %68 = llvm.getelementptr %67[0, 0] : (!llvm.ptr<array<12 x i8>>) -> !llvm.ptr<i8>
    // call @read_tensor_f32(%68, %cast_118) : (!llvm.ptr<i8>, memref<*xf32>) -> ()
    // %alloc_119 = memref.alloc() {alignment = 16 : i64} : memref<64x1x3072xf32>
    // affine.for %arg3 = 0 to 64 {
    //   affine.for %arg4 = 0 to 1 {
    //     affine.for %arg5 = 0 to 3072 {
    //       %74 = affine.load %alloc_116[%arg3, %arg4, %arg5] : memref<64x1x3072xf32>
    //       %75 = affine.load %alloc_117[] : memref<f32>
    //       %76 = arith.addf %74, %75 : f32
    //       affine.store %76, %alloc_119[%arg3, %arg4, %arg5] : memref<64x1x3072xf32>
    //     }
    //   }
    // }
    // %alloc_120 = memref.alloc() {alignment = 16 : i64} : memref<64x1x3072xf32>
    // affine.for %arg3 = 0 to 64 {
    //   affine.for %arg4 = 0 to 1 {
    //     affine.for %arg5 = 0 to 3072 {
    //       %74 = affine.load %reinterpret_cast_103[%arg3, %arg4, %arg5] : memref<64x1x3072xf32>
    //       %75 = affine.load %alloc_119[%arg3, %arg4, %arg5] : memref<64x1x3072xf32>
    //       %76 = arith.mulf %74, %75 : f32
    //       affine.store %76, %alloc_120[%arg3, %arg4, %arg5] : memref<64x1x3072xf32>
    //     }
    //   }
    // }
    // %alloc_121 = memref.alloc() {alignment = 16 : i64} : memref<64x1x3072xf32>
    // affine.for %arg3 = 0 to 64 {
    //   affine.for %arg4 = 0 to 1 {
    //     affine.for %arg5 = 0 to 3072 {
    //       %74 = affine.load %alloc_120[%arg3, %arg4, %arg5] : memref<64x1x3072xf32>
    //       %75 = affine.load %alloc_104[] : memref<f32>
    //       %76 = arith.mulf %74, %75 : f32
    //       affine.store %76, %alloc_121[%arg3, %arg4, %arg5] : memref<64x1x3072xf32>
    //     }
    //   }
    // }
    // %reinterpret_cast_122 = memref.reinterpret_cast %alloc_121 to offset: [0], sizes: [64, 3072], strides: [3072, 1] : memref<64x1x3072xf32> to memref<64x3072xf32>
    // %alloc_123 = memref.alloc() {alignment = 128 : i64} : memref<64x768xf32>
    // affine.for %arg3 = 0 to 64 {
    //   affine.for %arg4 = 0 to 768 {
    //     affine.store %cst, %alloc_123[%arg3, %arg4] : memref<64x768xf32>
    //   }
    // }
    // %alloc_124 = memref.alloc() {alignment = 128 : i64} : memref<32x256xf32>
    // %alloc_125 = memref.alloc() {alignment = 128 : i64} : memref<256x64xf32>
    // affine.for %arg3 = 0 to 768 step 64 {
    //   affine.for %arg4 = 0 to 3072 step 256 {
    //     affine.for %arg5 = 0 to 256 {
    //       affine.for %arg6 = 0 to 64 {
    //         %74 = affine.load %alloc_23[%arg4 + %arg5, %arg3 + %arg6] : memref<3072x768xf32>
    //         affine.store %74, %alloc_125[%arg5, %arg6] : memref<256x64xf32>
    //       }
    //     }
    //     affine.for %arg5 = 0 to 64 step 32 {
    //       affine.for %arg6 = 0 to 32 {
    //         affine.for %arg7 = 0 to 256 {
    //           %74 = affine.load %reinterpret_cast_122[%arg5 + %arg6, %arg4 + %arg7] : memref<64x3072xf32>
    //           affine.store %74, %alloc_124[%arg6, %arg7] : memref<32x256xf32>
    //         }
    //       }
    //       affine.for %arg6 = #map(%arg3) to #map1(%arg3) step 16 {
    //         affine.for %arg7 = #map(%arg5) to #map2(%arg5) step 4 {
    //           %74 = affine.apply #map3(%arg5, %arg7)
    //           %75 = affine.apply #map3(%arg3, %arg6)
    //           %alloca = memref.alloca() {alignment = 64 : i64} : memref<4xvector<16xf32>>
    //           %76 = vector.load %alloc_123[%arg7, %arg6] : memref<64x768xf32>, vector<16xf32>
    //           affine.store %76, %alloca[0] : memref<4xvector<16xf32>>
    //           %77 = arith.addi %arg7, %c1 : index
    //           %78 = vector.load %alloc_123[%77, %arg6] : memref<64x768xf32>, vector<16xf32>
    //           affine.store %78, %alloca[1] : memref<4xvector<16xf32>>
    //           %79 = arith.addi %arg7, %c2 : index
    //           %80 = vector.load %alloc_123[%79, %arg6] : memref<64x768xf32>, vector<16xf32>
    //           affine.store %80, %alloca[2] : memref<4xvector<16xf32>>
    //           %81 = arith.addi %arg7, %c3 : index
    //           %82 = vector.load %alloc_123[%81, %arg6] : memref<64x768xf32>, vector<16xf32>
    //           affine.store %82, %alloca[3] : memref<4xvector<16xf32>>
    //           affine.for %arg8 = 0 to 256 step 4 {
    //             %87 = memref.load %alloc_124[%74, %arg8] : memref<32x256xf32>
    //             %88 = vector.broadcast %87 : f32 to vector<16xf32>
    //             %89 = vector.load %alloc_125[%arg8, %75] : memref<256x64xf32>, vector<16xf32>
    //             %90 = affine.load %alloca[0] : memref<4xvector<16xf32>>
    //             %91 = vector.fma %88, %89, %90 : vector<16xf32>
    //             affine.store %91, %alloca[0] : memref<4xvector<16xf32>>
    //             %92 = affine.apply #map4(%arg8)
    //             %93 = memref.load %alloc_124[%74, %92] : memref<32x256xf32>
    //             %94 = vector.broadcast %93 : f32 to vector<16xf32>
    //             %95 = vector.load %alloc_125[%92, %75] : memref<256x64xf32>, vector<16xf32>
    //             %96 = affine.load %alloca[0] : memref<4xvector<16xf32>>
    //             %97 = vector.fma %94, %95, %96 : vector<16xf32>
    //             affine.store %97, %alloca[0] : memref<4xvector<16xf32>>
    //             %98 = affine.apply #map5(%arg8)
    //             %99 = memref.load %alloc_124[%74, %98] : memref<32x256xf32>
    //             %100 = vector.broadcast %99 : f32 to vector<16xf32>
    //             %101 = vector.load %alloc_125[%98, %75] : memref<256x64xf32>, vector<16xf32>
    //             %102 = affine.load %alloca[0] : memref<4xvector<16xf32>>
    //             %103 = vector.fma %100, %101, %102 : vector<16xf32>
    //             affine.store %103, %alloca[0] : memref<4xvector<16xf32>>
    //             %104 = affine.apply #map6(%arg8)
    //             %105 = memref.load %alloc_124[%74, %104] : memref<32x256xf32>
    //             %106 = vector.broadcast %105 : f32 to vector<16xf32>
    //             %107 = vector.load %alloc_125[%104, %75] : memref<256x64xf32>, vector<16xf32>
    //             %108 = affine.load %alloca[0] : memref<4xvector<16xf32>>
    //             %109 = vector.fma %106, %107, %108 : vector<16xf32>
    //             affine.store %109, %alloca[0] : memref<4xvector<16xf32>>
    //             %110 = arith.addi %74, %c1 : index
    //             %111 = memref.load %alloc_124[%110, %arg8] : memref<32x256xf32>
    //             %112 = vector.broadcast %111 : f32 to vector<16xf32>
    //             %113 = vector.load %alloc_125[%arg8, %75] : memref<256x64xf32>, vector<16xf32>
    //             %114 = affine.load %alloca[1] : memref<4xvector<16xf32>>
    //             %115 = vector.fma %112, %113, %114 : vector<16xf32>
    //             affine.store %115, %alloca[1] : memref<4xvector<16xf32>>
    //             %116 = memref.load %alloc_124[%110, %92] : memref<32x256xf32>
    //             %117 = vector.broadcast %116 : f32 to vector<16xf32>
    //             %118 = vector.load %alloc_125[%92, %75] : memref<256x64xf32>, vector<16xf32>
    //             %119 = affine.load %alloca[1] : memref<4xvector<16xf32>>
    //             %120 = vector.fma %117, %118, %119 : vector<16xf32>
    //             affine.store %120, %alloca[1] : memref<4xvector<16xf32>>
    //             %121 = memref.load %alloc_124[%110, %98] : memref<32x256xf32>
    //             %122 = vector.broadcast %121 : f32 to vector<16xf32>
    //             %123 = vector.load %alloc_125[%98, %75] : memref<256x64xf32>, vector<16xf32>
    //             %124 = affine.load %alloca[1] : memref<4xvector<16xf32>>
    //             %125 = vector.fma %122, %123, %124 : vector<16xf32>
    //             affine.store %125, %alloca[1] : memref<4xvector<16xf32>>
    //             %126 = memref.load %alloc_124[%110, %104] : memref<32x256xf32>
    //             %127 = vector.broadcast %126 : f32 to vector<16xf32>
    //             %128 = vector.load %alloc_125[%104, %75] : memref<256x64xf32>, vector<16xf32>
    //             %129 = affine.load %alloca[1] : memref<4xvector<16xf32>>
    //             %130 = vector.fma %127, %128, %129 : vector<16xf32>
    //             affine.store %130, %alloca[1] : memref<4xvector<16xf32>>
    //             %131 = arith.addi %74, %c2 : index
    //             %132 = memref.load %alloc_124[%131, %arg8] : memref<32x256xf32>
    //             %133 = vector.broadcast %132 : f32 to vector<16xf32>
    //             %134 = vector.load %alloc_125[%arg8, %75] : memref<256x64xf32>, vector<16xf32>
    //             %135 = affine.load %alloca[2] : memref<4xvector<16xf32>>
    //             %136 = vector.fma %133, %134, %135 : vector<16xf32>
    //             affine.store %136, %alloca[2] : memref<4xvector<16xf32>>
    //             %137 = memref.load %alloc_124[%131, %92] : memref<32x256xf32>
    //             %138 = vector.broadcast %137 : f32 to vector<16xf32>
    //             %139 = vector.load %alloc_125[%92, %75] : memref<256x64xf32>, vector<16xf32>
    //             %140 = affine.load %alloca[2] : memref<4xvector<16xf32>>
    //             %141 = vector.fma %138, %139, %140 : vector<16xf32>
    //             affine.store %141, %alloca[2] : memref<4xvector<16xf32>>
    //             %142 = memref.load %alloc_124[%131, %98] : memref<32x256xf32>
    //             %143 = vector.broadcast %142 : f32 to vector<16xf32>
    //             %144 = vector.load %alloc_125[%98, %75] : memref<256x64xf32>, vector<16xf32>
    //             %145 = affine.load %alloca[2] : memref<4xvector<16xf32>>
    //             %146 = vector.fma %143, %144, %145 : vector<16xf32>
    //             affine.store %146, %alloca[2] : memref<4xvector<16xf32>>
    //             %147 = memref.load %alloc_124[%131, %104] : memref<32x256xf32>
    //             %148 = vector.broadcast %147 : f32 to vector<16xf32>
    //             %149 = vector.load %alloc_125[%104, %75] : memref<256x64xf32>, vector<16xf32>
    //             %150 = affine.load %alloca[2] : memref<4xvector<16xf32>>
    //             %151 = vector.fma %148, %149, %150 : vector<16xf32>
    //             affine.store %151, %alloca[2] : memref<4xvector<16xf32>>
    //             %152 = arith.addi %74, %c3 : index
    //             %153 = memref.load %alloc_124[%152, %arg8] : memref<32x256xf32>
    //             %154 = vector.broadcast %153 : f32 to vector<16xf32>
    //             %155 = vector.load %alloc_125[%arg8, %75] : memref<256x64xf32>, vector<16xf32>
    //             %156 = affine.load %alloca[3] : memref<4xvector<16xf32>>
    //             %157 = vector.fma %154, %155, %156 : vector<16xf32>
    //             affine.store %157, %alloca[3] : memref<4xvector<16xf32>>
    //             %158 = memref.load %alloc_124[%152, %92] : memref<32x256xf32>
    //             %159 = vector.broadcast %158 : f32 to vector<16xf32>
    //             %160 = vector.load %alloc_125[%92, %75] : memref<256x64xf32>, vector<16xf32>
    //             %161 = affine.load %alloca[3] : memref<4xvector<16xf32>>
    //             %162 = vector.fma %159, %160, %161 : vector<16xf32>
    //             affine.store %162, %alloca[3] : memref<4xvector<16xf32>>
    //             %163 = memref.load %alloc_124[%152, %98] : memref<32x256xf32>
    //             %164 = vector.broadcast %163 : f32 to vector<16xf32>
    //             %165 = vector.load %alloc_125[%98, %75] : memref<256x64xf32>, vector<16xf32>
    //             %166 = affine.load %alloca[3] : memref<4xvector<16xf32>>
    //             %167 = vector.fma %164, %165, %166 : vector<16xf32>
    //             affine.store %167, %alloca[3] : memref<4xvector<16xf32>>
    //             %168 = memref.load %alloc_124[%152, %104] : memref<32x256xf32>
    //             %169 = vector.broadcast %168 : f32 to vector<16xf32>
    //             %170 = vector.load %alloc_125[%104, %75] : memref<256x64xf32>, vector<16xf32>
    //             %171 = affine.load %alloca[3] : memref<4xvector<16xf32>>
    //             %172 = vector.fma %169, %170, %171 : vector<16xf32>
    //             affine.store %172, %alloca[3] : memref<4xvector<16xf32>>
    //           }
    //           %83 = affine.load %alloca[0] : memref<4xvector<16xf32>>
    //           vector.store %83, %alloc_123[%arg7, %arg6] : memref<64x768xf32>, vector<16xf32>
    //           %84 = affine.load %alloca[1] : memref<4xvector<16xf32>>
    //           vector.store %84, %alloc_123[%77, %arg6] : memref<64x768xf32>, vector<16xf32>
    //           %85 = affine.load %alloca[2] : memref<4xvector<16xf32>>
    //           vector.store %85, %alloc_123[%79, %arg6] : memref<64x768xf32>, vector<16xf32>
    //           %86 = affine.load %alloca[3] : memref<4xvector<16xf32>>
    //           vector.store %86, %alloc_123[%81, %arg6] : memref<64x768xf32>, vector<16xf32>
    //         }
    //       }
    //     }
    //   }
    // }
    // affine.for %arg3 = 0 to 64 {
    //   affine.for %arg4 = 0 to 768 {
    //     %74 = affine.load %alloc_123[%arg3, %arg4] : memref<64x768xf32>
    //     %75 = affine.load %alloc_25[%arg4] : memref<768xf32>
    //     %76 = arith.addf %74, %75 : f32
    //     affine.store %76, %alloc_123[%arg3, %arg4] : memref<64x768xf32>
    //   }
    // }
    // %reinterpret_cast_126 = memref.reinterpret_cast %alloc_123 to offset: [0], sizes: [64, 1, 768], strides: [768, 768, 1] : memref<64x768xf32> to memref<64x1x768xf32>
    // %alloc_127 = memref.alloc() {alignment = 16 : i64} : memref<64x1x768xf32>
    // affine.for %arg3 = 0 to 64 {
    //   affine.for %arg4 = 0 to 1 {
    //     affine.for %arg5 = 0 to 768 {
    //       %74 = affine.load %alloc_84[%arg3, %arg4, %arg5] : memref<64x1x768xf32>
    //       %75 = affine.load %reinterpret_cast_126[%arg3, %arg4, %arg5] : memref<64x1x768xf32>
    //       %76 = arith.addf %74, %75 : f32
    //       affine.store %76, %alloc_127[%arg3, %arg4, %arg5] : memref<64x1x768xf32>
    //     }
    //   }
    // }
    // %alloc_128 = memref.alloc() {alignment = 16 : i64} : memref<64x1x768xf32>
    // affine.for %arg3 = 0 to 64 {
    //   affine.for %arg4 = 0 to 1 {
    //     affine.for %arg5 = 0 to 768 {
    //       %74 = affine.load %alloc_127[%arg3, %arg4, %arg5] : memref<64x1x768xf32>
    //       %75 = affine.load %alloc_36[0, %arg4, %arg5] : memref<1x1x768xf32>
    //       %76 = arith.addf %74, %75 : f32
    //       affine.store %76, %alloc_128[%arg3, %arg4, %arg5] : memref<64x1x768xf32>
    //     }
    //   }
    // }
    // %alloc_129 = memref.alloc() {alignment = 16 : i64} : memref<64x1x1xf32>
    // affine.for %arg3 = 0 to 64 {
    //   affine.for %arg4 = 0 to 1 {
    //     affine.for %arg5 = 0 to 1 {
    //       affine.store %cst, %alloc_129[%arg3, %arg4, %arg5] : memref<64x1x1xf32>
    //     }
    //   }
    // }
    // affine.for %arg3 = 0 to 64 {
    //   affine.for %arg4 = 0 to 1 {
    //     affine.for %arg5 = 0 to 768 {
    //       %74 = affine.load %alloc_128[%arg3, %arg4, %arg5] : memref<64x1x768xf32>
    //       %75 = affine.load %alloc_129[%arg3, %arg4, 0] : memref<64x1x1xf32>
    //       %76 = arith.addf %75, %74 : f32
    //       affine.store %76, %alloc_129[%arg3, %arg4, 0] : memref<64x1x1xf32>
    //     }
    //   }
    // }
    // affine.for %arg3 = 0 to 64 {
    //   affine.for %arg4 = 0 to 1 {
    //     affine.for %arg5 = 0 to 1 {
    //       %74 = affine.load %alloc_129[%arg3, %arg4, %arg5] : memref<64x1x1xf32>
    //       %75 = arith.divf %74, %cst_1 : f32
    //       affine.store %75, %alloc_129[%arg3, %arg4, %arg5] : memref<64x1x1xf32>
    //     }
    //   }
    // }
    // %alloc_130 = memref.alloc() {alignment = 16 : i64} : memref<64x1x768xf32>
    // affine.for %arg3 = 0 to 64 {
    //   affine.for %arg4 = 0 to 1 {
    //     affine.for %arg5 = 0 to 768 {
    //       %74 = affine.load %alloc_128[%arg3, %arg4, %arg5] : memref<64x1x768xf32>
    //       %75 = affine.load %alloc_129[%arg3, %arg4, 0] : memref<64x1x1xf32>
    //       %76 = arith.subf %74, %75 : f32
    //       affine.store %76, %alloc_130[%arg3, %arg4, %arg5] : memref<64x1x768xf32>
    //     }
    //   }
    // }
    // %alloc_131 = memref.alloc() : memref<f32>
    // %cast_132 = memref.cast %alloc_131 : memref<f32> to memref<*xf32>
    // %69 = llvm.mlir.addressof @constant_44 : !llvm.ptr<array<12 x i8>>
    // %70 = llvm.getelementptr %69[0, 0] : (!llvm.ptr<array<12 x i8>>) -> !llvm.ptr<i8>
    // call @read_tensor_f32(%70, %cast_132) : (!llvm.ptr<i8>, memref<*xf32>) -> ()
    // %alloc_133 = memref.alloc() {alignment = 16 : i64} : memref<64x1x768xf32>
    // affine.for %arg3 = 0 to 64 {
    //   affine.for %arg4 = 0 to 1 {
    //     affine.for %arg5 = 0 to 768 {
    //       %74 = affine.load %alloc_130[%arg3, %arg4, %arg5] : memref<64x1x768xf32>
    //       %75 = affine.load %alloc_131[] : memref<f32>
    //       %76 = math.powf %74, %75 : f32
    //       affine.store %76, %alloc_133[%arg3, %arg4, %arg5] : memref<64x1x768xf32>
    //     }
    //   }
    // }
    // %alloc_134 = memref.alloc() {alignment = 16 : i64} : memref<64x1x1xf32>
    // affine.for %arg3 = 0 to 64 {
    //   affine.for %arg4 = 0 to 1 {
    //     affine.for %arg5 = 0 to 1 {
    //       affine.store %cst, %alloc_134[%arg3, %arg4, %arg5] : memref<64x1x1xf32>
    //     }
    //   }
    // }
    // affine.for %arg3 = 0 to 64 {
    //   affine.for %arg4 = 0 to 1 {
    //     affine.for %arg5 = 0 to 768 {
    //       %74 = affine.load %alloc_133[%arg3, %arg4, %arg5] : memref<64x1x768xf32>
    //       %75 = affine.load %alloc_134[%arg3, %arg4, 0] : memref<64x1x1xf32>
    //       %76 = arith.addf %75, %74 : f32
    //       affine.store %76, %alloc_134[%arg3, %arg4, 0] : memref<64x1x1xf32>
    //     }
    //   }
    // }
    // affine.for %arg3 = 0 to 64 {
    //   affine.for %arg4 = 0 to 1 {
    //     affine.for %arg5 = 0 to 1 {
    //       %74 = affine.load %alloc_134[%arg3, %arg4, %arg5] : memref<64x1x1xf32>
    //       %75 = arith.divf %74, %cst_1 : f32
    //       affine.store %75, %alloc_134[%arg3, %arg4, %arg5] : memref<64x1x1xf32>
    //     }
    //   }
    // }
    // %alloc_135 = memref.alloc() : memref<f32>
    // %cast_136 = memref.cast %alloc_135 : memref<f32> to memref<*xf32>
    // %71 = llvm.mlir.addressof @constant_45 : !llvm.ptr<array<12 x i8>>
    // %72 = llvm.getelementptr %71[0, 0] : (!llvm.ptr<array<12 x i8>>) -> !llvm.ptr<i8>
    // call @read_tensor_f32(%72, %cast_136) : (!llvm.ptr<i8>, memref<*xf32>) -> ()
    // %alloc_137 = memref.alloc() {alignment = 16 : i64} : memref<64x1x1xf32>
    // affine.for %arg3 = 0 to 64 {
    //   affine.for %arg4 = 0 to 1 {
    //     affine.for %arg5 = 0 to 1 {
    //       %74 = affine.load %alloc_134[%arg3, %arg4, %arg5] : memref<64x1x1xf32>
    //       %75 = affine.load %alloc_135[] : memref<f32>
    //       %76 = arith.addf %74, %75 : f32
    //       affine.store %76, %alloc_137[%arg3, %arg4, %arg5] : memref<64x1x1xf32>
    //     }
    //   }
    // }
    // %alloc_138 = memref.alloc() {alignment = 16 : i64} : memref<64x1x1xf32>
    // affine.for %arg3 = 0 to 64 {
    //   affine.for %arg4 = 0 to 1 {
    //     affine.for %arg5 = 0 to 1 {
    //       %74 = affine.load %alloc_137[%arg3, %arg4, %arg5] : memref<64x1x1xf32>
    //       %75 = math.sqrt %74 : f32
    //       affine.store %75, %alloc_138[%arg3, %arg4, %arg5] : memref<64x1x1xf32>
    //     }
    //   }
    // }
    // %alloc_139 = memref.alloc() {alignment = 16 : i64} : memref<64x1x768xf32>
    // affine.for %arg3 = 0 to 64 {
    //   affine.for %arg4 = 0 to 1 {
    //     affine.for %arg5 = 0 to 768 {
    //       %74 = affine.load %alloc_130[%arg3, %arg4, %arg5] : memref<64x1x768xf32>
    //       %75 = affine.load %alloc_138[%arg3, %arg4, 0] : memref<64x1x1xf32>
    //       %76 = arith.divf %74, %75 : f32
    //       affine.store %76, %alloc_139[%arg3, %arg4, %arg5] : memref<64x1x768xf32>
    //     }
    //   }
    // }
    // %alloc_140 = memref.alloc() {alignment = 16 : i64} : memref<64x1x768xf32>
    // affine.for %arg3 = 0 to 64 {
    //   affine.for %arg4 = 0 to 1 {
    //     affine.for %arg5 = 0 to 768 {
    //       %74 = affine.load %alloc_139[%arg3, %arg4, %arg5] : memref<64x1x768xf32>
    //       %75 = affine.load %alloc_27[%arg5] : memref<768xf32>
    //       %76 = arith.mulf %74, %75 : f32
    //       affine.store %76, %alloc_140[%arg3, %arg4, %arg5] : memref<64x1x768xf32>
    //     }
    //   }
    // }
    // %alloc_141 = memref.alloc() {alignment = 16 : i64} : memref<64x1x768xf32>
    // affine.for %arg3 = 0 to 64 {
    //   affine.for %arg4 = 0 to 1 {
    //     affine.for %arg5 = 0 to 768 {
    //       %74 = affine.load %alloc_140[%arg3, %arg4, %arg5] : memref<64x1x768xf32>
    //       %75 = affine.load %alloc_29[%arg5] : memref<768xf32>
    //       %76 = arith.addf %74, %75 : f32
    //       affine.store %76, %alloc_141[%arg3, %arg4, %arg5] : memref<64x1x768xf32>
    //     }
    //   }
    // }
    // %73 = rmem.alloc_memref(2, ) {alignment = 16 : i64} : <1, memref<64x1x50264xf32>>
    // affine.for %arg3 = 0 to 64 {
    //   affine.for %arg4 = 0 to 1 {
    //     affine.for %arg5 = 0 to 50264 {
    //       rmem.affine.store %cst -> %73[%arg3, %arg4, %arg5] {map = #map9} : f32, !rmem.rmref<1, memref<64x1x50264xf32>>, index, index, index
    //     }
    //   }
    // }
    // affine.for %arg3 = 0 to 64 {
    //   affine.for %arg4 = 0 to 1 {
    //     affine.for %arg5 = 0 to 50264 step 8 {
    //       affine.for %arg6 = 0 to 768 step 8 {
    //         %alloca = memref.alloca() {alignment = 64 : i64} : memref<1xvector<8xf32>>
    //         affine.for %arg7 = 0 to 1 {
    //           %74 = arith.addi %arg7, %arg4 : index
    //           %75 = rmem.vec.load %73[%arg3, %74, %arg5] : !rmem.rmref<1, memref<64x1x50264xf32>>, vector<8xf32>
    //           affine.store %75, %alloca[0] : memref<1xvector<8xf32>>
    //           %76 = memref.load %alloc_141[%arg3, %74, %arg6] : memref<64x1x768xf32>
    //           %77 = vector.broadcast %76 : f32 to vector<8xf32>
    //           %78 = vector.load %alloc_33[%arg6, %arg5] : memref<768x50264xf32>, vector<8xf32>
    //           %79 = affine.load %alloca[0] : memref<1xvector<8xf32>>
    //           %80 = vector.fma %77, %78, %79 : vector<8xf32>
    //           affine.store %80, %alloca[0] : memref<1xvector<8xf32>>
    //           %81 = arith.addi %arg6, %c1 : index
    //           %82 = memref.load %alloc_141[%arg3, %74, %81] : memref<64x1x768xf32>
    //           %83 = vector.broadcast %82 : f32 to vector<8xf32>
    //           %84 = vector.load %alloc_33[%81, %arg5] : memref<768x50264xf32>, vector<8xf32>
    //           %85 = affine.load %alloca[0] : memref<1xvector<8xf32>>
    //           %86 = vector.fma %83, %84, %85 : vector<8xf32>
    //           affine.store %86, %alloca[0] : memref<1xvector<8xf32>>
    //           %87 = arith.addi %arg6, %c2 : index
    //           %88 = memref.load %alloc_141[%arg3, %74, %87] : memref<64x1x768xf32>
    //           %89 = vector.broadcast %88 : f32 to vector<8xf32>
    //           %90 = vector.load %alloc_33[%87, %arg5] : memref<768x50264xf32>, vector<8xf32>
    //           %91 = affine.load %alloca[0] : memref<1xvector<8xf32>>
    //           %92 = vector.fma %89, %90, %91 : vector<8xf32>
    //           affine.store %92, %alloca[0] : memref<1xvector<8xf32>>
    //           %93 = arith.addi %arg6, %c3 : index
    //           %94 = memref.load %alloc_141[%arg3, %74, %93] : memref<64x1x768xf32>
    //           %95 = vector.broadcast %94 : f32 to vector<8xf32>
    //           %96 = vector.load %alloc_33[%93, %arg5] : memref<768x50264xf32>, vector<8xf32>
    //           %97 = affine.load %alloca[0] : memref<1xvector<8xf32>>
    //           %98 = vector.fma %95, %96, %97 : vector<8xf32>
    //           affine.store %98, %alloca[0] : memref<1xvector<8xf32>>
    //           %99 = arith.addi %arg6, %c4 : index
    //           %100 = memref.load %alloc_141[%arg3, %74, %99] : memref<64x1x768xf32>
    //           %101 = vector.broadcast %100 : f32 to vector<8xf32>
    //           %102 = vector.load %alloc_33[%99, %arg5] : memref<768x50264xf32>, vector<8xf32>
    //           %103 = affine.load %alloca[0] : memref<1xvector<8xf32>>
    //           %104 = vector.fma %101, %102, %103 : vector<8xf32>
    //           affine.store %104, %alloca[0] : memref<1xvector<8xf32>>
    //           %105 = arith.addi %arg6, %c5 : index
    //           %106 = memref.load %alloc_141[%arg3, %74, %105] : memref<64x1x768xf32>
    //           %107 = vector.broadcast %106 : f32 to vector<8xf32>
    //           %108 = vector.load %alloc_33[%105, %arg5] : memref<768x50264xf32>, vector<8xf32>
    //           %109 = affine.load %alloca[0] : memref<1xvector<8xf32>>
    //           %110 = vector.fma %107, %108, %109 : vector<8xf32>
    //           affine.store %110, %alloca[0] : memref<1xvector<8xf32>>
    //           %111 = arith.addi %arg6, %c6 : index
    //           %112 = memref.load %alloc_141[%arg3, %74, %111] : memref<64x1x768xf32>
    //           %113 = vector.broadcast %112 : f32 to vector<8xf32>
    //           %114 = vector.load %alloc_33[%111, %arg5] : memref<768x50264xf32>, vector<8xf32>
    //           %115 = affine.load %alloca[0] : memref<1xvector<8xf32>>
    //           %116 = vector.fma %113, %114, %115 : vector<8xf32>
    //           affine.store %116, %alloca[0] : memref<1xvector<8xf32>>
    //           %117 = arith.addi %arg6, %c7 : index
    //           %118 = memref.load %alloc_141[%arg3, %74, %117] : memref<64x1x768xf32>
    //           %119 = vector.broadcast %118 : f32 to vector<8xf32>
    //           %120 = vector.load %alloc_33[%117, %arg5] : memref<768x50264xf32>, vector<8xf32>
    //           %121 = affine.load %alloca[0] : memref<1xvector<8xf32>>
    //           %122 = vector.fma %119, %120, %121 : vector<8xf32>
    //           affine.store %122, %alloca[0] : memref<1xvector<8xf32>>
    //           %123 = affine.load %alloca[0] : memref<1xvector<8xf32>>
    //           rmem.vec.store %123, %73[%arg3, %74, %arg5] : !rmem.rmref<1, memref<64x1x50264xf32>>, vector<8xf32>
    //         }
    //       }
    //     }
    //   }
    // }
    return %alloc : memref<64x1x50264xf32>
  }
}

